saved_model_w/esr1.pth (torch_old, 15381 bytes, 12 tensors)

layers.0.weight f4 [4, 13, 16]
00000000: 94ef ac3c c385 0d3e 25b0 f63b 3d41 c53d
00000010: 60d7 943c eb4f 34bd 66c6 b2be 499a c1bd
00000020: 4397 073e ff59 873e c939 8e3e dd66 0d3e
00000030: 3eb6 23bd 3b15 3bbe 8993 da3d 5cb0 0fbd
00000040: 91fd 8cbe 0324 f6be c1d5 343e 9bab 1abe
00000050: 2d4c 1b3e 86ce acbc 51f0 50be b5c4 0e3f
00000060: 0f5c f6be 9bdd 01bf a20f 2bbf 8187 4dbe
00000070: 026e e13e f722 cd3e eeb2 7ebe 39fe 503f
00000080: ffff d63e 7a28 f83e b4e5 283e 7bf9 f1be
00000090: 5ea3 063f 98d4 69be 1f9b 60be 6b53 0d3f
000000a0: c0a9 18bf 1a87 2d3d cd4d b2be bff9 f5be
000000b0: e130 fe3e 8672 bd3e d652 e3bd c7ae fd3e
000000c0: 98f6 1f3f 3692 243f ad62 c43e 8bd8 d83c
000000d0: 48f0 523f cf26 a3be f257 f13d e2d7 dd3e
000000e0: 7ec8 a0be 83bd 2e3f d1f3 b43e b89b 663e
000000f0: f346 89bd 76e8 f9bd 3929 cfbd 793a 173f
00000100: 4949 1fbe b8f9 cb3e 52c2 5d3e e17d 33be
00000110: 7c29 a93e ee13 cf3d 76f0 3dbf e3d6 8abe
00000120: ff42 adbd fc92 233e 4469 e3be 2996 383f
00000130: d66c c0bd a7da 143f 67ae 3d3e dadf 803f
00000140: acf5 0dbe 9f5d 3fbe 2865 78be ea21 3e3e
00000150: 3c28 10bd c899 a0be 36ae acbe bf2d a4be
00000160: 4eed bb3d 388b 68be 997a 573e 17b2 703e
00000170: 1fc0 633e a0d8 443e a415 063e 48f1 633e
00000180: 2cf2 393f 4085 f83e 9c0d 623e 4477 54be
00000190: f341 073f e564 643e c0d6 8fbe f95c b23e
000001a0: 5d29 5fbe 5999 053f 535d 85be 706a 73be
000001b0: 501e f3bd c081 353d 0aee 98be e745 493e
000001c0: 7e9d 96bb fa01 f63e f719 46be fb5e 41be
000001d0: 94ba dd3d 44d1 e7be ad97 eb3e af3f b33e
000001e0: 2024 a73f 958a d6be 7632 043f 5d0d 383f
000001f0: 88e6 19be b80f b4bd cb61 943c f5f6 53be
00000200: 29e6 2bbf 4091 dbbe 9b0f 353e 82bb 1dbf
00000210: 0604 413e c645 3fbe 3d68 d8be 5184 693e
00000220: b6b9 a1be 6a56 a03d 5c79 633e 40b0 15be
00000230: 44b0 cebd 8b92 f83d 0c2c 88be 1ec9 383d
00000240: c5be 89be bc4e 023f c4dd 32be 5980 93be
00000250: f852 9d3d c54b 64be d42f ae3e 48a5 a23c
00000260: 664f ae3d 376a 663b d3eb 23be 34b3 00be
00000270: 1f14 06be 1b0c 61bd ca33 f03d 3c54 0b3f
00000280: 45d4 403e a0a0 43be b860 b8bd 6084 48bd
00000290: 8abc 0dbd e7ac 79bf 0829 71be 3487 dd3e
000002a0: 6a42 353c cc31 6d3e 58d1 9c3d e7f8 613e
000002b0: 0af6 f03d 1ea9 00be 07ea 6a3e 0199 52bd
000002c0: 5a8a a9bb 14fe 533d 447d 033f 88c7 6f3e
000002d0: 4b4d e0be f3c2 2ebd 8ff9 27bf 30bc 593f
000002e0: 2979 24bf f966 0c3f dedb 98be 51f5 18bf
000002f0: 6641 cc3e e8ae 6f3e 9fab 05be 6681 7dbd
00000300: c6a4 723e 4b62 ff3e 6bcb 35be e550 95be
00000310: 54b8 173f 447a ae3c 9442 9ebe 8a7c cebd
00000320: 9f7d a5bd 6c2e f23e 4a11 3ebf 4655 583f
00000330: 781e 29be a8d1 f73e fabd 093f 3aa3 51be
00000340: 9a10 93bd db76 c03d 9371 9b3c 7a34 c83d
00000350: 80f7 fdbd e375 ef3d b672 0e3e 4f81 7e3e
00000360: dd94 e83d e667 ed3c 3ca5 7e3b 4ca0 a73e
00000370: 160c 5f3d 7ccc ca3d 7599 bebd 1933 903e
00000380: 73b4 4d3f 0aa3 a4bb c38e 923e 0f14 90be
00000390: 04cc 9c3e 73b6 2a3e 12ed 97bb d1d0 5bbc
000003a0: d978 96be 53cf b23d f6a5 2fbe a0b2 ac3d
000003b0: bf9f 1e3f 8603 e43e 8bc8 ff3e 42f1 403f
000003c0: e0b3 23bd e1bc 4ebe b45a 533d 7b73 cdbd
000003d0: 460a ed3d 85c3 4dbe 64dc 90bd 00ac 6cbc
000003e0: 086b af3c e95c 263e 16e4 3ebe ca04 fabd
000003f0: f4da 533d d8a9 48bd 9651 babd 603a efbc
0.021110334 0.13820557 0.0075283223 0.09631584 0.018169105 -0.04402153 -0.3491699 -0.09453256
0.13241296 0.2643585 0.27778462 0.1380877 -0.03996872 -0.18269818 0.10672671 -0.0350803
-0.27537206 -0.4807435 0.17659666 -0.15104525 0.15165778 -0.021094572 -0.20404173 0.557689
-0.4811711 -0.5072877 -0.6682073 -0.20071222 0.44029242 0.4006574 -0.24872944 0.81637913
0.41992185 0.4846838 0.16493875 -0.4726065 0.5259303 -0.22835004 -0.21934174 0.5520541
-0.5963402 0.04236517 -0.34824982 -0.48042104 0.49646667 0.37001437 -0.11099784 0.49547407
0.6248565 0.642856 0.38356534 0.026470443 0.8239789 -0.31865546 0.11784352 0.43328768
-0.31402963 0.6825792 0.35342267 0.2252034 -0.067029856 -0.122025415 -0.101152845 0.590736
-0.155553 0.39838958 0.21656159 -0.17528488 0.33039463 0.10111223 -0.7419504 -0.2711707
-0.08460044 0.15974039 -0.4441625 0.72104126 -0.09395759 0.58146137 0.1852356 1.0068314
-0.13863248 -0.18688057 -0.24257338 0.18567625 -0.03519462 -0.31367326 -0.33726662 -0.32066151
0.09176122 -0.22709358 0.21042861 0.23505436 0.22241257 0.19223261 0.13094193 0.2226001
0.7263515 0.48539162 0.22075504 -0.20748621 0.52835006 0.22304113 -0.2809353 0.34836558
-0.21793123 0.52187115 -0.26047763 -0.23771071 -0.11871016 0.044313192 -0.2986911 0.19655572
-0.0045964113 0.48048383 -0.19345842 -0.18883888 0.108266026 -0.45276845 0.46014157 0.35009524
1.30579 -0.41902605 0.516395 0.7189539 -0.15029347 -0.087920606 0.018113038 -0.20699675
-0.6714807 -0.42884254 0.17681734 -0.6161424 0.18849191 -0.1867896 -0.42267027 0.22804381
-0.31587 0.07828982 0.22214264 -0.14618015 -0.10092214 0.12137326 -0.26596105 0.045113675
-0.26903358 0.5090139 -0.1746741 -0.2880886 0.07681841 -0.22294529 0.34020865 0.019854203
0.08511238 0.0035158524 -0.16007929 -0.1256836 -0.13093613 -0.054943185 0.11728628 0.54425406
0.18830974 -0.19104242 -0.09002823 -0.048954368 -0.034603633 -0.97529453 -0.23550808 0.43267214
0.011063198 0.23163527 0.07657117 0.22067605 0.11765678 -0.12564513 0.22940837 -0.051415447
-0.0051739635 0.05175598 0.51363015 0.23415959 -0.4380897 -0.042666387 -0.6561517 0.85052776
-0.64247376 0.54844624 -0.29855245 -0.59749323 0.39893645 0.23406565 -0.1305375 -0.061890982
0.23695669 0.4987968 -0.17753379 -0.2916328 0.5926564 0.021298535 -0.3091017 -0.10082348
-0.08080601 0.47301042 -0.7424513 0.84505117 -0.16515529 0.48402143 0.53805506 -0.20472422
-0.07180901 0.0939767 0.018975055 0.09775634 -0.124007225 0.11692407 0.13910946 0.24854015
0.113565184 0.028980207 0.0038855812 0.32739484 0.054454885 0.099022835 -0.09306613 0.28163984
0.8035347 -0.0050243186 0.28624544 -0.28140303 0.30624402 0.16671161 -0.0046364153 -0.013416485
-0.29389074 0.0873095 -0.17153153 0.084325075 0.61962503 0.44533938 0.4995769 0.7536813
-0.039966464 -0.20189239 0.051600173 -0.10031792 0.11574225 -0.20094116 -0.07073286 -0.014445305
0.021413341 0.1624638 -0.18641695 -0.12207945 0.05172248 -0.0489901 -0.090975925 -0.02920264

layers.0.h_bias f4 [16]
00000000: 1fe2 c93c 1e88 d7bd 4ea0 263e 5390 60be
00000010: 0e7b e33a d86a 433e 2ed8 7fbd c281 dc3d
00000020: 1971 e1bd 74a1 43be e614 c3bd e67f 8bbe
00000030: f44c 98be 9396 8e3a f915 83bd 0078 91be
0.024643956 -0.10524009 0.16272089 -0.21930055 0.0017355399 0.19083726 -0.062462024 0.10766937
-0.110079 -0.19104558 -0.095254704 -0.27246016 -0.2974621 0.0010878615 -0.06400675 -0.28411865

layers.1.weight f4 [4, 16, 16]
00000000: 7a41 9abd a850 5d3d b4d6 883e e537 7a3d
00000010: 60d0 0a3e fa4b 13be a440 00be 122f 89bf
00000020: 47c1 203e 9477 493d 21fb 1d3e f5ec cc3e
00000030: b81a c8be 16d6 283d c27d 333e 2bdb 5a3e
00000040: 27ea 833d 5636 c5bd cef8 a93e 06d2 aebd
00000050: 62a1 32bd 8ec4 cbbb bb3b 7dbe 27f3 d4be
00000060: bb8c 0e3e 7577 57be 97d2 31be bcce a03e
00000070: 86e3 5e3e 3b6d 17ba cf93 8c3c b22f 7b3e
00000080: 637a d9be c5cc 31bf 8473 00bf 433b d03e
00000090: 2cfc 603d 717e fa3d 6d32 843d dc55 743e
000000a0: ac0b bc3d 6640 a2be 6d46 103d c12f d0be
000000b0: acac 863d 8c74 4ebe b05a fd3d 6ea9 60be
000000c0: b7ce 603e 2378 003c 0d57 8bbe a7cd 633e
000000d0: 552f 3cbb 2c9c 963e 30c0 2a3e f7fb 383e
000000e0: 1997 0cbe 2e65 94bd 9063 6cbe bc6b 073e
000000f0: 6678 48be 9d34 4dbe e0f2 0bbf c566 7cbe
00000100: c8d0 993d 30fc 283e dcb8 d7bb 6323 c7bd
00000110: 88ea 98bd 1335 103d 7ae6 bebe 60d0 5ebe
00000120: d5b0 383e ef25 9b3e eda1 ac3b 0e45 603e
00000130: 9de0 1dbd ec98 173e 7725 5d3e 626d 943e
00000140: 5d7c ccbe 6e69 40be a8d7 1abf 9531 833e
00000150: 3f7c 0bbe dd04 b63d 0ffc a3bd 2de1 f4bd
00000160: be55 563e 0902 bdbe ebe1 d23e 6ce6 e73e
00000170: 5da2 f4be 07dc 43bf 339d 44bf 2463 8dbe
00000180: 1739 fcbc 1b41 a63e 86e3 40be 92a7 123f
00000190: 6b6b 833f 75a7 b73e 904e 49be 11d2 e33b
000001a0: f896 35bf 7188 5b3e 3c9d b83e 3020 8dbe
000001b0: 6e40 cf3e 16d1 0ebf b6ca 88be fe13 56be
000001c0: 15ca 82be 377d adbe 10b8 0dbe 116b cf3c
000001d0: 5265 f73c d87a 60bf 8219 40be b3cd 17be
000001e0: f64b 89be b70d 103f 9e97 943e 23c3 8c3e
000001f0: 5933 88bc ebea e23e 2056 25bf 405a b93d
00000200: c3ff 0fbe 8815 32be b742 bf3d be85 8bbd
00000210: 098d 13be 7e5b 983d 6859 413e 2e4b afbe
00000220: 1006 6dbe 61a6 f13d cdcc 3ebd 1602 f9bb
00000230: 9ab1 a13e 6559 23bd 7291 77be 59a9 613d
00000240: df84 543e a26e 863d fb24 973e 99c4 fbbc
00000250: 79b0 8ebe 2d7f 6abd 860f 923d 80b1 313d
00000260: f22c 34bc fc50 b43d 88a2 babe 9e9c 2c3e
00000270: 2e64 05be ccc5 b93d ef3b 873d 4656 403d
00000280: 533d b93d 180c 28be 3f86 05bd 6f9e 18be
00000290: 4161 58be e936 b0bd 217d 033e b9c3 9c3d
000002a0: b3c1 c6bd fc62 d6bd 2283 0abe 27a3 57bd
000002b0: 4345 82be 1439 62be cd05 0a3e 3ec3 40bd
000002c0: 22db 243d 1896 38be f6d2 463e 334a debe
000002d0: f568 bdbd 07ef d9be b92c 203e e724 e0bd
000002e0: dd8d 54be 685c ec3c 7093 85bd d97d 943e
000002f0: 529a 0ebf b2b6 ea3d cf6e 7bbe b7b1 29bd
00000300: df92 103f 4ed1 393e 775e 603d 9dee f63d
00000310: bac0 183f e02d 943e c153 c33e a092 893e
00000320: ceb9 133e 3e45 313e 1ec7 973e 4997 e23e
00000330: d47c bfbe ad3c 88be 9282 893d 4154 aebc
00000340: 2104 ecbd 1713 2fbe 6a50 b2be a23b 193e
00000350: 1285 573e 3a40 8b3e f18b 733d 5f77 3dbe
00000360: 2a17 bbbd e11e 593e 15d5 7d3e 86ba 08be
00000370: 797a de3d e6ec 693e 905a 95bd b289 d23d
00000380: 1e24 a5bc 267a 423d 8e6d 41bc 112c 40be
00000390: 083e cbbc 7172 45be 9d29 73bc 6a72 18be
000003a0: 8aec eabe b1c8 5bbe 2e90 233e b21b 853d
000003b0: 9944 acbe 946d 97be 98e8 1cbe d33a ab3d
000003c0: 7314 203e 4332 8c3e e797 ed3c b83b dbbb
000003d0: 349e 073f 8653 793e f5ec d13d 051c 9d3e
000003e0: 132c b7be 4400 d43e 4a9c 213e 30b0 fa3e
000003f0: 6f04 d93d aa20 cb3e b15b b9bd ab27 423e
-0.0753202 0.054031998 0.26726305 0.06108846 0.13556051 -0.14384452 -0.12524658 -1.071749
0.1569873 0.049186304 0.1542783 0.40024534 -0.39082885 0.041219793 0.17528442 0.21372668
0.064411454 -0.096295044 0.33197635 -0.085361525 -0.043610938 -0.0062184995 -0.24729817 -0.4159176
0.13920872 -0.21041663 -0.1736549 0.31407726 0.21766481 -0.00057764695 0.017160324 0.24529913
-0.42476186 -0.6945308 -0.5017626 0.40670213 0.05492799 0.12231148 0.064549305 0.23860878
0.09181914 -0.31689757 0.035223413 -0.40661433 0.06575903 -0.20161647 0.12370813 -0.21939632
0.21953855 0.007841143 -0.27214852 0.22246419 -0.0028714736 0.29416025 0.16674876 0.18064867
-0.13729514 -0.07245861 -0.23084855 0.13224691 -0.19577178 -0.20039602 -0.5466747 -0.24648578
0.07510525 0.16502452 -0.0065833163 -0.09723546 -0.07466608 0.035206866 -0.37285215 -0.21759176
0.18036206 0.3030238 0.0052683265 0.21901342 -0.038544286 0.14804429 0.21596323 0.28989702
-0.39938632 -0.18790218 -0.60485315 0.25623766 -0.13621615 0.08887646 -0.08007061 -0.11957011
0.20931146 -0.36915615 0.41187987 0.45292985 -0.47780123 -0.7650761 -0.76802367 -0.276147
-0.030788941 0.32471547 -0.18836793 0.5728694 1.0267156 0.35869947 -0.19658875 0.006952532
-0.70933485 0.21438767 0.3605746 -0.2756362 0.40478843 -0.5578779 -0.26717156 -0.20906064
-0.255448 -0.33884594 -0.13839746 0.025319608 0.03019968 -0.87687445 -0.1875973 -0.14824562
-0.26815766 0.5627093 0.29021925 0.27492628 -0.016626047 0.44319853 -0.6458454 0.09050417
-0.14062409 -0.17391026 0.09338897 -0.06812619 -0.1440927 0.07439326 0.18881762 -0.34237045
-0.23146844 0.117993124 -0.046582032 -0.0075991256 0.31580812 -0.039880175 -0.24176577 0.055093143
0.20753811 0.0656407 0.295204 -0.030733394 -0.27869013 -0.05725019 0.07131867 0.043382168
-0.010997044 0.08804509 -0.36452127 0.1685662 -0.13026497 0.0907093 0.06603228 0.046957277
0.090449 -0.16410863 -0.03259873 -0.14904188 -0.2113085 -0.08604223 0.12840702 0.07654519
-0.09704914 -0.104680985 -0.13526586 -0.05264583 -0.25443467 -0.22092086 0.13478775 -0.047061197
0.040248044 -0.18026006 0.19416413 -0.43415985 -0.092485346 -0.42565176 0.1564206 -0.109445386
-0.20757242 0.028852656 -0.06522262 0.29002264 -0.55704224 0.114606276 -0.24553989 -0.041429248
0.5647411 0.1814625 0.05477759 0.120572306 0.5966908 0.2894125 0.38149837 0.26869678
0.14426348 0.1731157 0.29644102 0.44256046 -0.37399924 -0.26608792 0.067143574 -0.02128041
-0.11524225 -0.17097126 -0.34826976 0.14964154 0.21046856 0.27197438 0.05945963 -0.18502568
-0.091352776 0.21203186 0.24788316 -0.13352403 0.108632036 0.22844276 -0.07292664 0.102801695
-0.020158824 0.04747977 -0.011805905 -0.1876681 -0.024809852 -0.19281937 -0.014841464 -0.14887396
-0.4588359 -0.21463276 0.15972969 0.06499423 -0.33646086 -0.2957579 -0.15323102 0.08360829
0.15632801 0.27382097 0.029003097 -0.0066904686 0.52975774 0.24348268 0.10250274 0.3068544
-0.35775813 0.41406453 0.15782276 0.48962545 0.10596549 0.39673358 -0.09050692 0.18960445

layers.1.h_bias f4 [16]
00000000: 7f28 5bbe 2b16 70bc 5509 6dbe 4082 7e3e
00000010: 4856 fb3c fa3e 0dbd 84de 65bd 9dec 2cbe
00000020: 30e2 d93d cc17 893c 3cdb a03d 6412 c1be
00000030: 811d 0d3e 5f82 b4bb 105d 0a3e 4ecf 2cbe
-0.21402167 -0.014653723 -0.23148091 0.24854374 0.03068079 -0.034483887 -0.05612041 -0.16887136
0.10638845 0.01673498 0.07854316 -0.37709343 0.13780786 -0.0055087055 0.13512063 -0.16875955

layers.2.weight f4 [4, 16, 16]
00000000: bb33 e13d 6e69 b8bd 053b 44be 3e1c 7cbe
00000010: 77c8 4c3d 4727 103e c77b 223e cfaf bb3e
00000020: 1e1c 063e d90c b73d 1f67 1abf f879 ab3d
00000030: 404b 8bbe a3e3 9cbe 659f 59be 8a6c 0f3d
00000040: 0b70 49be 9319 b33c 0e3d 7fbf 3e35 d33d
00000050: 8a4e 943e 12f4 e1bc 50c5 1f3e a44c f1bd
00000060: 85f7 4dbe d289 193e a593 a4be f4f5 23be
00000070: 0a82 8bbe bcdd a8be bfba 1ebf bce5 543e
00000080: 49ef f2bd 3cd8 b9be accc 55be 024a fd3b
00000090: 2426 19be 3545 18be f8c3 883e a29a 993d
000000a0: 438a bbbd dc73 a1ba 9862 33be 3959 7dbd
000000b0: 83da 04bf 7adc 13bd 1197 aa3d c700 223e
000000c0: c343 bf3e 07c2 c53e a280 b43e e99f 033f
000000d0: 72e9 483e 1001 4e3e 996a dd3e 888a bdbe
000000e0: 1414 abbe fe4f ae3e 2cc6 d73e dd7f 22bf
000000f0: 2553 9f3e 7531 a93e 8517 64be 5b66 783e
00000100: 1a3e aa3d 4b04 aa3e 7829 44be 336f bebe
00000110: 6ca6 2cbe 802c c03e 454c 103f 93dc 32be
00000120: 8331 7c3d a72f fb3d 92b8 f33e 88fb 6ebe
00000130: 35d2 c23e 4574 5bbf 9a0c df3d 736f 1c3f
00000140: 5ea3 783e 1998 f6be b01d c0be 3c80 193e
00000150: 0735 ba3f 1bba 373e ec83 323f 3a74 7c3c
00000160: df4b 4dbe 997e a43f 866c a1be 06d3 cebe
00000170: 0068 f63b fe87 5abf 97ef 91be 7bd1 363f
00000180: 55ec bebe d228 1b3e 29d3 513d 2f3a 0fbf
00000190: 5336 bcbe b76d 73bc 6ad6 26be 3d0f 683e
000001a0: 99aa 393e 2519 2b3e e094 8fbe be7b f83d
000001b0: 3945 de3a 1aae 92bf f72a 58be 1c61 ecbd
000001c0: 9189 c03c 0317 063e 70b2 23be 22e4 80bd
000001d0: d4a9 06bf 0009 0bbe 6b30 31be ea1a d53d
000001e0: a00e ab3e d80e c13e d253 33be 0199 b63e
000001f0: 752e 73bd ccee d6be 347a c33d c799 4abf
00000200: 39fa 043e e51b 07be 4b19 a73e c155 043f
00000210: 1d1d bdbe 87e3 e5bd 6845 edbc e9ea e43d
00000220: 6a67 8d3e 54ce 47be 301a 9abd 84ea 2c3e
00000230: 1221 64bd fe18 253e 9008 a63e c97d 5fbe
00000240: 6175 753e 90dd 5b3e ada8 0d3d de6d 0bbf
00000250: c51c cbbe 4d77 163e 1372 7d3e fe85 bcbe
00000260: f5a8 21bc 13ba 023d 821f 49be 537c 653d
00000270: 356c b93e 7541 be3d 10e7 743d dd1f b43e
00000280: 7d0b e13e 12d2 063d e495 37bf bd64 ae3d
00000290: 9c42 3dbe d6e9 d6be 462e 1ebe 6ff8 b7bd
000002a0: 3b0a a6bd c447 a13e 7549 aa3c 52ca 0bbe
000002b0: 92a2 b73e 54ec 4a3e 08de 61bf 63c3 02be
000002c0: ff64 e5be ab7d a4be 064c 5c3d a957 83be
000002d0: db9b 67be 3f16 913d f516 853c 46d7 9e3e
000002e0: 888d ccbd 70ea 3c3e a2e5 41be c6d5 253e
000002f0: bd52 debe 02ad 5d3e ac3c d23d 7af7 453e
00000300: a7bc f13e 0997 233d 5697 0b3e 7993 83bf
00000310: 329a 793f 15a8 9f3d ab6e ef3e 4978 143e
00000320: f1d0 b23e 0a92 ca3e f3b2 72be 0b18 0e3e
00000330: 56de 833e 1c84 5fbe 2d66 dbbd d388 333e
00000340: d15b 8c3e 2397 a83d 646f ca3d a040 83be
00000350: fb9e 8a3e efad 443e 467e a13e 3608 b13c
00000360: 8481 7cbe b23f 733e ee0a e6bd 4dfb 733e
00000370: 2b0b 703e e052 053e b33d 913e 7663 803d
00000380: cc15 43bd 3239 403d 7dd1 de3e cf6b ccbe
00000390: 5075 ba3c 6713 3dbe 2ead 20bf f5d9 a03d
000003a0: e5f0 c13e d51d 78be bff8 3f3e cf59 4f3e
000003b0: 30fc 42be 18a8 a7bf e415 883e a435 d9be
000003c0: 0ff9 18bc 7ad0 e5be 8622 9a3c f136 2cbe
000003d0: 40b3 e73e b1a2 9cbb d117 9a3e c43c 043e
000003e0: e00b afbd a22e 2c3c aecf b3be 2864 8d3e
000003f0: d006 e73c 050e dfbd 2094 86bd b74e 5a3e
0.10996195 -0.09004484 -0.19163139 -0.24620149 0.049995866 0.14077483 0.1586753 0.3665757
0.13096663 0.08937997 -0.603136 0.08372873 -0.2720585 -0.30642423 -0.2125221 0.03501562
-0.19671647 0.02186278 -0.9970254 0.103128895 0.2896617 -0.027582202 0.15602612 -0.11782196
-0.20113952 0.1499398 -0.32143894 -0.16011792 -0.2724765 -0.3298167 -0.620037 0.20790762
-0.11862046 -0.36297786 -0.20878857 0.0077297697 -0.14955956 -0.1487015 0.26712012 0.07500197
-0.09157231 -0.0012317854 -0.1751808 -0.061852667 -0.5189592 -0.036098935 0.08329595 0.15820609
0.37356386 0.38624594 0.3525439 0.5141588 0.19620302 0.20117593 0.4324539 -0.37019753
-0.33413756 0.34045404 0.4214338 -0.63476354 0.31118122 0.33045545 -0.22274597 0.24257796
0.08312626 0.332064 -0.19156444 -0.37194213 -0.1686036 0.3753395 0.5636638 -0.17466955
0.061570656 0.12264948 0.47601753 -0.23338139 0.38051 -0.8572429 0.108910754 0.6110756
0.2428107 -0.48162916 -0.3752265 0.14990324 1.4547433 0.17942087 0.69732547 0.01540857
-0.20048474 1.2851135 -0.3152811 -0.40395373 0.007519722 -0.8536376 -0.28503105 0.7141339
-0.37289682 0.1515229 0.05122677 -0.55948156 -0.36760196 -0.014857701 -0.1629273 0.22662063
0.18131484 0.1670881 -0.2804327 0.12132977 0.0016957886 -1.1459382 -0.2111014 -0.1154196
0.023503097 0.13094716 -0.15986037 -0.06293513 -0.5260289 -0.13577652 -0.17303626 0.10405524
0.33409595 0.37706637 -0.17512444 0.35663608 -0.059370477 -0.41979063 0.09544793 -0.79140896
0.12986077 -0.13194235 0.32636485 0.5169335 -0.36936274 -0.11225038 -0.02896376 0.11177618
0.2761796 -0.19512302 -0.07524526 0.16886336 -0.0556956 0.16122815 0.32428408 -0.21825327
0.23970558 0.21471238 0.03458469 -0.5446452 -0.39670387 0.14693947 0.24750547 -0.36820978
-0.009866943 0.031915735 -0.19640926 0.056026768 0.36215368 0.09289829 0.05979067 0.3518056
0.43954077 0.032915182 -0.7171309 0.08515308 -0.1848244 -0.41975278 -0.1544734 -0.08982932
-0.0810742 0.31500065 0.02078698 -0.13651398 0.3586622 0.19816715 -0.8822942 -0.12769847
-0.44803616 -0.32127127 0.05378344 -0.25652817 -0.22618048 0.07084321 0.016246298 0.31023616
-0.099879324 0.18448806 -0.18935254 0.1619483 -0.434225 0.21648028 0.102654785 0.19332686
0.47214243 0.03993896 0.13631949 -1.027938 0.9750091 0.07795731 0.4676412 0.1449901
0.34925035 0.39564544 -0.23701076 0.13876359 0.25755566 -0.2182774 -0.10712848 0.17532663
0.274138 0.08231952 0.09884527 -0.25635242 0.27074417 0.19206975 0.3154165 0.02161036
-0.24658781 0.23754767 -0.112325534 0.23826332 0.2344176 0.13019896 0.28367385 0.06268971
-0.04762821 0.046929546 0.43519202 -0.39926 0.022761017 -0.18464433 -0.6276425 0.07854072
0.378791 -0.2423013 0.18747233 0.20249103 -0.19041514 -1.3098173 0.265792 -0.42423737
-0.009336724 -0.44885617 0.01881529 -0.16817833 0.45253944 -0.0047801365 0.30096295 0.12913805
-0.08547187 0.010509165 -0.35119385 0.27615476 0.02820149 -0.10891346 -0.06571221 0.2131909

layers.2.h_bias f4 [16]
00000000: c869 893d 23cd 883e 2138 2dbc b771 813d
00000010: cc6e 8d3d e718 5ebd 7768 1f3e f8d3 55bd
00000020: eed6 3bbe 19a4 0a3e 6dce 823c c832 57be
00000030: fd47 ab3d 7ffb 51bc 034c 63bd 7b80 3f3e
0.06709629 0.26719007 -0.010572464 0.063205175 0.069058985 -0.054222967 0.15567194 -0.052204102
-0.18343708 0.13539161 0.015967572 -0.21015465 0.0836334 -0.012816309 -0.055492412 0.18701355

layers.3.weight f4 [4, 16, 4]
00000000: 252b 09be 3db1 0c3f 83ec d33e 7098 21bf
00000010: 4253 113f 6bac 1c3f 658b 04be ba8c 8dbe
00000020: d273 99be 8e83 24bf 39a3 8cbe 780b 973d
00000030: 6a1f 1cbf 0dd9 2bbf 0fa3 653e 931b c83e
00000040: 7204 d03e 491c f5bb 4046 bcbe bea0 1cbf
00000050: 0a16 353e a824 cb3d 05ea a83e 0a07 e9be
00000060: 4175 bd3e 3747 933e 79ed 1ebf cc1f da3d
00000070: f2d4 b6bd 7a36 4abf 023f f43d abea a0be
00000080: 3587 adbe c872 8abe 6ff3 04be d377 4f3e
00000090: 8387 123e 4345 81be 9cc6 77be ab8d d6be
000000a0: 3ba0 843e 8294 9d3d 3b64 0a3f 7d9b c33e
000000b0: 713c 35be 22b9 123c 9af5 e1bd 51ad afbe
000000c0: f48f 0f3f dbed 0a3f e13f 9bbe fb9a 01bf
000000d0: 61e7 87be 8af7 abbe 473a 843e dad6 1d3f
000000e0: fd2b 8abe 91ca dfbe 39a8 a4be 8f25 093f
000000f0: 1677 d33e 9e4d 873d c2bb eebc dfa5 583e
00000100: 478d 18bf 7af6 e2be 40fb 00bf 0a78 853d
00000110: 103d cdbd 0333 ca3e 3fad c23e 34bf d93e
00000120: 9999 b43e a35a 623e 6b17 ac3e bccb 043f
00000130: 1745 59be 1c03 e8be f877 61bf ff0d c9be
00000140: 6801 2dbf cdac 5abf f260 753f b13c c4bd
00000150: 74e7 97be 79c3 0dbf 07dc 74be 406c 503f
00000160: 52a3 0e3e b096 a0bd 86ea 6c3e 666a f63d
00000170: 8bee 3c3d dacb 853a 063e 443e 446a 9d3e
00000180: 4c7a 363d f6f5 d23e 1ad6 abbd ffd3 c73e
00000190: 1113 923e 18e7 0d3f 50ca 5e3f 4229 303e
000001a0: 30e1 6dbe f699 aabe bc90 24be af11 1e3f
000001b0: ea36 0ebf 6212 4a3e e26b cabe a5f5 5c3f
000001c0: 84f5 e6be 3afd 0b3d 24fd 5abf 7fee f83e
000001d0: fe6c 83be 6efb a7be 6eec dabb dc1e 613d
000001e0: 0a5a bbbd 51a1 95be aa1f 81bd b9cd f73e
000001f0: 3481 433e 7791 8e3e a33a 213f 432c e43e
00000200: ba0f 32be 8dbe fabc 2d61 d73e be8c be3e
00000210: 18b2 c7be 4afc 393e b5a4 5d3d c8d4 0b3f
00000220: 0868 c03e ce26 1f3f 10b1 943e e894 94be
00000230: 53ac 063f 7eed 033e 46ad 353e 084a 893f
00000240: 4e0e 993e 84b0 ef3e 456b 213f 9efb 30bf
00000250: d3d7 d2be bc34 acbe 24cd 55be 631f f63e
00000260: d1d7 f93c 417d cfbd 2917 e6bd 0a59 20be
00000270: ff10 ccbe c518 0f3e 72e4 7fbe d8e1 6d3f
00000280: efae 47bd a4e5 aabe 460d 87be 5a76 2cbd
00000290: 1016 9e3d 5efe 00be 3a0e d0be dce5 c33c
000002a0: 9cff 773f 51ff 913f 3d72 0c3f 41c3 f1be
000002b0: 518c d2be 4f41 8dbe 9aba 5f3d 607d 0a3e
000002c0: f0d0 053f 084f 6e3e 2a77 ac3e aa1d 8c3e
000002d0: 65b8 e73e 76aa 22be 050f b6be b3b2 f3bd
000002e0: 0fdb c33e a3d6 053f 4565 b53e 917e 3f3d
000002f0: 6afa e73d 8a94 a1be 652e 16bf 4c27 1c3f
00000300: 5ce3 0b3e f80c a5be 8153 0a3f 6955 863e
00000310: 4add 843e f75b a53e 7243 00bf 9529 093f
00000320: 0797 a43e 5490 12be 09f4 533e cdb3 613c
00000330: 8179 a5bd 138a c53e 70fa 4c3e 70f8 9ebd
00000340: 067b e9bd d109 2bbf ef49 3f3e b5a5 97bd
00000350: 11a2 483e ea27 90bd 2bfb e9bd f934 bfbe
00000360: 36c2 cabe 4132 2ebe c2b9 a73e f170 513f
00000370: 3f50 11be a266 82be b2a4 e23e 771f a53e
00000380: 8d70 03bf a488 e2bd fea0 05bd ffaf d33d
00000390: 1d1f 4d3e c8dd 7d3d 80c0 8bbe def1 2d3f
000003a0: 6d23 a33e 3eb4 3c3e dff0 913e ae10 6f3d
000003b0: 1b53 fabe 7a92 17bf 4a79 19bf 92c3 ac3e
000003c0: 9d68 f43d 6b32 053e 09ed 523e 4e7f c33e
000003d0: 217c 9f3e 02e7 b63e 1ab8 59be d72f a2be
000003e0: a967 02bf f815 cabe d551 cfbe 6ca5 e1be
000003f0: 40ba 1ebf 023f 7cbe eeaa a2be 94c6 a13e
-0.13395365 0.54957944 0.41391382 -0.63123226 0.56767666 0.6120059 -0.129438 -0.27646428
-0.29971176 -0.64263237 -0.2746828 0.07375234 -0.60985434 -0.6712807 0.22425483 0.39083537
0.40628392 -0.0074801785 -0.36772346 -0.61182773 0.17684188 0.09919101 0.32991043 -0.45513183
0.3700352 0.2876527 -0.62081105 0.10650596 -0.08927335 -0.78989375 0.1192608 -0.31429037
-0.33892217 -0.27040696 -0.12983488 0.20260553 0.14309506 -0.25248155 -0.24196857 -0.4190496
0.25903496 0.07694341 0.5405919 0.38204566 -0.17698838 0.008955272 -0.11033173 -0.34311917
0.5607903 0.5426919 -0.30322173 -0.50627106 -0.26543716 -0.33587295 0.25825712 0.6165596
-0.26986685 -0.43709233 -0.32159594 0.53572935 0.41301793 0.06606601 -0.029142264 0.21157025
-0.5959057 -0.44328672 -0.5038338 0.06517036 -0.100214124 0.39492044 0.380228 0.4252869
0.35273436 0.22104888 0.33611616 0.51873374 -0.21217762 -0.45314872 -0.8807368 -0.3926849
-0.6758027 -0.85419923 0.9585105 -0.095818885 -0.29668772 -0.5537639 -0.23912059 0.81415176
0.1392949 -0.07841241 0.23136339 0.12032013 0.04612593 0.0010207847 0.19164285 0.30745137
0.044550225 0.41203278 -0.08390446 0.39028928 0.28530172 0.55430746 0.87027454 0.17203239
-0.23230433 -0.33320588 -0.16070837 0.61745733 -0.5555254 0.19733575 -0.39535433 0.86312324
-0.4510919 0.034177043 -0.8554251 0.48619458 -0.25669092 -0.32809013 -0.0066810166 0.05496107
-0.09148033 -0.29224637 -0.063048676 0.4839914 0.19092256 0.27845356 0.629801 0.4456502
-0.17388812 -0.03060844 0.42066327 0.37216753 -0.39003062 0.18162647 0.054112155 0.54621553
0.3757937 0.62168586 0.29041338 -0.29019856 0.52606696 0.12883565 0.1774188 1.0725718
0.29893726 0.46814358 0.63054305 -0.6913394 -0.41180286 -0.33633983 -0.20879036 0.4807082
0.030498417 -0.10131312 -0.11234886 -0.15658966 -0.39856717 0.13974293 -0.24989489 0.92922735
-0.048750814 -0.33378327 -0.26377314 -0.042105056 0.07719052 -0.12597033 -0.40635854 0.023913316
0.96874404 1.1406041 0.54861814 -0.4721928 -0.41122678 -0.2758889 0.054621316 0.1352439
0.5227194 0.23272336 0.33684665 0.27366382 0.4525787 -0.15885338 -0.35558334 -0.118993185
0.38253066 0.52280635 0.35428825 0.046751563 0.113270596 -0.3155864 -0.5866454 0.6099746
0.1366095 -0.32236457 0.54033667 0.26237038 0.2595008 0.32296726 -0.50102913 0.53579074
0.32146475 -0.1431287 0.20698561 0.013775778 -0.08079816 0.38581905 0.2001741 -0.077622294
-0.11400418 -0.66811854 0.18680547 -0.07404653 0.19593073 -0.07038863 -0.114248596 -0.37345102
-0.39601296 -0.17011358 0.3275891 0.8181296 -0.14190768 -0.25468928 0.44266278 0.32250568
-0.51343614 -0.110612184 -0.032624237 0.10336303 0.200314 0.061979085 -0.27295303 0.67947185
0.31862965 0.18428132 0.28504083 0.058365516 -0.4889153 -0.5920788 -0.599507 0.33742958
0.11934016 0.13007514 0.20598234 0.38183063 0.3114939 0.3572312 -0.21261635 -0.31677124
-0.5093942 -0.39469886 -0.4049212 -0.4407152 -0.62002945 -0.2463341 -0.31771034 0.31596816

layers.3.h_bias f4 [4]
00000000: 4206 f83c 0b20 febc c0af 4e3e 5e2e 043e
0.030276421 -0.031021139 0.20184231 0.12908313

attn.attn_l f4 [1, 1, 4]
00000000: 6385 0340 5ce1 01be 88b5 573d 85e1 0e3f
2.0550163 -0.12683624 0.052663356 0.55812865

attn.attn_r f4 [1, 1, 4]
00000000: 7d40 0d3d 3961 493e 1291 b53d c7be 95be
0.03448533 0.19665994 0.088655606 -0.29247114

attn.fc.weight f4 [4, 4]
00000000: f17a 703f abc2 4a3f 06fc b13e 3f27 833f
00000010: ebdb 79bf 5db6 3ebe e6c9 a4bd 79fc 8c3f
00000020: 0a13 723e e1b0 1abd 4210 8fbf 0bbb 87bd
00000030: 2e14 adbe b4f6 39bf e7e4 91bf 220b 313f
0.93937594 0.7920329 0.3476259 1.0246352 -0.97601193 -0.18624254 -0.080463216 1.1014549
0.23640075 -0.03776634 -1.1176836 -0.066274725 -0.33804458 -0.72642064 -1.139798 0.6915761

dense.weight f4 [1, 4]
00000000: 72fa 59be 5f50 033f 5539 443d 5a3a 313f
-0.21286944 0.5129451 0.04790624 0.6922966
