saved_model_w/herg_lowd.pth (torch_old, 15637 bytes, 12 tensors)

layers.0.weight f4 [4, 14, 16]
0	0xbb821638	-0.003969934
1	0x3e8fa24b	0.28053507
2	0x3b0a1831	0.0021071548
3	0x3e53b69b	0.20675127
4	0x3e829106	0.2550127
5	0x3eb3fbcc	0.35153043
6	0xbc47cbc9	-0.012194582
7	0x3e6ced51	0.23137404
8	0x3e1ddfeb	0.15417449
9	0x3df8c205	0.12146381
10	0xbe5a314b	-0.21307866
11	0xbe3e1a53	-0.1856473
12	0x3deea949	0.11653382
13	0xbd43ddbb	-0.04781888
14	0xbecd3867	-0.40082094
15	0x3e09ebbd	0.13468833
16	0x3e8784fb	0.26468644
17	0x3e73f4a6	0.23823795
18	0xbecefef3	-0.40428886
19	0x3ebbe9ab	0.36701712
20	0x3f0abfca	0.54198897
21	0x3f051bd1	0.5199557
22	0xbf4c3310	-0.79765415
23	0xbe3a40b3	-0.18188743
24	0x3f179d70	0.59224606
25	0xbf55a20f	-0.83450407
26	0xbf970438	-1.1798162
27	0xbeafd867	-0.3434479
28	0x3db5504f	0.08853208
29	0xbf3649dd	-0.71206456
30	0xbf7d15f5	-0.9886163
31	0xbfcb8994	-1.590136
32	0x3d9fc820	0.07801843
33	0xbce39ab0	-0.027783722
34	0x3d948cb8	0.072534025
35	0xbd967e5a	-0.073483184
36	0xbdd919c3	-0.10600617
37	0x3d11c5c8	0.03558901
38	0x3d03fa7c	0.032221302
39	0x3dce53a8	0.1007455
40	0xbdf9218c	-0.12164602
41	0x3e111fbc	0.14172262
42	0xbd11ff7c	-0.03564404
43	0xbe48ed6e	-0.19621822
44	0x3d88f8f4	0.06688109
45	0x3e26defe	0.16296002
46	0x3d3ea9a8	0.046548516
47	0xbdbd8a1c	-0.09254858
48	0x3fa6fee9	1.3046542
49	0xbe6cc771	-0.23122956
50	0x40000b96	2.0007071
51	0x4008b857	2.1362512
52	0x3f008a18	0.50210714
53	0x3f29f7e4	0.66393876
54	0xbf095c08	-0.53656054
55	0x3f27b3d7	0.6550879
56	0xbf5de191	-0.8667231
57	0x401c6b93	2.4440658
58	0x3f386607	0.7203068
59	0xbfa40336	-1.281348
60	0x400c8477	2.195585
61	0x3fcec861	1.6154901
62	0x3d106245	0.035249967
63	0x3f4452a8	0.76688623
64	0xbfaea235	-1.3643252
65	0xbe348ca7	-0.1763178
66	0x3e2452dc	0.16047233
67	0x3da0fdbd	0.07860897
68	0xbf94d21b	-1.1626619
69	0x3efa2439	0.4885576
70	0x4010c5ca	2.262072
71	0x4004e7bc	2.076644
72	0xbf3df470	-0.7420111
73	0x3ee9b9cd	0.45649567
74	0x3f815671	1.0104505
75	0x40050eed	2.079036
76	0x3ff52f1b	1.9155
77	0x3d500290	0.050783694
78	0x3f4751c4	0.7785914
79	0xbf822685	-1.0168005
80	0x403996e1	2.899834
81	0xbf8c96fc	-1.0983577
82	0xbee300e0	-0.44336605
83	0x3fea9ab8	1.8328466
84	0xbf23f689	-0.6404806
85	0x40ad404c	5.4140987
86	0xbf8a4a26	-1.0803878
87	0xbfaa53b8	-1.3306799
88	0xbf03c2e4	-0.51469254
89	0x400b3ca4	2.1755762
90	0xbc023239	-0.007946544
91	0xbf64c871	-0.8936835
92	0x4012dd3c	2.294753
93	0xbf0b326a	-0.543738
94	0xbf06667d	-0.52500135
95	0xbf1d70ea	-0.6150042
96	0x3eb59d73	0.35471687
97	0x3eed66cc	0.4636749
98	0xbdf86cb1	-0.12130106
99	0x3e91b0a2	0.28455073
100	0xbfabadee	-1.3412454
101	0xbf0dd9b9	-0.55410343
102	0xbd22222d	-0.039583374
103	0xbe990737	-0.29888317
104	0xbeb7fd12	-0.35935265
105	0x3ebb3dbc	0.36570537
106	0x3e890055	0.26758066
107	0xbf37ea1c	-0.718416
108	0xbe9139a7	-0.28364298
109	0xbf2d3b1d	-0.67668325
110	0xbf42f189	-0.76149803
111	0x3f078e40	0.5295143
112	0xbf6dacd4	-0.9284184
113	0x3e9d76ba	0.30754644
114	0x3f0a9766	0.54137266
115	0xbbbd23d7	-0.0057720947
116	0x3f21a9b4	0.6314957
117	0xc0098a41	-2.1490633
118	0x3ea84ef4	0.32872736
119	0x3f6a6486	0.91559637
120	0x3ec5375a	0.38518792
121	0xc00c325e	-2.1905742
122	0xbd833ee7	-0.06408482
123	0x3f28016f	0.6562719
124	0x3e788e80	0.2427311
125	0x3ee38dea	0.4444421
126	0xbf0501a6	-0.5195564
127	0xbf9270f8	-1.1440725
128	0x3eb6d830	0.35711813
129	0x3ecb78b5	0.3974053
130	0xc037b537	-2.8704355
131	0xbd033ab8	-0.03203842
132	0x3f43e67b	0.7652356
133	0x3fc5c966	1.5452087
134	0x3f11ff34	0.57030034
135	0xc0375f55	-2.8651936
136	0x3f12ee34	0.5739472
137	0xbfbd8d4a	-1.4808743
138	0xbfbe16dd	-1.4850727
139	0xbf0ee417	-0.5581679
140	0x3f8f6140	1.1201553
141	0x3ecf9994	0.40546858
142	0x3f4c5718	0.79820395
143	0xbfbe2efe	-1.4858091
144	0xbe126483	-0.14296155
145	0xbef62e9e	-0.4808244
146	0x3cd7ae56	0.026328247
147	0x3ebf0989	0.37311962
148	0x3f4d6dd0	0.80245686
149	0x3de282ac	0.1106008
150	0xbc940f67	-0.01807375
151	0x3e5c95b9	0.2154149
152	0xbf12d790	-0.5736017
153	0x3fc91663	1.5709957
154	0x3cbcf345	0.023065219
155	0xbfb32e7a	-1.3998559
156	0xbd5fc6e4	-0.054633036
157	0xbdee5c8b	-0.11638745
158	0xbd25d634	-0.040487483
159	0x3f08767c	0.5330579
160	0xbee35e03	-0.44407663
161	0x3e7e3f0f	0.24828742
162	0x3ea963ec	0.33084047
163	0xbc1e7054	-0.009670336
164	0xbf783c0e	-0.96966636
165	0x3e2ac10d	0.16675206
166	0xbfc58e48	-1.5434046
167	0xbe2c95c1	-0.16854002
168	0xbf04d6b9	-0.5189014
169	0xc057ca30	-3.3717155
170	0xbf984787	-1.1896828
171	0xbfb247f2	-1.3928206
172	0x3f1dd8f8	0.61659193
173	0xbfc8ec38	-1.5697088
174	0xbf696e1b	-0.9118363
175	0xbf05e642	-0.5230447
176	0xbea4c79f	-0.3218355
177	0xbf76df72	-0.964347
178	0x3d43af96	0.047774874
179	0x3f26dc05	0.65179473
180	0x3e0c0560	0.13673925
181	0x3f77f920	0.9686451
182	0x3d957d8d	0.072993375
183	0x3ec3baad	0.3822836
184	0xbe7871b5	-0.24262126
185	0xbfad07e3	-1.3518032
186	0x3e8c96b3	0.27458724
187	0xbdae592c	-0.08513102
188	0xbf209473	-0.62726516
189	0xbe551424	-0.20808464
190	0xbf882a42	-1.0637896
191	0x3f832b3b	1.0247568
192	0xbfb22e0e	-1.3920305
193	0xc0027ae9	-2.0387518
194	0x3f63768e	0.88852775
195	0x3ed13d9f	0.40867326
196	0xc051bdbc	-3.2772055
197	0x3f6e2ad6	0.9303411
198	0xbfc6381f	-1.5485877
199	0xbe87e6b6	-0.26543206
200	0x3e62cdc1	0.22148801
201	0x3f82d564	1.0221372
202	0x3f462351	0.7739764
203	0xbed55a17	-0.41670296
204	0xbe28022c	-0.16407079
205	0x3fa8e203	1.3193973
206	0xbf8541be	-1.0410688
207	0xc01bf74f	-2.4369695
208	0xbf574a32	-0.8409759
209	0x3e7053dc	0.2346949
210	0x3e39579e	0.1809983
211	0xbe61871c	-0.22024196
212	0x3f758d8c	0.9591911
213	0x3e6ee481	0.23329355
214	0x3f3f3342	0.7468759
215	0x3ebdb32b	0.37050757
216	0xbf320399	-0.6953674
217	0xbe24e8ec	-0.16104478
218	0x3f8a13c1	1.0787278
219	0xbf06c11a	-0.526384
220	0x3efabc09	0.48971584
221	0x3ef7b25c	0.48378265
222	0x3ea929ba	0.33039647
223	0x3f85b6af	1.0446376
224	0x3f2d3176	0.67653596
225	0xbe36eb07	-0.17863093
226	0xbe3737b0	-0.17892337
227	0x3eb3cd9e	0.3511781
228	0xbcf6932a	-0.03009947
229	0xbe9a68c9	-0.3015807
230	0xbf10bffb	-0.5654294
231	0x3e6d6f2d	0.23186941
232	0xbf0ac8f7	-0.542129
233	0x3e36d877	0.17856012
234	0x3e6394f2	0.22224787
235	0x3ddeeb53	0.10884728
236	0x3ecd8693	0.40141734
237	0x3f1b21d9	0.6059852
238	0xbeb0ef5f	-0.34557626
239	0xbf48b8be	-0.78406894
240	0xbf41979c	-0.7562196
241	0xbf8e5ccf	-1.1122073
242	0x3e5627be	0.20913598
243	0xbe9833bc	-0.2972697
244	0x3f887e51	1.0663549
245	0xbe2f5b2e	-0.17124626
246	0xbfeb1ebe	-1.8368757
247	0x3df30875	0.118668474
248	0x3ef072c6	0.46962565
249	0xbf2fc7e0	-0.6866436
250	0x3ecc6a5f	0.39924905
251	0xbebea1e7	-0.37232897
252	0xbf41d179	-0.75710255
253	0xbf966647	-1.1749963
254	0x3f1f52f0	0.6223593
255	0x3e4ffad6	0.2031053

layers.0.h_bias f4 [16]
0	0x3e822d94	0.25425398
1	0xbf084e99	-0.5324493
2	0xbe1cc4aa	-0.15309396
3	0xbf6b51b2	-0.9192153
4	0xbddd84b9	-0.108163305
5	0xbcae41c1	-0.021271588
6	0xbeba0c79	-0.3633764
7	0xbbce2fec	-0.006292334
8	0xbf4b6923	-0.794573
9	0xbe687b79	-0.22703351
10	0xbe9391e3	-0.2882224
11	0x3e5c4126	0.21509227
12	0x3eb7c8d4	0.35895407
13	0x3daed227	0.08536177
14	0xbf364f13	-0.7121441
15	0x3e1b3741	0.15157796

layers.1.weight f4 [4, 16, 16]
0	0x3eee8767	0.4658768
1	0x3d87719a	0.06613465
2	0x3ed8802e	0.42285293
3	0xbe46a0c7	-0.19397269
4	0xbdcaaa14	-0.09895721
5	0xbdc5ec7f	-0.09664249
6	0xbf169e7e	-0.5883559
7	0xbe465da8	-0.19371665
8	0xbde96082	-0.113953605
9	0xbd8458f5	-0.0646228
10	0xbe9def23	-0.3084651
11	0xbf0e3d17	-0.55561966
12	0xbd11bc9c	-0.035580263
13	0x3eef2481	0.46707538
14	0xbe8bfec2	-0.27342802
15	0xc00c8320	-2.1955032
16	0xbe2a4edd	-0.16631646
17	0xbf366c63	-0.71259135
18	0xbff32eb4	-1.8998628
19	0x3e897309	0.26845577
20	0xbde4bce7	-0.11168843
21	0xbeb24c84	-0.34824002
22	0xbf025dee	-0.50924575
23	0xbcadcc04	-0.021215446
24	0x3d316633	0.043310355
25	0xbe1a4b73	-0.15067844
26	0xbde7f5b4	-0.11326161
27	0xbe132984	-0.14371306
28	0x3e58038d	0.21095105
29	0xbe9db56d	-0.3080248
30	0x3e8dbefa	0.27684766
31	0xbe502fce	-0.20330736
32	0xbf03e34d	-0.5151871
33	0x3dbb3b48	0.091421664
34	0x3ebccf9b	0.3687714
35	0x3e51fe5e	0.2050719
36	0xbf06ff97	-0.5273375
37	0xbecc6bf9	-0.39926127
38	0x3ea2d567	0.31803438
39	0xbe6b50af	-0.22979997
40	0x3ee5e7e6	0.44903487
41	0xbdedbc26	-0.11608152
42	0x3f103c76	0.56342256
43	0x3f16dba1	0.5892888
44	0x3e6062a3	0.21912627
45	0xbe3ae99b	-0.18253176
46	0x3e96a6a7	0.2942402
47	0x3f244d7a	0.6418072
48	0x3ea98c81	0.33115008
49	0x3f648478	0.8926463
50	0xbf865223	-1.0493816
51	0x3f05de5d	0.52292424
52	0xbf1fc3c4	-0.6240809
53	0x3f07da89	0.53067833
54	0xbe89afec	-0.2689203
55	0xbed57f66	-0.4169876
56	0x3edec689	0.43510845
57	0x3de595bd	0.11210201
58	0xbee45e9d	-0.44603434
59	0x3ec2b675	0.3802983
60	0x3e872c28	0.26400876
61	0x3eec1a5d	0.46113864
62	0xbe4083ec	-0.18800324
63	0x3df4fcf0	0.119623065
64	0xbf10f9bb	-0.5663106
65	0xbfc4f980	-1.5388641
66	0x3e96afcf	0.29431006
67	0xc059def1	-3.4042323
68	0xbf0a8760	-0.54112816
69	0xbe4a6a0d	-0.19767018
70	0x3ef7640a	0.4831851
71	0x3f7819fc	0.9691465
72	0x3d83657e	0.064158425
73	0x3f2b9e07	0.67038006
74	0x3e86d8e2	0.26337343
75	0x3e8a29a8	0.26984906
76	0xc004f028	-2.077158
77	0xbde80e1d	-0.11330817
78	0xbf01536b	-0.5051791
79	0x3afb9707	0.001919479
80	0xbedf3457	-0.4359462
81	0x3f0c7fc7	0.5488247
82	0xbf95f1df	-1.1714438
83	0xbdd731c3	-0.10507538
84	0x3ecfdcc6	0.40598124
85	0x3f32e844	0.6988566
86	0xbda895e8	-0.08231717
87	0x3eec9dbc	0.46214092
88	0xbe13dbbe	-0.14439294
89	0xbecf1216	-0.40443486
90	0xbed2b76a	-0.4115556
91	0xbf57ea8d	-0.8434227
92	0x3f6e65bd	0.9312399
93	0xbf064f60	-0.52464867
94	0x3b3de44b	0.0028975185
95	0x3e509fc0	0.2037344
96	0xbf88f5cb	-1.070001
97	0xbf2e889c	-0.681772
98	0xbfea79c1	-1.8318406
99	0xbfc1148d	-1.5084397
100	0x3f0fb052	0.5612842
101	0x3e1fdaa9	0.15610756
102	0xbe4449a0	-0.1916871
103	0xbcf9734f	-0.030450491
104	0x3f780aa9	0.96891266
105	0x3f1c28b6	0.6099962
106	0xbf3e7d3a	-0.7440983
107	0x3f2e222b	0.68020886
108	0xbf3ec0f3	-0.7451317
109	0x3b8185c7	0.003952715
110	0xbc50466c	-0.012712102
111	0x3f7016a8	0.9378457
112	0xbefbfcc8	-0.49216294
113	0xbf796670	-0.9742193
114	0xbf259e52	-0.646947
115	0x3d92995f	0.071581595
116	0xbfb779fd	-1.4334103
117	0x3e0b2486	0.13588151
118	0x3e0317ba	0.1280202
119	0x3d711919	0.058861826
120	0xbe99a629	-0.30009583
121	0xbc91f156	-0.017815273
122	0x3f2677f2	0.6502677
123	0xbe403acd	-0.1877243
124	0x3b9c25b9	0.004765239
125	0x3e0e03ec	0.13868684
126	0x3ef9ed6e	0.48813957
127	0xbf3642c0	-0.711956
128	0xbf6d7d12	-0.9276897
129	0xbec15483	-0.3775979
130	0xbdaeff2c	-0.08544764
131	0x3f81c005	1.0136725
132	0x3f0f330b	0.5593726
133	0xbf416a27	-0.755526
134	0x3ef14bfb	0.4712828
135	0x3f2c4a25	0.67300636
136	0x3e98ffa3	0.29882535
137	0x3eff56e8	0.49870992
138	0xbecd226b	-0.4006532
139	0x3f1a65eb	0.60311764
140	0xbddf64fe	-0.109079346
141	0xbeb1aacf	-0.3470063
142	0xbf7a3e95	-0.9775174
143	0x3f899cc2	1.0750964
144	0x3e6c0285	0.23047836
145	0x3e93927d	0.288227
146	0x3f296dfa	0.66183436
147	0xbebe297a	-0.3714102
148	0x3dba586b	0.09098896
149	0x3f41ae1f	0.7565631
150	0xbeea1021	-0.4571543
151	0xbf1a54d9	-0.6028572
152	0xbd9a4d16	-0.07534234
153	0xbf307fcc	-0.68945
154	0xbe5176df	-0.20455502
155	0x3f6b14cd	0.91828614
156	0x3c13ff6b	0.009033064
157	0xbcfec9ff	-0.031102179
158	0x3f175671	0.59116274
159	0x3f1faca7	0.6237282
160	0x3da1374a	0.07871874
161	0x3f7c169a	0.9847199
162	0x3e7dd7fb	0.24789421
163	0x3f5c5996	0.860742
164	0xbf3024b3	-0.68806
165	0x3e4083b3	0.1880024
166	0xbf9431f3	-1.1577743
167	0x4008ea11	2.1392863
168	0xbe1a7e8d	-0.15087338
169	0xbed5860a	-0.41703826
170	0x3df0521e	0.117344126
171	0xbdb53a41	-0.08849002
172	0xbd8cd27d	-0.06876085
173	0x3efd605c	0.4948758
174	0x3f16ceff	0.589096
175	0xbdfef350	-0.12448752
176	0xc021762f	-2.5228384
177	0xbb7b5d37	-0.003835512
178	0xbef91590	-0.48649263
179	0xbf98c62d	-1.1935478
180	0x3e2ae51f	0.16688965
181	0xbf345d30	-0.7045469
182	0xbe21b219	-0.15790595
183	0x3c22d792	0.009939091
184	0x3f59890b	0.84974736
185	0x3f36783a	0.712772
186	0xbeb9c43c	-0.36282527
187	0xbded4dec	-0.11587128
188	0xbdc576ef	-0.096418254
189	0xbf13bd50	-0.5771074
190	0x3eb8d78b	0.36101946
191	0x3f47fcad	0.7811993
192	0x3e36d4fa	0.17854682
193	0xbe0db341	-0.13837911
194	0xbeb4d034	-0.35315096
195	0x3db07927	0.08616858
196	0xbf04028e	-0.515664
197	0x3f159094	0.58423734
198	0xbed9c2cc	-0.4253143
199	0xbdbd1836	-0.092331335
200	0xbe8dbcd2	-0.2768312
201	0xbf188941	-0.5958443
202	0x3e0ab088	0.13543904
203	0xbf1b08e1	-0.60560423
204	0x3e8ce172	0.2751575
205	0x3e5dbd0d	0.21654148
206	0x3d3412a2	0.043963082
207	0xbfb2791a	-1.3943207
208	0xbfd6f659	-1.6793929
209	0x3bcf82d0	0.0063327327
210	0x3d33e88d	0.04392295
211	0xbf0ae277	-0.5425181
212	0x3f4fe7c3	0.81213015
213	0x3f2aa5aa	0.66659033
214	0xbdf24298	-0.11829108
215	0xbe7f7a8f	-0.24949096
216	0xbf8f6d22	-1.120518
217	0x3f1aa3dc	0.6040628
218	0xbfef1fe5	-1.8681608
219	0xbe24c395	-0.16090234
220	0x3e1d032a	0.15333238
221	0x3fa0e284	1.2569127
222	0x3e4d759c	0.20064396
223	0xbf42355b	-0.75862664
224	0x3fda6880	1.7063141
225	0xbfa22210	-1.2666645
226	0xbeca11d9	-0.39466742
227	0xbfdff57b	-1.749679
228	0xbedcf2c3	-0.43153962
229	0xbf8300a3	-1.0234569
230	0x3f2db503	0.67854327
231	0x3f65e40a	0.89801085
232	0xbea5cae9	-0.3238137
233	0x3db6f656	0.089337036
234	0x3f5a4608	0.8526311
235	0xbf282c3a	-0.65692484
236	0xbfd0c4bd	-1.631004
237	0xbf83b187	-1.0288552
238	0x3eb7b082	0.35876852
239	0x3f675544	0.9036448
240	0x3ed5995b	0.41718563
241	0x3cc11341	0.023568751
242	0xbf179fe2	-0.59228337
243	0x3c3169aa	0.010828415
244	0xbebfc45c	-0.37454498
245	0xbf2ec1cd	-0.68264467
246	0xbf32fbc6	-0.69915426
247	0xbf68b5f1	-0.9090262
248	0x3e99a5b0	0.30009222
249	0xba87a6c5	-0.0010349384
250	0xbda89200	-0.08230972
251	0xbfc7e8d2	-1.5617926
252	0xbe9ba54a	-0.30399543
253	0x3ec47997	0.38374016
254	0x3ef81516	0.48453587
255	0xbfb768e1	-1.4328882

layers.1.h_bias f4 [16]
0	0x3eab1b95	0.3341948
1	0xbeb01096	-0.34387654
2	0x3e0251b8	0.12726486
3	0xbd34b529	-0.04411808
4	0x3d7b47a6	0.061347626
5	0xbf0dc259	-0.55374676
6	0x3fccf25e	1.6011465
7	0xbebec926	-0.3726284
8	0xbe828e39	-0.25499132
9	0xbe67972f	-0.22616266
10	0x3e59fa3b	0.21286862
11	0xbd88a767	-0.066725545
12	0xbec7bf7e	-0.39013284
13	0xbe0e48c6	-0.13894948
14	0xbf43546f	-0.7630071
15	0xbf8d5d96	-1.1044185

layers.2.weight f4 [4, 16, 16]
0	0xbfd163d3	-1.6358589
1	0xbe297534	-0.16548616
2	0xbde5d5af	-0.112223975
3	0xbef31191	-0.4747434
4	0x3e72aee9	0.23699535
5	0x3dd55956	0.1041743
6	0x3eb98f5d	0.3624219
7	0xbfb67e5b	-1.4257311
8	0x3e842ec5	0.25816932
9	0xbfef5e8a	-1.8700726
10	0xbfa3e614	-1.2804589
11	0x3c989c66	0.018629264
12	0xbfe4eb93	-1.7884392
13	0xbe2ac5b5	-0.16676982
14	0xbcf9afb0	-0.030479282
15	0x3edb60e3	0.42847356
16	0xbef56b49	-0.47933415
17	0x3f11d636	0.56967485
18	0xbf76e3aa	-0.9644114
19	0xbc912da4	-0.017721958
20	0x3ea9f896	0.3319747
21	0xbf06665f	-0.52499956
22	0x3f55f1c8	0.83572054
23	0xbf0a29ad	-0.5396984
24	0x3e401cda	0.18761006
25	0xbfc41690	-1.5319386
26	0x3cdc8cd6	0.026922625
27	0xbe9f36be	-0.31096452
28	0xbf7c9b77	-0.9867472
29	0x3f0c3e3b	0.54782456
30	0x3f008fa2	0.50219166
31	0x3e822fa7	0.2542698
32	0xbead982e	-0.33905166
33	0x3d743780	0.05962324
34	0xbfd2f88b	-1.6482099
35	0xbf65484b	-0.89563435
36	0x3f32b26f	0.6980352
37	0xbdeedf2f	-0.11663663
38	0xbff0d881	-1.8816072
39	0x3f394a20	0.7237873
40	0xbf002fc0	-0.5007286
41	0x3e5bd16c	0.21466607
42	0x3f15b785	0.58483154
43	0xbe00e3c0	-0.1258688
44	0x3f94a3d8	1.1612501
45	0x3f47ebd4	0.7809422
46	0xbf1a15a1	-0.60189253
47	0x3f61c354	0.8818867
48	0xbf27f363	-0.65605754
49	0x3e959b32	0.29219967
50	0xbd85bdb2	-0.06530322
51	0xbfe23c39	-1.7674628
52	0x3f0b8f9d	0.5451601
53	0x3ea9c489	0.33157757
54	0xbee229cd	-0.44172516
55	0x3e8f4b1d	0.27986994
56	0x3f218361	0.63091093
57	0x3e6c03af	0.2304828
58	0x3d690c00	0.05689621
59	0x3f6b40c5	0.91895705
60	0xbe1d879a	-0.15383759
61	0x3ef3676f	0.4753985
62	0x3ecd85a9	0.40141037
63	0xbf38f87a	-0.72254145
64	0xbee03c43	-0.43795976
65	0xbf33d946	-0.7025341
66	0x3eb88167	0.36036226
67	0xbecf948c	-0.4054302
68	0x3ea71b38	0.32637954
69	0x3f08339c	0.5320375
70	0x3e2aef5e	0.16692874
71	0xbf21d1ce	-0.6321076
72	0x3e14c653	0.1452878
73	0xbed87cee	-0.42282814
74	0xbed1141d	-0.40835658
75	0x3f01fd0b	0.5077674
76	0x3f152472	0.58258736
77	0x3f958764	1.1681943
78	0x3f1458af	0.5794782
79	0xbf3815a0	-0.71908
80	0xbd98d426	-0.07462339
81	0x3dcc7f0d	0.099851705
82	0x3f1231a5	0.57107
83	0x3ca30850	0.019901425
84	0xbfbbcb7d	-1.4671475
85	0xbf7a0a29	-0.97671753
86	0xbea8b007	-0.32946798
87	0x3d51bfbf	0.051208254
88	0x3f050636	0.519626
89	0xbf5ebb88	-0.870049
90	0xbef1217b	-0.47095856
91	0x3ea78e34	0.3272568
92	0x3e22d09c	0.1589989
93	0xbe261d25	-0.16222055
94	0xbf7b035f	-0.9805202
95	0xbe633e8e	-0.22191831
96	0x3f1443c3	0.57915896
97	0x3f84e984	1.0383763
98	0x3f966833	1.1750549
99	0x3f165104	0.5871737
100	0xbe42ac02	-0.19010928
101	0x3f655a3e	0.89590824
102	0x3eeb7642	0.4598866
103	0x3e47ffd0	0.19531178
104	0xbfb526ba	-1.4152443
105	0xbfeac642	-1.8341753
106	0x3d518665	0.05115356
107	0x3f4cde80	0.8002701
108	0xbec55f82	-0.3854943
109	0x3d82b404	0.063819915
110	0xbccb1202	-0.02478886
111	0xbf787d9e	-0.97066677
112	0xbfa8cb72	-1.3187087
113	0xbf39d773	-0.72594374
114	0x3fafae91	1.3725148
115	0xbe7ca3d7	-0.24671875
116	0x3def04c4	0.11670831
117	0x3df83c34	0.12120858
118	0xbf125fc5	-0.5717738
119	0x3ac4da43	0.001501866
120	0xbf3f3acb	-0.74699086
121	0x3f3622b5	0.7114671
122	0xbe4bb07d	-0.19891544
123	0x3e134e85	0.14385422
124	0x3f9a9d4d	1.2079254
125	0x3efb487a	0.49078733
126	0x3ec9f68b	0.3944591
127	0x3f84b48c	1.0367599
128	0xbd206e32	-0.03916759
129	0xbea07808	-0.31341577
130	0x3f0c1c2e	0.547305
131	0x3f77d078	0.96802473
132	0xbbfa288a	-0.007634227
133	0x3f196e3a	0.5993382
134	0xbf1622bc	-0.5864675
135	0xbe2348e7	-0.15945779
136	0xbee18b23	-0.44051465
137	0x3e0f3e56	0.13988623
138	0xbea2e933	-0.31818542
139	0xbf0055a8	-0.501307
140	0xbdce1982	-0.10063459
141	0x3e20e863	0.15713648
142	0x3f084443	0.5322916
143	0xbdaab796	-0.083357975
144	0xbf5e55d5	-0.8684972
145	0xbd70d3b5	-0.05879565
146	0xbdd8c5f9	-0.10584635
147	0xbf512611	-0.8169871
148	0xc036e0e0	-2.8574753
149	0xbe0abf92	-0.13549641
150	0x3ea74481	0.32669452
151	0xbf52f547	-0.82405514
152	0xc012a14d	-2.291095
153	0x3e99bc34	0.300264
154	0x3df05e25	0.11736707
155	0x3ef0c140	0.47022438
156	0x3e379053	0.17926149
157	0xbe84c2d1	-0.25929883
158	0x3eb54b8f	0.3540921
159	0x3eac2aa4	0.33626282
160	0x3eadbce9	0.3393319
161	0x3d3bcb3f	0.045848127
162	0xbdfd73f7	-0.12375634
163	0x3ee38511	0.4443746
164	0xbe551c99	-0.2081169
165	0x3f1067c5	0.5640834
166	0x3eb0cab4	0.3452965
167	0xbe73777a	-0.23776045
168	0x3e9a1f3d	0.30101958
169	0x3e857dc8	0.26072526
170	0x3f1af0c7	0.6052365
171	0xbf699134	-0.9123719
172	0xbe69af8a	-0.22820869
173	0xbef79fca	-0.48364097
174	0x3f212ad4	0.62955976
175	0x3e9106de	0.28325552
176	0xbd1be294	-0.03805788
177	0x3f3a6139	0.728046
178	0xbe1f1de8	-0.15538752
179	0x3e17c5ea	0.14821592
180	0x3f97b8e3	1.1853298
181	0xbf4445cc	-0.76669
182	0x3f2409b3	0.640773
183	0x3f6a1282	0.9143449
184	0xbf47aae7	-0.7799515
185	0x3f9721d2	1.1807196
186	0xbeaa2e61	-0.3323851
187	0xbd98f5ca	-0.074687555
188	0x3f7d5ff7	0.98974556
189	0xbde83922	-0.11339022
190	0xbfbcdb8d	-1.4754502
191	0x3ea217d4	0.31658804
192	0x3d5b2969	0.05350629
193	0xbf9f4727	-1.2443589
194	0x3d9ba316	0.075994655
195	0x3e9236ad	0.2855734
196	0x3e79caa8	0.24393713
197	0x3b4e607f	0.0031490622
198	0x3e059968	0.13046801
199	0x3ea11b3b	0.31466088
200	0x3ebb3665	0.36564937
201	0xbd940fd3	-0.07229581
202	0x3ddebfa2	0.10876395
203	0xbf7f6596	-0.9976438
204	0x3cf14eb3	0.029456472
205	0xbe3733d4	-0.17890865
206	0xbeb0f94b	-0.34565195
207	0xbefc11de	-0.49232382
208	0xbe858881	-0.26080707
209	0x3efa2dfa	0.48863202
210	0x3caf42a1	0.021394076
211	0x3d2d517b	0.042314034
212	0xbe07913a	-0.13238993
213	0xbf0c92c5	-0.5491145
214	0xbf241951	-0.6410113
215	0xbf2d21de	-0.676298
216	0xbf9ab121	-1.2085305
217	0x3e75ff6d	0.24023218
218	0x3e69e54a	0.22841373
219	0xbd5f39c0	-0.054498434
220	0xbe6f9ed3	-0.2340043
221	0xbe2c8113	-0.16846113
222	0xbec07b95	-0.37594286
223	0xbe45d3bc	-0.19319052
224	0x3e303a01	0.17209627
225	0xbfb5225c	-1.4151111
226	0x3eecc9b4	0.46247637
227	0x3d4aecfb	0.04954241
228	0x3e699b66	0.22813186
229	0xbe7ed7a2	-0.24886945
230	0x3d60de53	0.054899525
231	0x3e7dce53	0.24785738
232	0xbe87ece9	-0.26547936
233	0xbe8ad5aa	-0.27116138
234	0x3d8ff125	0.070284165
235	0x3bbe6819	0.0058107493
236	0x3f40e490	0.7534876
237	0xbeb61af7	-0.35567448
238	0xbefd55c5	-0.494795
239	0xbf34ecf5	-0.7067407
240	0xbf0a4114	-0.5400555
241	0x3f0d57d5	0.55212146
242	0x3ca37c86	0.019956838
243	0xbf6f40bb	-0.93458146
244	0xc01b7991	-2.4292948
245	0xbcabf554	-0.020991005
246	0x3f94dae4	1.16293
247	0xbcb6a0dd	-0.022293502
248	0x3f57cf5d	0.84300786
249	0xbe29590b	-0.16537873
250	0x3e705c2f	0.23472665
251	0x3ee98a35	0.45613256
252	0xbf635f41	-0.8881722
253	0x3e030889	0.12796225
254	0xbee6fda2	-0.4511538
255	0x3f7fef1e	0.9997424

layers.2.h_bias f4 [16]
0	0xbe388dfc	-0.18022913
1	0xbeea324c	-0.45741498
2	0xbf8e2da7	-1.1107682
3	0xbe91272e	-0.28350204
4	0xbf15c334	-0.5850098
5	0xbe91cb5b	-0.2847546
6	0xbecef512	-0.4042135
7	0x3d6da5aa	0.058019318
8	0xbf30f1f9	-0.6911922
9	0xbed2b2f3	-0.41152152
10	0xbf225ec2	-0.6342584
11	0xbe3e4a93	-0.18583135
12	0xbf255943	-0.6458933
13	0xbd80db32	-0.06291808
14	0xbf0ebfd2	-0.55761445
15	0xbf0130e3	-0.5046522

layers.3.weight f4 [4, 16, 4]
0	0xbf17884f	-0.59192365
1	0x3f75f07f	0.9607009
2	0x3f5aaf77	0.8542399
3	0xbfacb04a	-1.3491299
4	0xbf5cfbdb	-0.863218
5	0xbef7d9a2	-0.48408228
6	0x3eeabbe2	0.45846468
7	0x3ec4067b	0.38286194
8	0xbebfba34	-0.3744675
9	0xbec0ec34	-0.3768021
10	0x3e5a1021	0.21295215
11	0x3eb619fb	0.35566697
12	0xbf0684a1	-0.52546126
13	0x3ec15767	0.37761995
14	0x3dd3b133	0.103365324
15	0xbd4d4c5a	-0.050121643
16	0x3e22e502	0.15907672
17	0xbf8125aa	-1.0089619
18	0x3e700e36	0.23442921
19	0x3e285f39	0.16442575
20	0x3eb1eb91	0.34750035
21	0x3f0fd796	0.56188333
22	0x3e648a91	0.22318484
23	0xbf3a94e4	-0.7288344
24	0xbf6dac45	-0.9284099
25	0x3e30a286	0.17249498
26	0xbf60c929	-0.87806946
27	0x3f533ba7	0.825129
28	0xbc5de771	-0.013543949
29	0xbead2281	-0.33815387
30	0x3f2e12b0	0.67997265
31	0xbe45a4eb	-0.19301192
32	0xbf6401ca	-0.8906523
33	0x3eae37fe	0.34027094
34	0xbf28a864	-0.65881944
35	0xbf8c283b	-1.0949777
36	0xbd197d5a	-0.03747306
37	0x3ed06029	0.40698364
38	0x3f6d0fa2	0.9260198
39	0x3e9005ac	0.28129327
40	0xbf9a6ea2	-1.2065012
41	0xbf18c780	-0.5967941
42	0x3e11f042	0.14251807
43	0x3dd111ea	0.10208495
44	0xbbe13eeb	-0.0068739555
45	0xbdeb434e	-0.11487447
46	0xbd00ae18	-0.03141603
47	0xbf849b4f	-1.0359896
48	0x3d20bec2	0.03924442
49	0x3f29d160	0.66335106
50	0x3e0d1c19	0.1378025
51	0x3f25b70c	0.6473243
52	0xbdf628c7	-0.120194964
53	0x3e6d6323	0.23182349
54	0x3ebd72c4	0.37001622
55	0xbe92ca58	-0.2867
56	0xbb987425	-0.0046525174
57	0xbec06c99	-0.37582853
58	0xbf86abba	-1.0521157
59	0x3e2d7285	0.16938217
60	0x3f33e770	0.7027502
61	0x3d964a87	0.07338434
62	0x3f22cf1e	0.63597286
63	0x3ed7ac57	0.42123672
64	0x3f428230	0.759799
65	0xbf863b03	-1.0486759
66	0x3f0ea239	0.5571628
67	0xbeac7c08	-0.33688378
68	0x3f626572	0.88436043
69	0x3f55f284	0.83573174
70	0xbe572b60	-0.2101264
71	0x3d494355	0.04913648
72	0xc0024ef4	-2.036069
73	0x3f75a902	0.9596101
74	0xbd633c73	-0.05547757
75	0xbe4676c5	-0.19381244
76	0xbd5b395b	-0.053521495
77	0xbf783b50	-0.96965504
78	0x3e3b7a48	0.18308365
79	0xbf673c9d	-0.90326864
80	0x3dd69ee2	0.10479523
81	0xbf14c522	-0.581133
82	0xbf5ec369	-0.8701692
83	0x3e5a01da	0.21289769
84	0x3d7adce2	0.061245807
85	0xbf2e49e0	-0.68081474
86	0x3ed5e728	0.4177792
87	0xbd22b8a3	-0.039726865
88	0x3eb87536	0.36026925
89	0x3eaaf98b	0.3339351
90	0xbe831241	-0.25599864
91	0xbd34da2d	-0.04415338
92	0x3f5d0218	0.8633132
93	0x3f1d0400	0.6133423
94	0xbe2a93da	-0.16657963
95	0xbe0353d5	-0.12824948
96	0xbf862684	-1.0480504
97	0x3ee5adb8	0.448591
98	0x3f1c879f	0.6114444
99	0x3ea6c241	0.3257008
100	0x3e014c44	0.1262675
101	0xbe86302e	-0.26208633
102	0x3fb84ef0	1.439909
103	0x3dfdb1fb	0.12387463
104	0x3d5ae7d5	0.05344375
105	0x3d2a7257	0.04161295
106	0xbd565a6b	-0.052332323
107	0x3e08444c	0.13307303
108	0xbe4c692f	-0.19962
109	0x3f1bd2ef	0.60868734
110	0xbe686450	-0.22694516
111	0x3ee4df04	0.44701397
112	0x3c8e8598	0.017397687
113	0xbfb73462	-1.4312861
114	0x3e8ba4aa	0.27274066
115	0x3e08e30e	0.13367864
116	0xbcc5229d	-0.024064356
117	0x3f2e964e	0.68198097
118	0x3de9c24c	0.11414012
119	0xbf8341e4	-1.0254483
120	0x3f178317	0.591844
121	0xbf13df2d	-0.57762414
122	0xbdeb3ae8	-0.11485845
123	0xbe8d54e4	-0.2760383
124	0xbeeb4443	-0.45950517
125	0xbd324917	-0.043526735
126	0x3ee0258a	0.4377864
127	0x402852e4	2.6300592
128	0x3f1c7772	0.6111976
129	0x3ef87003	0.48522958
130	0x3ebc2687	0.36748144
131	0xbdc12ae0	-0.09432006
132	0xbe7a8e12	-0.24468258
133	0x3e36a7b2	0.17837408
134	0xbef3288f	-0.4749188
135	0x3e2fa882	0.17154124
136	0xbd0bf400	-0.034168243
137	0xbfcfddbe	-1.6239545
138	0xbe248e97	-0.16070019
139	0xbfb8aa29	-1.4426929
140	0x3f050669	0.51962906
141	0x3f20d9ae	0.6283215
142	0xbedffd22	-0.43747813
143	0xbf3432b4	-0.70389867
144	0x3e969167	0.29407808
145	0xbf603c28	-0.8759179
146	0x3f2f5e6b	0.68503445
147	0x3eeb0b43	0.4590703
148	0x3f20d124	0.62819123
149	0xbe9cda6f	-0.30635402
150	0x3e78d9d3	0.24301843
151	0xbf14362c	-0.5789516
152	0xbf80624a	-1.0029995
153	0x3faa622c	1.331121
154	0x3e866b65	0.2625381
155	0x3fa40e50	1.2816868
156	0x3caef75e	0.021358188
157	0x3f38f17d	0.7224348
158	0x3fb67c27	1.4256638
159	0x3edf07cf	0.43560645
160	0x3d04334f	0.032275494
161	0x3ed495f8	0.41520667
162	0xbfb4cf30	-1.4125729
163	0xbed107ab	-0.40826163
164	0xbf684814	-0.9073498
165	0xbfdb90a7	-1.7153519
166	0x3fb3389c	1.4001651
167	0xbfb9d6a7	-1.4518632
168	0xbdd8912c	-0.10574564
169	0x3ec959d5	0.3932635
170	0xbcd874b0	-0.026422828
171	0xbe99906b	-0.29992995
172	0xbf068dfc	-0.525604
173	0x3f3dbc2a	0.7411524
174	0xbf6f5e29	-0.9350305
175	0x3f3d69b8	0.7398944
176	0xbd7033f7	-0.058643308
177	0x3e9cd468	0.30630803
178	0xbecb1bd4	-0.3966967
179	0x3e6082a1	0.21924831
180	0xbf1561ba	-0.58352244
181	0xbe95964e	-0.29216236
182	0x3f289f3c	0.6586797
183	0xbf847f15	-1.0351282
184	0xbe57a8b3	-0.21060447
185	0xbee1dbfe	-0.44113153
186	0xbe1e9f93	-0.1549056
187	0xba11e250	-0.0005565034
188	0xbef30517	-0.4746482
189	0x3f7f664c	0.9976547
190	0x3f050192	0.5195552
191	0x3f79058e	0.972741
192	0x3e0fe27e	0.14051244
193	0xbeb2e3fe	-0.3493957
194	0x3d247c15	0.040157396
195	0x3e80f4bf	0.25186726
196	0xc021b177	-2.5264566
197	0xbf3f96a0	-0.7483921
198	0x3e6963f2	0.22792032
199	0xc0172980	-2.361908
200	0x3d13eef1	0.036116544
201	0x3e74553f	0.23860644
202	0xbf584e6b	-0.84494656
203	0x3f1cb9de	0.6122111
204	0xbd8ea272	-0.06964578
205	0xbdd91b94	-0.10600963
206	0xbf8049c8	-1.0022516
207	0xbe113596	-0.14180598
208	0xbf6fe407	-0.9370732
209	0x3fc5fed5	1.5468394
210	0x3e87c9b7	0.26521084
211	0x3f8e6bfd	1.1126705
212	0xbf477b34	-0.7792237
213	0x3e8e8ca8	0.27841687
214	0x3e2e8aa7	0.17045079
215	0x3f3afc98	0.7304168
216	0xbd489dc0	-0.048978567
217	0x3eefde2f	0.468492
218	0xbe8b9ae2	-0.27266604
219	0x3cfc2fcd	0.030784512
220	0x3ea0e10c	0.31421697
221	0xc02b12f9	-2.673033
222	0xbd662be4	-0.0561942
223	0xbf73aa24	-0.9518149
224	0xbfb61387	-1.4224709
225	0x3e5a1b53	0.21299486
226	0x3ed6475e	0.41851324
227	0xbeb586f9	-0.35454538
228	0xc03a63bb	-2.912337
229	0xbfaf7eb9	-1.3710548
230	0x3f5c884f	0.8614549
231	0xbfc376b6	-1.5270603
232	0x3f86021c	1.0469394
233	0xbe30ae97	-0.172541
234	0x3f02013a	0.5078312
235	0xbfaef66b	-1.3668951
236	0x3eac87d5	0.33697382
237	0x3d2a89d5	0.041635353
238	0x3f1bcea5	0.6086219
239	0x3ef30839	0.4746721
240	0xbe8f19a0	-0.27949238
241	0xbf7345c4	-0.9502833
242	0x3e4714ac	0.1944148
243	0xc0516833	-3.2719848
244	0xbf58080d	-0.84387285
245	0x3e8a0f5b	0.2696484
246	0xbeb04ddd	-0.34434405
247	0xbe939ff2	-0.28832966
248	0x3d4cd9ba	0.050012328
249	0x3ef72fde	0.48278707
250	0x3e41a88d	0.18911953
251	0xbfbb6ec0	-1.4643173
252	0xbe832187	-0.25611517
253	0xbfd1d90d	-1.6394364
254	0xbddb98a5	-0.10722474
255	0xbfadf33c	-1.3589854

layers.3.h_bias f4 [4]
0	0x3f189d09	0.59614617
1	0xbef32220	-0.47486973
2	0x3f25a66f	0.6470708
3	0x39ddf8a4	0.00042337656

attn.attn_l f4 [1, 1, 4]
0	0xbfef4b1f	-1.86948
1	0x3fa2c8b6	1.2717502
2	0xbdaaaddf	-0.083339445
3	0x3fa2524b	1.2681364

attn.attn_r f4 [1, 1, 4]
0	0x400dba09	2.2144797
1	0x3f974ef9	1.1820976
2	0xc05c72c3	-3.4445045
3	0xbfdb1fe0	-1.7119102

attn.fc.weight f4 [4, 4]
0	0x3de7bd58	0.11315411
1	0xbcf59b5b	-0.029981306
2	0xbd2b3ea9	-0.041807804
3	0x3e9ff68a	0.31242782
4	0x3f635fae	0.8881787
5	0x3f375123	0.7160818
6	0xbf604d29	-0.8761774
7	0x3f64061b	0.89071816
8	0xbfb745a6	-1.431813
9	0xbe818d20	-0.25302982
10	0x3e698df5	0.22808059
11	0x3dc4783a	0.09593244
12	0x3e3887f1	0.18020608
13	0xbf386175	-0.7202371
14	0x3eb1098f	0.34577605
15	0xbf5352a8	-0.82548

dense.weight f4 [1, 4]
0	0x3ce125fc	0.027483933
1	0xbe6f58dc	-0.23373741
2	0x3c77e105	0.015129332
3	0x3d085d19	0.03329191
