saved_model_w/herg_lowd.pth (torch_old, 15637 bytes, 12 tensors)

layers.0.weight f4 [4, 14, 16]
-0.007861965 0.2211723 0.027632866 0.13567613 0.16141668 0.2938254 -0.024172844 0.15714686
0.08378235 0.075446524 -0.19276029 -0.15359668 0.116249435 -0.027091578 -0.43484336 0.052587215
-0.19845572 -0.006373184 -0.40423343 0.32966584 0.26010936 0.27311382 -0.48296103 -0.24581026
0.39637402 -0.24091043 -1.4821262 -0.17707345 0.34129614 -0.98367965 -0.9186726 -0.7939742
0.07801843 -0.027783722 0.072534025 -0.073483184 -0.10600617 0.03558901 0.032221302 0.1007455
-0.12164602 0.14172262 -0.03564404 -0.19621822 0.06688109 0.16296002 0.046548516 -0.09254858
1.0920793 -0.23700225 1.2319156 1.7873868 0.34537232 0.350944 -0.8354482 0.12877426
-0.6844407 2.1929886 0.3215985 -0.6109756 1.3490762 1.0376004 -0.6831816 0.16106299
-0.8589071 -0.19961154 0.026329124 0.17098193 -0.29301217 0.48547214 1.2936285 1.2161208
-0.64400744 -0.09711952 0.72503245 0.9897467 1.6081631 -0.052975763 0.32805437 -0.7288758
3.131252 -1.0536594 -0.4437267 1.2392476 -0.58283156 4.176896 -1.0778472 -0.9596199
-0.51469254 1.7495162 -0.007916781 -0.8927027 2.419592 -0.48763448 -0.52025175 -0.5990013
0.2590948 0.34606746 -0.06989657 0.21811716 -0.89965516 -0.5130764 0.008908032 -0.25411373
-0.28657523 0.33971474 0.18140537 -0.535722 -0.19702844 -0.512935 -0.5937647 0.42353782
-0.62261224 0.28951806 0.44166344 -0.004010077 0.48881295 -1.2594156 0.24739853 0.7046969
0.28947976 -1.5058169 -0.0095919985 0.49467054 0.13370614 0.3628762 -0.37032774 -0.88133293
0.32874694 0.32992435 -2.1252441 -0.14055926 0.5599456 1.15421 0.5246275 -1.6010599
0.47243974 -1.0968885 -1.1767378 -0.6226321 0.8368539 0.30257016 0.5352736 -1.0060446
-0.20067045 -0.35257116 -0.014126369 0.26650488 0.33903304 0.106162585 0.024291733 0.2756687
-0.52964276 1.3177872 0.16147126 -1.1419594 -0.15460713 -0.1001876 -0.04652624 0.426124
-0.21785319 0.127045 0.13351193 0.1081661 -0.4807283 -0.058297172 -1.2847646 0.05336218
-0.7531004 -1.735775 -1.0449895 -1.1203797 0.5525967 -1.136388 -0.8290402 -0.4868032
-0.08202087 -0.78154886 0.19574262 0.47538137 0.22539823 0.59915125 0.013774047 0.30984128
-0.2571278 -1.0917788 0.20526741 0.09900665 -0.027888173 0.050182465 -0.79060006 0.6844958
-1.046715 -1.5964631 0.60439384 0.42730337 -1.97092 0.6900584 -1.2938737 -0.13599455
0.22991252 0.7451436 0.52117044 -0.20838739 0.10021477 1.2165372 -0.56555396 -1.7495804
-0.7542366 -0.19887945 0.21397246 -0.19348009 0.52147806 0.2860653 0.28588092 0.20964582
-0.42357433 -0.115809366 0.30857763 0.12787756 0.6344221 0.392323 0.049750283 0.32168075
0.48826852 -0.17730153 -0.15506507 0.29584306 -0.048930723 -0.33628073 -0.39892098 0.20738605
-0.42117107 0.23321062 0.15428758 0.100876614 0.26598638 0.45059538 -0.33430704 -0.5754532
-0.66131026 -0.49009576 -0.06767517 -0.26743308 0.33386108 -0.26410016 -0.0025741707 0.11342219
0.3714151 -0.014569433 0.35907185 -0.1325429 -0.45008022 -0.24494939 0.39125213 0.22218873
00000000: 79cf 00bc fe7a 623e 525e e23c afee 0a3e
00000010: 6a4a 253e 4870 963e 2106 c6bc 1beb 203e
00000020: 1596 ab3d b583 9a3d f462 45be 7348 1dbe
00000030: 2f14 ee3d 28ef ddbc caa3 debe b165 573d
00000040: fa37 4bbe 24d6 d0bb aff7 cebe f6c9 a83e
00000050: 0e2d 853e 93d5 8b3e ab46 f7be afb5 7bbe
00000060: 89f1 ca3e 39b1 76be 50b6 bdbf be52 35be
00000070: 5ebe ae3e 6ed2 7bbf 212e 6bbf e541 4bbf
00000080: 20c8 9f3d b09a e3bc b88c 943d 5a7e 96bd
00000090: c319 d9bd c8c5 113d 7cfa 033d a853 ce3d
000000a0: 8c21 f9bd bc1f 113e 7cff 11bd 6eed 48be
000000b0: f4f8 883d fede 263e a8a9 3e3d 1c8a bdbd
000000c0: 41c9 8b3f b8b0 72be 69af 9d3f 17c9 e43f
000000d0: a4d4 b03e efae b33e efdf 55bf 66dd 033e
000000e0: 8137 2fbf ed59 0c40 8fa8 a43e e668 1cbf
000000f0: 87ae ac3f 17d0 843f fde4 2ebf b2ed 243e
00000100: 56e1 5bbf f866 4cbe 2db0 d73c e315 2f3e
00000110: b105 96be ce8f f83e 9e95 a53f d9a9 9b3f
00000120: acdd 24bf 99e6 c6bd ba9b 393f 0a60 7d3f
00000130: 4ad8 cd3f 1dfd 58bd bef6 a73e 9b97 3abf
00000140: 6f66 4840 50de 86bf 2530 e3be aa9f 9e3f
00000150: 7334 15bf 22a9 8540 e6f6 89bf a6a9 75bf
00000160: e4c2 03bf 26f0 df3f 63b5 01bc 2a88 64bf
00000170: 98da 1a40 3aab f9be 382f 05bf 2658 19bf
00000180: 13a8 843e c12f b13e ef25 8fbd 1b5a 5f3e
00000190: cd4f 66bf fa58 03bf fff2 113c 321b 82be
000001a0: fdb9 92be 17ef ad3e 54c2 393e 1425 09bf
000001b0: d3c1 49be b54f 03bf f700 18bf f3d9 d83e
000001c0: 8463 1fbf b63b 943e b621 e23e f766 83bb
000001d0: b145 fa3e 8834 a1bf 0a56 7d3e 0467 343f
000001e0: b136 943e 9cbe c0bf c227 1dbc 7545 fd3e
000001f0: 43ea 083e e9ca b93e 999b bdbe 099f 61bf
00000200: 8551 a83e d8eb a83e 0004 08c0 c4ee 0fbe
00000210: 9858 0f3f 27bd 933f fd4d 063f 88ef ccbf
00000220: 9fe3 f13e d866 8cbf 589f 96bf d164 1fbf
00000230: 0f3c 563f 7aea 9a3e b107 093f 12c6 80bf
00000240: 8e7c 4dbe 3584 b4be 4972 67bc 5473 883e
00000250: bd95 ad3e c56b d93d 75ff c63c 7324 8d3e
00000260: ab96 07bf 40ad a83f b958 253e ba2b 92bf
00000270: 5551 1ebe 282f cdbd 4c92 3ebd ed2c da3e
00000280: e814 5fbe 1618 023e 5ab7 083e 3086 dd3d
00000290: 0522 f6be 04c9 6ebd 2b73 a4bf 4d92 5a3d
000002a0: 30cb 40bf e02d debf 37c2 85bf 9a68 8fbf
000002b0: fa76 0d3f 2975 91bf fb3b 54bf 453e f9be
000002c0: 8ffa a7bd 9613 48bf c170 483e 3065 f33e
000002d0: cbce 663e fa61 193f 8aac 613c 84a3 9e3e
000002e0: 41a6 83be 68bf 8bbf 9f31 523e 00c4 ca3d
000002f0: bd75 e4bc 218c 4d3d c464 4abf 1e3b 2f3f
00000300: c2fa 85bf e758 ccbf 8eb9 1a3f 82c7 da3e
00000310: 1b47 fcbf aba7 303f a79d a5bf 2842 0bbe
00000320: 306e 6b3e bbc1 3e3f 6d6b 053f 8163 55be
00000330: 673d cd3d 7eb7 9b3f 25c8 10bf 40f2 dfbf
00000340: a615 41bf 0ea7 4bbe 991b 5b3e a51f 46be
00000350: 967f 053f 2777 923e fc5e 923e 65ad 563e
00000360: bcde d8be 762d edbd e3fd 9d3e 56f2 023e
00000370: 7d69 223f 8fde c83e f4c6 4b3d 57b3 a43e
00000380: 55fe f93e 888e 35be 61c9 1ebe be78 973e
00000390: 956b 48bd fd2c acbe 5f3f ccbe 025d 543e
000003a0: bca3 d7be c4ce 6e3e 90fd 1d3e 6698 ce3d
000003b0: 5e2f 883e 70b4 e63e 4b2a abbe e750 13bf
000003c0: a14b 29bf d5ed fabe 4899 8abd fdec 88be
000003d0: d7ef aa3e 2338 87be 6bb3 28bb e549 e83d
000003e0: 1f2a be3e a2b4 6ebc 44d8 b73e 53b9 07be
000003f0: ea70 e6be 03d4 7abe 3352 c83e 7185 633e

layers.0.h_bias f4 [16]
0.23558581 -0.30066603 -0.10267589 -0.53632814 -0.029818913 0.05439658 -0.30548242 0.07492186
-0.41460532 -0.17956564 -0.0609633 0.1820231 0.2045266 0.086286366 -0.36710396 0.15871708
00000000: 683d 713e e6f0 99be bd47 d2bd cd4c 09bf
00000010: cb46 f4bc f3ce 5e3d 3168 9cbe a270 993d
00000020: 2647 d4be 0ee0 37be a7b4 79bd 4364 3a3e
00000030: 6c6f 513e e8b6 b03d 0df5 bbbe bb86 223e

layers.1.weight f4 [4, 16, 16]
0.34881416 0.122873954 0.29265168 -0.18515113 -0.12809876 -0.051592954 -0.5094709 -0.21746305
-0.11360412 -0.088794224 -0.42088035 -0.5389244 0.052458614 0.31280652 -0.1606207 -1.6214715
-0.043669395 -0.46383947 -1.3333577 0.27818015 -0.063044176 -0.2647662 -0.37994984 -0.019970506
0.03299268 -0.092671365 -0.07833337 -0.113448635 0.077398814 -0.227119 0.26599887 -0.06180321
-0.4927833 0.031109022 0.280875 0.23053055 -0.29828438 -0.4629031 0.3242857 -0.12859096
0.34072974 -0.067303516 0.36549938 0.45658895 0.28404802 -0.13024592 0.22472008 0.28741932
0.03976198 0.49955708 -0.7044075 0.4184987 -0.5898146 0.47954977 -0.12814237 -0.20740329
0.18633658 0.01907032 -0.17718163 0.30894676 0.14709027 0.34663835 -0.03950172 -0.04827597
-0.27021125 -0.53073484 0.22339831 -3.4184127 -0.41725433 -0.34339142 0.3218515 0.8120745
0.09168145 0.35808492 -0.047967017 0.09870463 -1.6102186 -0.0821739 -0.37910122 0.012160734
-0.25596082 0.31984213 -0.48651993 0.04621697 0.31682616 0.5401098 -0.06077679 0.35184813
-0.2720563 -0.4104917 -0.2544211 -0.49876618 0.74801654 -0.4761045 -0.027102133 0.12188779
-0.8640768 -0.31571892 -1.0899767 -1.1214298 0.36106715 0.04377516 -0.1329303 6.602556e-05
0.7057152 0.41736168 -0.61960113 0.4492953 -0.2321564 -0.060388986 -0.0592604 0.6845326
-0.33913553 -1.0161394 -0.42234728 0.04625514 -1.3595841 0.104518354 0.11380455 -0.023549452
-0.23323897 -0.028639773 0.51832646 -0.09874998 0.022820644 0.15682031 0.39615223 -0.5128612
-0.47448575 -0.4683425 -0.12764043 0.7053181 0.3315638 -0.48441002 0.27762002 0.569239
0.27165076 0.45465058 -0.046876617 0.41004625 -0.33712468 -0.05460707 -0.67938954 0.77087146
0.17242463 0.1219224 0.43510005 -0.29973453 0.12649831 0.5517054 -0.40337387 -0.44523245
0.03841787 -0.6057547 -0.1671022 0.6979354 -0.09342579 0.056502175 0.42410177 0.41527987
0.1848235 0.72221357 0.18764067 0.5852797 -0.67471844 -0.19212335 -0.9776608 1.5623806
0.018195184 -0.30729842 0.009138105 0.22113213 -0.050220013 0.4612532 0.31533375 -0.32327944
-1.4450897 0.16570073 -0.37583277 -1.0456027 0.07965299 -0.3879781 -0.082074665 -0.08359022
0.56016296 0.5363087 -0.2006187 -0.06906161 -0.14891136 -0.47465095 0.17744556 0.54836714
0.046403952 -0.064230315 -0.1920515 0.038062766 -0.39065456 0.38691714 -0.35166642 -0.08811989
-0.16272882 -0.3869825 0.066954456 -0.5016575 0.316172 0.1488981 0.087067254 -0.9750135
-1.4146891 0.15441541 0.06636041 -0.3663253 0.594173 0.67928666 -0.03368581 -0.066995114
-0.933177 0.3876948 -1.4781847 -0.098729774 -0.01721599 0.8076187 0.0686268 -0.59216
1.4165989 -1.6886334 -0.13314117 -0.7357382 -0.26807523 -0.65961355 0.5583591 0.67397094
-0.0029973795 0.16123882 0.8529775 -0.46667054 -1.0886787 -0.2442814 -0.022457939 0.6693349
0.31538287 0.013198456 -0.28039685 -0.04774033 -0.24073474 -0.55389 -0.48328996 -0.6489878
0.27453515 0.042563234 -0.054611485 -1.1897732 -0.15909804 0.2692235 0.34661588 -1.0437515
00000000: c597 b23e 57a5 fb3d 71d6 953e 4298 3dbe
00000010: 522c 03be 2253 53bd af6c 02bf a2ae 5ebe
00000020: 47a9 e8bd bfd9 b5bd a17d d7be f3f6 09bf
00000030: d8de 563d 2d28 a03e c179 24be 618c cfbf
00000040: aede 32bd 5e7c edbe 77ab aabf a16d 8e3e
00000050: 4e1d 81bd 6f8f 87be c988 c2be 3099 a3bc
00000060: 5523 073d 7cca bdbd 3f6d a0bd c257 e8bd
00000070: 4583 9e3d e291 68be 0131 883e 5d25 7dbd
00000080: 184e fcbe 59d8 fe3c d9ce 8f3e 3310 6c3e
00000090: bbb8 98be a301 edbe c608 a63e 59ad 03be
000000a0: 2174 ae3e 6dd6 89bd bc22 bb3e 07c6 e93e
000000b0: be6e 913e 305f 05be 051d 663e a028 933e
000000c0: 75dd 223d f2c5 ff3e 0d54 34bf 7645 d63e
000000d0: 17fe 16bf 8c87 f53e c137 03be 8761 54be
000000e0: 04cf 3e3e 5c39 9c3c 1a6f 35be 452e 9e3e
000000f0: d59e 163e 957a b13e 8ecc 21bd 06bd 45bd
00000100: 2159 8abe 3dde 07bf 87c2 643e 46c7 5ac0
00000110: 5ca2 d5be 00d1 afbe b8c9 a43e 1de4 4f3f
00000120: 7cc3 bb3d e856 b73e 1079 44bd a725 ca3d
00000130: a51b cebf ca4a a8bd 8e19 c2be d13d 473c
00000140: 4c0d 83be 59c2 a33e 2419 f9be 014e 3d3d
00000150: 0a37 a23e a344 0a3f 15f1 78bd 7025 b43e
00000160: f74a 8bbe f82b d2be 7b43 82be 485e ffbe
00000170: 037e 3f3f f8c3 f3be 4b05 debc 4ea0 f93d
00000180: 2334 5dbf e9a5 a1be 5b84 8bbf 038b 8fbf
00000190: cbdd b83e 954d 333d e11e 08be 3477 8a38
000001a0: c0a9 343f 6eb0 d53e 2e9e 1ebf 090a e63e
000001b0: 68ba 6dbe 715a 77bd 08bb 72bd 873d 2f3f
000001c0: 2ca3 adbe db10 82bf e73d d8be 0876 3d3d
000001d0: da06 aebf b80d d63d 5c12 e93d c8ea c0bc
000001e0: 32d6 6ebe f59d eabc 0bb1 043f 6e3d cabd
000001f0: 5cf2 ba3c 8195 203e 77d4 ca3e df4a 03bf
00000200: ccef f2be 97ca efbe 2cb4 02be ba8f 343f
00000210: bbc2 a93e 9704 f8be 3624 8e3e a6b9 113f
00000220: cf15 8b3e f6c7 e83e b201 40bd 95f1 d13e
00000230: 9b9b acbe aaab 5fbd 79ec 2dbf d557 453f
00000240: 1590 303e 74b2 f93d 6fc5 de3e ce76 99be
00000250: c688 013e 913c 0d3f 0587 cebe 82f5 e3be
00000260: 0e5c 1d3d bd12 1bbf d71c 2bbe e5ab 323f
00000270: 0556 bfbd d36e 673d de23 d93e 909f d43e
00000280: 5f42 3d3e fde2 383f e024 403e e4d4 153f
00000290: 59ba 2cbf fcbb 44be fa47 7abf 16fc c73f
000002a0: 110e 953c 3856 9dbe feb7 153c 7670 623e
000002b0: 80b3 4dbd 6129 ec3e 6d73 a13e e284 a5be
000002c0: b3f8 b8bf 74ad 293e 276d c0be 4fd6 85bf
000002d0: 1b21 a33d 11a5 c6be c316 a8bd 5931 abbd
000002e0: d766 0f3f 874b 093f fd6e 4dbe 2c70 8dbd
000002f0: 387c 18be 7305 f3be 4ab4 353e ca61 0c3f
00000300: 1212 3e3d 2f8b 83bd 26a9 44be b4e7 1b3d
00000310: e003 c8be 011a c63e 9f0d b4be 3378 b4bd
00000320: 62a2 26be 9222 c6be 6b1f 893d a06c 00bf
00000330: 4ce1 a13e be78 183e 5150 b23d 7c9a 79bf
00000340: 8814 b5bf 131f 1e3e f7e7 873d fd8e bbbe
00000350: b91b 183f bbe5 2d3f 22fa 09bd bc34 89bd
00000360: b0e4 6ebf ef7f c63e 2835 bdbf d632 cabd
00000370: 8c08 8dbc 19c0 4e3f 358c 8c3d cc97 17bf
00000380: 1d53 b53f 2425 d8bf 2956 08be 5759 3cbf
00000390: 2841 89be 6fdc 28bf 9ff0 0e3f 5c89 2c3f
000003a0: af6f 44bb ca1b 253e bc5c 5a3f 71ef eebe
000003b0: d359 8bbf e724 7abe b6f9 b7bc 8859 2b3f
000003c0: dd79 a13e 563e 583c 2d90 8fbe 5d8b 43bd
000003d0: 2b83 76be bccb 0dbf c871 f7be 1124 26bf
000003e0: df8f 8c3e c956 2e3d 4bb0 5fbd 7d4a 98bf
000003f0: 99ea 22be aad7 893e a377 b13e a699 85bf

layers.1.h_bias f4 [16]
0.22142392 -0.07041137 0.011770903 -0.06682647 -0.04869487 -0.25065595 1.0541282 -0.07728232
-0.06333051 -0.09098415 0.31473494 -0.11641442 -0.28557226 0.070781335 -0.55051273 -0.6813273
00000000: f4bc 623e d633 90bd bfda 403c 51dc 88bd
00000010: 4674 47bd fa55 80be aced 863f 3146 9ebd
00000020: 6db3 81bd e655 babd f024 a13e af6a eebd
00000030: 8736 92be cef5 903d 67ee 0cbf 776b 2ebf

layers.2.weight f4 [4, 16, 16]
-1.0106255 -0.20204322 -0.07283597 -0.32111603 0.19540016 0.06715016 0.29449743 -1.2173599
0.09866564 -1.0656784 -1.0743537 0.02833186 -1.1936663 -0.08651743 -0.15782842 0.12713124
-0.6553407 0.29080948 -0.7860513 0.033937063 0.088809274 -0.50345296 0.50846976 -0.19272743
0.3387987 -0.78174525 0.060156304 -0.37752107 -0.54363245 0.31095657 0.41057083 0.24453574
-0.271986 0.076317675 -1.2225399 -0.88150096 0.3404946 0.17463045 -1.4042679 0.43948895
-0.32499573 -0.05657577 0.4755112 -0.1258109 0.6372524 0.51123554 -0.612283 0.75535154
-0.4905115 0.24217637 -0.0015118835 -0.9911667 0.46308094 0.3145387 -0.3398504 0.21863124
0.42909533 0.22411145 0.07508684 0.6306417 -0.21240711 0.44285628 0.29527783 -0.27089548
-0.24227513 -0.3768318 0.15735786 -0.14001179 0.25622725 0.2058712 0.09658061 -0.4238368
0.17677891 -0.31805685 -0.37903044 0.5773036 0.40238366 0.8438317 0.41380605 -0.7191331
-0.14393413 -0.1883795 0.49053407 0.15934712 -0.97961926 -0.6373324 -0.055309277 0.15771839
0.3563987 -0.575923 -0.3937448 0.25089478 0.07800956 -0.18439063 -0.88443714 -0.251637
0.388142 0.6823632 0.79862195 0.60119605 -0.29603162 0.488391 0.34631374 0.2494331
-0.7861301 -1.2353287 0.13088453 0.50091237 -0.5560714 -0.0009925966 0.08398245 -0.69324166
-0.42170516 -0.36534128 1.1174784 -0.18756707 -0.029072003 0.21863085 -0.24521743 -0.072548494
-0.4334192 0.37169802 -0.24800955 0.19072959 0.9127299 0.4340662 0.20086361 0.8052362
0.055025037 -0.15327574 0.42879933 0.65671015 0.063419335 0.4602735 -0.40518665 -0.046734054
-0.17644015 0.08614395 -0.2506682 -0.41436377 -0.10584641 0.02653074 0.38160875 -0.017673599
-0.651312 0.046603557 -0.044740275 -0.34900892 -1.9042488 -0.081113026 0.1952857 -0.7249324
-1.4643726 0.13339539 0.01201305 0.393072 0.17488895 -0.20479758 0.27647159 0.16391231
0.38339266 0.18272081 -0.07852733 0.20553944 -0.097460635 0.37384933 0.31822482 -0.11018595
0.17782567 0.11060716 0.4392296 -0.7701803 -0.21199071 -0.56352556 0.41668293 0.34851944
0.008505682 0.619614 0.021412028 -0.05441626 0.51980567 -0.6664896 0.5013902 0.6232486
-0.4263321 0.94209725 -0.23170082 0.022181123 0.7846937 0.0040586316 -0.85027707 0.2351574
0.054950755 -0.88527274 0.040658563 0.27750725 0.1692935 0.043940518 0.017822158 0.16088755
0.32097155 -0.055264764 -0.057298906 -0.81677043 0.040871825 -0.19910541 -0.21814892 -0.26075953
-0.19734842 0.30438125 0.07823939 -0.00021900075 -0.09274587 -0.31041566 -0.45562497 -0.52403605
-0.92312235 0.22954439 0.20394269 -0.074773744 -0.13226144 -0.096232794 -0.26922798 -0.12641422
0.1193951 -1.1145042 0.39376828 0.04297187 0.10331834 -0.25366086 0.020031273 0.10937517
-0.17363031 -0.23743472 0.0142494235 0.030819865 0.5428714 -0.1776124 -0.34368783 -0.25708216
-0.83843213 0.226524 0.019527823 -1.0870358 -1.1559548 -0.0049060206 0.9166335 -0.0028330437
0.53351957 -0.29586703 0.38063377 0.2093767 -0.65490943 0.13215831 -0.6131017 0.88950497
00000000: 2d5c 81bf 6be4 4ebe 062b 95bd 5269 a4be
00000010: fb16 483e 0686 893d 5ec8 963e 73d2 9bbf
00000020: 3611 ca3d 2668 88bf 6c84 89bf 3818 e83c
00000030: 0fca 98bf 0d30 b1bd c69d 21be b12e 023e
00000040: 68c4 27bf fbe4 943e a83a 49bf 9701 0b3d
00000050: a3e1 b53d 4be2 00bf 132b 023f 575a 45be
00000060: 0677 ad3e 7520 48bf 7566 763d 714a c1be
00000070: 7f2b 0bbf b335 9f3e 5736 d23e 9467 7a3e
00000080: c041 8bbe 714c 9c3d 307c 9cbf 0caa 61bf
00000090: 4f55 ae3e 53d2 323e 0dbf b3bf b204 e13e
000000a0: d765 a6be ffbb 67bd 3476 f33e 93d4 00be
000000b0: f922 233f 55e0 023f 94be 1cbf b85e 413f
000000c0: 5324 fbbe 15fd 773e 642a c6ba 1abd 7dbf
000000d0: f218 ed3e 370b a13e df00 aebe dee0 5f3e
000000e0: 62b2 db3e 797d 653e 21c7 993d bc71 213f
000000f0: 4081 59be 0fbe e23e a82e 973e d0b2 8abe
00000100: f916 78be 19f0 c0be 6b22 213e 405f 0fbe
00000110: 3830 833e e6cf 523e 0ecc c53d 2301 d9be
00000120: 8805 353e 59d8 a2be 4710 c2be 2bca 133f
00000130: 3b05 ce3e 5b05 583f 63de d33e 1b19 38bf
00000140: 7863 13be 8ee6 40be 4827 fb3e e42b 233e
00000150: 54c8 7abf 3728 23bf fb8b 62bd ee80 213e
00000160: e479 b63e b16f 13bf eb98 c9be 4875 803e
00000170: 7ac3 9f3d e6d0 3cbe 796a 62bf 91d6 80be
00000180: 8cba c63e 5baf 2e3f 7d72 4c3f fce7 193f
00000190: 7591 97be 630e fa3e 0950 b13e 646b 7f3e
000001a0: d23f 49bf 401f 9ebf 9806 063e cb3b 003f
000001b0: b25a 0ebf 041a 82ba fefe ab3d 4978 31bf
000001c0: bde9 d7be 030e bbbe 8809 8f3f 9511 40be
000001d0: 6928 eebc c4e0 5f3e 471a 7bbe 4e94 94bd
000001e0: 1fe9 ddbe 344f be3e 37f6 7dbe 9e4e 433e
000001f0: aba8 693f ed3d de3e 31af 4d3e f623 4e3f
00000200: ef61 613d 51f4 1cbe 968b db3e 281e 283f
00000210: ffe1 813d f8a8 eb3e a074 cfbe 356c 3fbd
00000220: baac 34be 3d6c b03d 9557 80be 7d27 d4be
00000230: 01c6 d8bd ff56 d93c 3962 c33e 39c8 90bc
00000240: 62bc 26bf 5fe3 3e3d 9441 37bd 4cb1 b2be
00000250: 6dbe f3bf 961e a6bd f9f8 473e 2b95 39bf
00000260: 9070 bbbf cd98 083e 62d2 443c bc40 c93e
00000270: 1716 333e 75b6 51be af8d 8d3e a1d8 273e
00000280: 0b4c c43e 2a1b 3b3e f0d2 a0bd ee78 523e
00000290: 7199 c7bd 2e69 bf3e 5dee a23e 2ca9 e1bd
000002a0: ef17 363e 0286 e23d b4e2 e03e 892a 45bf
000002b0: 1814 59be 3643 10bf 7757 d53e 2471 b23e
000002c0: 6b5b 0b3c 069f 1e3f 4768 af3c 96e3 5ebd
000002d0: fc11 053f 109f 2abf 1c5b 003f 388d 1f3f
000002e0: 3348 dabe 492d 713f fb42 6dbe 30b5 b53c
000002f0: b0e1 483f 45fe 843b c2ab 59bf 1acd 703e
00000300: 0b14 613d 3ca1 62bf 9889 263d 6e15 8e3e
00000310: 465b 2d3e f9fa 333d c6ff 913c b5bf 243e
00000320: 6256 a43e 4e5d 62bd 42b2 6abd de17 51bf
00000330: 3769 273d 4ae2 4bbe 6e62 5fbe 4682 85be
00000340: b415 4abe dcd7 9b3e f93b a03d 91a3 65b9
00000350: 8cf1 bdbd cdee 9ebe ad47 e9be 3a27 06bf
00000360: bf51 6cbf af0d 6b3e 5ad6 503e fa22 99bd
00000370: 8b6f 07be b315 c5bd 40d8 89be bb72 01be
00000380: 6b85 f43d 13a8 8ebf ff9b c93e 4603 303d
00000390: 9198 d33d d6df 81be a018 a43c 1700 e03d
000003a0: 25cc 31be 1622 73be 6a76 693c f179 fc3c
000003b0: 9ff9 0a3f 06e0 35be daf7 afbe 46a0 83be
000003c0: 7da3 56bf e8f5 673e d0f8 9f3c fd23 8bbf
000003d0: 54f6 93bf afc2 a0bb 7ea8 6a3f 96aa 39bb
000003e0: bd94 083f e27b 97be 6ee2 c23e d866 563e
000003f0: 25a8 27bf 8254 073e 3cf4 1cbf 99b6 633f

layers.2.h_bias f4 [16]
-0.07631265 -0.1486709 -0.6561544 -0.10771395 -0.25858235 -0.19974075 -0.15960503 0.067034945
-0.36071345 -0.10458234 -0.16536589 -0.021660587 -0.4124105 0.010572303 -0.27267024 -0.2665
00000000: cf49 9cbd 2f3d 18be bcf9 27bf 2299 dcbd
00000010: e864 84be d788 4cbe 806f 23be 9e49 893d
00000020: 6faf b8be 442f d6bd ad55 29be 8b71 b1bc
00000030: 7827 d3be 7437 2d3c 6f9b 8bbe b072 88be

layers.3.weight f4 [4, 16, 4]
0.11221846 0.69238454 0.6402024 -0.7705396 -0.54716635 -0.34869167 0.49437976 0.14262922
-0.24093288 -0.23451795 0.20592234 0.30150256 -0.21256189 0.31662664 0.124371275 0.013727802
0.09609185 -0.7107334 0.17944266 0.085298136 0.26595142 0.49923515 0.09184471 -0.69355524
-0.5472884 0.09966512 -0.68952227 0.68787646 -0.02826074 -0.16289209 0.71605784 -0.16055799
-0.57895994 0.4242515 -0.52836186 -0.9525511 -0.1122229 -0.061917044 0.5013102 0.049352273
-1.1246215 -0.45415106 0.13575007 0.017501561 0.037439127 -0.1756774 -0.06439791 -0.8936231
0.029020244 0.56447357 0.22411758 0.65035236 -0.17641526 0.17831987 0.30491978 -0.30769154
-0.021853017 -0.117044255 -0.8585857 0.34128526 0.4820345 0.09229995 0.54256463 0.3571422
0.45828727 -0.45926198 0.7581356 -1.0658362 1.0223433 0.7465493 -0.3237626 0.23642482
-1.1041241 0.051882897 -0.039982356 -0.2032958 -0.32404083 -0.67852014 0.34185454 -0.7947072
-0.03299009 -0.23909615 -0.6984047 0.07181085 -0.08026821 -0.46534795 0.34937742 -0.3036741
0.20016392 0.01152088 -0.08082597 -0.24572936 0.7787423 0.52345645 0.08088981 0.10638012
-0.89327013 0.2066326 0.655735 0.28052682 -0.022058927 -0.76342547 0.72338796 0.08296938
0.05344375 0.04161295 -0.07095405 0.13307303 -0.15706064 0.30016142 -0.12884834 0.5721131
0.03955503 -0.54438794 0.03375326 -0.026426803 -0.005854973 0.39957753 0.05295387 -0.46953928
0.25889835 -0.50869167 -0.12951173 -0.16351654 -0.117229536 -0.32703045 -0.23043759 0.8978897
0.56100976 0.32987455 0.22581813 0.16117623 -0.24468258 0.17837408 -0.44321492 0.17154124
-0.2165382 -0.76558363 -0.03580175 -1.0150409 0.5233466 0.67838144 -0.8496198 -0.17395736
0.4951804 -0.47521377 0.18906492 -0.16785483 0.38627416 -0.56828123 0.2533021 -0.64722925
-0.22088958 0.19386688 0.28362304 0.5730606 -0.22877102 0.235339 1.7122483 0.61728793
0.20233603 0.4281248 -1.2914681 -0.23929267 -0.2343097 -1.4035442 0.45073786 -1.042566
-0.10574564 0.36498767 -0.05565941 -0.29992995 0.02259653 0.45950246 -0.70460814 0.051377635
0.042382162 -0.2100239 -0.38978958 0.23281959 -0.57025003 -0.42989174 0.68609774 -1.0198882
-0.35357955 -0.13210376 0.12939695 -0.26074007 -0.102447286 0.70374846 0.4945155 0.24001934
0.0575186 -0.3638768 -0.041681677 0.20734702 -1.6106945 -0.73171145 0.36299828 -1.8003474
0.028005833 0.24978572 -0.6567352 0.4674206 -0.0075833932 -0.045445085 -0.7735688 -0.10842666
-0.63202506 1.0869612 0.15337238 0.55745953 -0.9375328 0.2203012 0.14978999 0.5499925
-0.067215055 0.43355298 -0.34672603 0.11516669 0.24118237 -1.539092 -0.012382953 -0.6665158
-0.7264868 0.13278964 0.2673565 -0.28493047 -1.5377743 -1.0435662 1.0546161 -0.6307118
0.9667903 -0.2996801 0.39384952 -0.7374711 0.303993 0.06028689 0.558575 0.36974472
-0.27278605 -0.87432474 0.033324715 -1.7610381 -0.73068917 0.29213917 -0.34193116 -0.13173436
0.013408719 0.30369893 0.1394321 -0.6350655 -0.1012745 -1.0668178 -0.1814144 -1.2736652
00000000: cbd2 e53d 1d40 313f 4ee4 233f 1542 45bf
00000010: 1813 0cbf b787 b2be 581f fd3e 650d 123e
00000020: 1cb7 76be 7925 70be 4edd 523e 8b5e 9a3e
00000030: d3a9 59be e31c a23e 5eb6 fe3d 93ea 603c
00000040: cecb c43d a0f2 35bf d1bf 373e cab0 ae3d
00000050: c92a 883e c09b ff3e 1419 bc3d d68c 31bf
00000060: 181b 0cbf 3a1d cc3d 8884 30bf ac18 303f
00000070: 1183 e7bc 2fcd 26be 914f 373f 5069 24be
00000080: b836 14bf 7e37 d93e b942 07bf 64da 73bf
00000090: 1fd5 e5bd ba9c 7dbd de55 003f 9c25 4a3d
000000a0: 99f3 8fbf 7d86 e8be 1102 0b3e 6f5f 8f3c
000000b0: c559 193d c7e4 33be 0de3 83bd 7cc4 64bf
000000c0: ddbb ed3c 5781 103f 147f 653e 7e7d 263f
000000d0: 34a6 34be 7c99 363e 721e 9c3e bf89 9dbe
000000e0: 1905 b3bc e6b4 efbd 46cc 5bbf f1bc ae3e
000000f0: 3acd f63e c207 bd3d 84e5 0a3f 58db b63e
00000100: a1a4 ea3e 6324 ebbe 2d15 423f 526d 88bf
00000110: 25dc 823f db1d 3f3f 36c4 a5be 5919 723e
00000120: f053 8dbf 2983 543d 8ac4 23bd c62c 50be
00000130: aee8 a5be 7fb3 2dbf 8f07 af3e ee71 4bbf
00000140: 9e20 07bd 9fd5 74be a7ca 32bf 9111 933d
00000150: a963 a4bd 1642 eebe 99e1 b23e 2c7b 9bbe
00000160: c5f7 4c3e 13c2 3c3c 1688 a5bd 7aa0 7bbe
00000170: a85b 473f 3e01 063f 8fa9 a53d d2dd d93d
00000180: 5aad 64bf 7f97 533e 40de 273f 36a1 8f3e
00000190: ecb4 b4bc da6f 43bf f42f 393f daeb a93d
000001a0: d5e7 5a3d 5772 2a3d 5b50 91bd 4c44 083e
000001b0: 81d4 20be c2ae 993e d2f0 03be 0176 123f
000001c0: 7504 223d 025d 0bbf dc40 0a3d 067d d8bc
000001d0: 13db bfbb 6d95 cc3e 28e6 583d 7467 f0be
000001e0: 538e 843e 9e39 02bf b99e 04be e170 27be
000001f0: 0a16 f0bd 8970 a7be d5f7 6bbe 19dc 653f
00000200: 569e 0f3f 51e5 a83e de3c 673e 620b 253e
00000210: 128e 7abe b2a7 363e 11ed e2be 82a8 2f3e
00000220: 31bc 5dbe 4afd 43bf dba4 12bd dcec 81bf
00000230: 0bfa 053f 68aa 2d3f af80 59bf e121 32be
00000240: 4988 fd3e 384f f3be 3c9a 413e 23e2 2bbe
00000250: bac5 c53e e17a 11bf d0b0 813e d1b0 25bf
00000260: e130 62be 0a85 463e 0a37 913e 19b4 123f
00000270: f342 6abe b5fc 703e f42a db3f 9506 1e3f
00000280: 2d31 4f3e 2c33 db3e d44e a5bf 2309 75be
00000290: e2ee 6fbe 56a7 b3bf 1dc7 e63e cd72 85bf
000002a0: 2c91 d8bd aadf ba3e 1ffb 63bd 6b90 99be
000002b0: 5c1c b93c e843 eb3e 3361 34bf 5b71 523d
000002c0: eb98 2d3d 8110 57be 8092 c7be 4268 6e3e
000002d0: e8fb 11bf c51a dcbe 1aa4 2f3f b28b 82bf
000002e0: 6108 b5be 3546 07be a280 043e b97f 85be
000002f0: e2cf d1bd dc28 343f 2331 fd3e a1c7 753e
00000300: a098 6b3d 0f4e babe 68ba 2abd c752 543e
00000310: 3d2b cebf 7151 3bbf e9da b93e c971 e6bf
00000320: 7d6c e53c d4c7 7f3e cc1f 28bf c151 ef3e
00000330: 1d7e f8bb a024 3abd 9b08 46bf cc0e debd
00000340: 65cc 21bf 8b21 8b3f a60d 1d3e abb5 0e3f
00000350: 2602 70bf a396 613e 8c62 193e 4fcc 0c3f
00000360: 0ca8 89bd a8fa dd3e 1386 b1be 83dc eb3d
00000370: 83f8 763e f700 c5bf dfe1 4abc c8a0 2abf
00000380: 0afb 39bf 02fa 073e f3e2 883e 68e2 91be
00000390: cad5 c4bf 9493 85bf a9fd 863f 5476 21bf
000003a0: 927f 773f ac6f 99be a5a6 c93e e8ca 3cbf
000003b0: f8a4 9b3e 63ef 763d c5fe 0e3f 2e4f bd3e
000003c0: 9daa 8bbe bfd3 5fbf 7f7f 083d b269 e1bf
000003d0: 720e 3bbf 4493 953e 9a11 afbe 5fe5 06be
000003e0: 3eb0 5b3c 6d7e 9b3e 4ac7 0e3e a793 22bf
000003f0: 0169 cfbd 7c8d 88bf b2c4 39be 7607 a3bf

layers.3.h_bias f4 [4]
0.31696427 -0.13969536 0.32719353 0.013747515
00000000: 2449 a23e 4d0c 0fbe e985 a73e 423d 613c

attn.attn_l f4 [1, 1, 4]
-2.024058 1.2174307 -0.4209779 1.3343315
00000000: 2b8a 01c0 c5d4 9b3f 6a8a d7be 60cb aa3f

attn.attn_r f4 [1, 1, 4]
1.0428685 1.6534253 -2.584939 -1.4844434
00000000: b77c 853f 71a3 d33f a46f 25c0 3e02 bebf

attn.fc.weight f4 [4, 4]
0.12832086 0.046129007 0.16693547 0.43575275 0.7752021 0.5115878 -0.964595 0.81972903
-1.8173984 -0.37352616 -0.010665152 0.060721464 0.5827299 -0.4667225 0.44402325 -0.806939
00000000: 8b66 033e c5f1 3c3d 22f1 2a3e fc1a df3e
00000010: a573 463f 6bf7 023f b3ef 76bf c3d9 513f
00000020: 83a0 e8bf d23e bfbe e4bc 2ebc 12b7 783d
00000030: c92d 153f 40f6 eebe 0457 e33e 8e93 4ebf

dense.weight f4 [1, 4]
0.044042915 -0.265142 0.22244126 0.28642908
00000000: 5866 343d b1c0 87be a4c7 633e d5a6 923e
