saved_model_w/herg_lowd.pth (torch_old, 15637 bytes, 12 tensors)

layers.0.weight f4 [4, 14, 16]
000000 b3 f8 6c 3a e6 90 4e 3e 4d cf 03 3d d3 bc ef 3d
       0.00090397446 0.20172462 0.03218012 0.11705937
000010 12 5d 02 3e cb 45 7b 3e e1 30 e3 bc 12 fd df 3d
       0.12730816 0.24538343 -0.027733268 0.10936941
000020 1e 55 55 3c 21 1d 66 3d 53 40 41 be d0 ef 21 be
       0.013020782 0.056180123 -0.18872194 -0.15814137
000030 19 8c 21 3e 3b ae 56 bd b6 32 d3 be 46 bc 18 3c
       0.157761 -0.052412253 -0.41249627 0.009322232
000040 7c ab bb bc fe 47 bd be d5 0d a1 be cb 1a 23 3e
       -0.022908919 -0.36968988 -0.31455866 0.1592819
000050 b1 ed 25 3e 0f 72 8d 3e aa ef a1 be 62 95 2d be
       0.16203953 0.27626082 -0.31628162 -0.16951516
000060 41 a4 a6 3e 04 4b 09 bf af fd a3 bf 12 a9 92 bd
       0.3254719 -0.5363009 -1.2811793 -0.07161154
000070 32 03 34 3e be 0d 1b bf d5 1d 50 bf df 34 45 bf
       0.17579344 -0.60567844 -0.8129552 -0.770338
000080 20 c8 9f 3d b0 9a e3 bc b8 8c 94 3d 5a 7e 96 bd
       0.07801843 -0.027783722 0.072534025 -0.073483184
000090 c3 19 d9 bd c8 c5 11 3d 7c fa 03 3d a8 53 ce 3d
       -0.10600617 0.03558901 0.032221302 0.1007455
0000a0 8c 21 f9 bd bc 1f 11 3e 7c ff 11 bd 6e ed 48 be
       -0.12164602 0.14172262 -0.03564404 -0.19621822
0000b0 f4 f8 88 3d fe de 26 3e a8 a9 3e 3d 1c 8a bd bd
       0.06688109 0.16296002 0.046548516 -0.09254858
0000c0 71 60 82 3f e6 80 4c be aa d1 92 3f 9d 1d b7 3f
       1.0185682 -0.19971046 1.1470234 1.4305912
0000d0 b6 9f d9 3d 1d 26 c4 3e 17 24 42 bf 7d dc f9 3e
       0.106261656 0.38310328 -0.7583632 0.48801032
0000e0 8c 8e 57 bf d8 e5 e5 3f a8 c1 8a 3e 52 fe 1e bf
       -0.84201884 1.7960768 0.27100873 -0.6210681
0000f0 d4 a2 95 3f 68 e5 69 3f c5 6a 48 bf 95 65 d3 3c
       1.1690316 0.9136567 -0.7828792 0.025805274
000100 59 d7 54 bf 65 90 2a be bc 89 f6 3c 89 a8 2f 3c
       -0.83141094 -0.16656645 0.030094974 0.010721334
000110 40 f3 67 be 80 b2 c0 3e 7a 7b 54 3f 39 1a 46 3f
       -0.22651386 0.37636185 0.8300091 0.7738376
000120 ac dd 24 bf e8 c4 b5 bb 42 42 f4 3e 5c 74 3e 3f
       -0.64400744 -0.0055471547 0.477068 0.743963
000130 c4 ba b1 3f 05 c9 1f bd d0 95 2a 3e f1 68 ec be
       1.3885121 -0.039010067 0.16658711 -0.46173814
000140 9d 8f 3c 40 f7 c6 84 bf 8e c9 e1 be 5f 39 84 3f
       2.9462655 -1.0373219 -0.44099087 1.0330008
000150 01 c7 0b bf ef fd 6d 40 47 e9 89 bf 45 dc 58 bf
       -0.5460053 3.7186239 -1.0774316 -0.84711105
000160 e4 c2 03 bf 04 83 ca 3f ba f5 01 bc 1a 7a 64 bf
       -0.51469254 1.5821233 -0.007932121 -0.8924881
000170 c2 7f 1b 40 1b 5e e8 be 6b 19 05 bf 96 d2 14 bf
       2.4296727 -0.45384297 -0.5199191 -0.5813383
000180 ea 22 7c 3e ef de 97 3e a0 90 69 bd 23 50 1f 3e
       0.24622694 0.29662272 -0.05702269 0.15557913
000190 c5 04 42 bf 30 97 f2 be 24 e3 aa 3c 96 71 7d be
       -0.7578853 -0.47380972 0.020860262 -0.24750361
0001a0 ef 55 8b be da 6d 9b 3e 21 5d 12 3e 65 09 01 bf
       -0.27214 0.30357248 0.14293338 -0.5040496
0001b0 9c cf 09 be 04 5c d6 be 5e 64 ff be b5 bb af 3e
       -0.13458103 -0.41867077 -0.49881262 0.34322897
0001c0 0f ff 12 bf 77 bd a5 3e bc 03 d5 3e 82 37 5a 3d
       -0.5742044 0.32371113 0.41604412 0.053275593
0001d0 08 f7 ea 3e 22 2b 84 bf 60 f7 79 3e fe 33 1f 3f
       0.45891595 -1.0325663 0.24410772 0.6218871
0001e0 4e e5 4b 3e ce 56 86 bf aa 90 17 3d 1e 3f d9 3e
       0.19911692 -1.0495241 0.037003197 0.42430967
0001f0 c9 1c cd 3d 1a 7d 93 3e 2d ed aa be b2 e9 20 bf
       0.10015256 0.28806382 -0.33384076 -0.6285659
000200 18 38 9e 3e 9f 4a 7b 3e 08 59 e1 bf 92 b0 e4 bd
       0.3090217 0.24540184 -1.7605295 -0.111664906
000210 75 5f ed 3e e3 fb 82 3f 72 fe fa 3e 82 bb 90 bf
       0.4636189 1.023312 0.4902225 -1.1307223
000220 5f 99 d6 3e 0f 5a 7b bf 7a 12 69 bf 73 00 0e bf
       0.41913888 -0.98184294 -0.9104382 -0.55469435
000230 78 35 3f 3f c6 2e 97 3e 5e 8c fa 3e 31 2f 54 bf
       0.7469096 0.29527873 0.48935217 -0.8288451
000240 5c 85 b0 bd 33 77 b5 be 99 d9 e7 bc fe c2 48 3e
       -0.08619186 -0.35442504 -0.028302 0.19605634
000250 a5 a4 95 3e 1b 00 62 3c 29 ec 37 3d df 46 4c 3e
       0.29227176 0.01379397 0.044902954 0.1994891
000260 ab 96 07 bf d2 30 9f 3f a8 01 36 3e 05 20 82 bf
       -0.52964276 1.2436774 0.1777407 -1.0166022
000270 54 75 da bc b8 10 68 be b0 4b 24 bd 5d 13 ad 3e
       -0.026667275 -0.22662628 -0.040111244 0.33803836
000280 3d c8 7c 3b c1 bd 09 3c bb da 6a 3d 5b 2d 65 3e
       0.00385715 0.008407057 0.057337504 0.22380583
000290 89 8b f7 be 4e 67 a7 bc 85 b6 93 bf cc 71 b5 3d
       -0.48348644 -0.020435002 -1.1540076 0.08859596
0002a0 53 4d 44 bf bb b0 08 bf 98 00 69 bf 47 de 7a bf
       -0.7668049 -0.5339467 -0.9101653 -0.9799542
0002b0 ad 6b 16 3f 6c 0f 9f bf 1a c6 3a bf 93 1e cd be
       0.5875805 -1.2426581 -0.7295853 -0.4006239
0002c0 51 7f 6e bd 31 ff 3e bf 1b c9 26 3e 23 ed b9 3e
       -0.058226887 -0.7460814 0.16287653 0.36313733
0002d0 41 a8 fd 3d 43 d5 0f 3f b3 26 02 bd 42 93 51 3e
       0.123856075 0.56184787 -0.031775188 0.2046633
0002e0 25 bf 8c be f9 73 75 bf 09 98 db 3d 8c 0d 1c 3e
       -0.27489582 -0.95880085 0.10722358 0.15239543
0002f0 70 a4 14 bd 21 86 e1 3d 3f 45 12 bf 81 3c 0e 3f
       -0.036289632 0.11011911 -0.5713691 0.5556107
000300 65 ff 0a bf 6f dc 94 bf e4 05 05 3f ce 36 e7 3e
       -0.5429595 -1.1629771 0.51962113 0.45159
000310 17 42 c3 bf b5 07 0e 3f 77 39 92 bf 12 d7 04 be
       -1.5254544 0.5548051 -1.1423787 -0.12972668
000320 ab 15 1b 3e 53 e5 1e 3f 33 1f a4 3e 9e 5b 3a be
       0.15144984 0.6206867 0.32055053 -0.18199012
000330 f2 bd 42 be 0b fe 8b 3f a7 a8 3d bf ec 61 ac bf
       -0.19017771 1.0936903 -0.7408547 -1.3467383
000340 32 52 cb be 4a 37 d9 bd 61 4a 2f 3e 81 c3 0c be
       -0.39711148 -0.10606249 0.17118217 -0.13746454
000350 a4 6e b1 3e 82 45 e1 3e 5d 97 b7 3e 3a 48 35 3e
       0.34654725 0.43998343 0.3585767 0.17703333
000360 6d 89 de be 1a a8 03 3c f1 63 81 3e 7a 10 08 3e
       -0.43464223 0.008035684 0.25271562 0.13287535
000370 45 09 04 3f f2 b4 c2 3e eb c3 8d bd 48 b2 5a 3e
       0.51576644 0.38028675 -0.06922134 0.21357071
000380 12 3b d9 3e 1f 0f 33 be 8a 93 39 be 5f 85 60 3e
       0.4242788 -0.17486237 -0.18122688 0.21925877
000390 2d a4 fb bc f2 4a b0 be ba 49 a5 be 89 d0 31 3e
       -0.030717934 -0.3443218 -0.3228281 0.17364706
0003a0 52 2a a1 be c0 c5 6b 3e a5 13 33 3e 73 ef 14 3e
       -0.314776 0.23024654 0.17487963 0.14544468
0003b0 72 95 4d 3e b0 18 a9 3e 10 66 9d be 16 06 f4 be
       0.2007654 0.33026648 -0.3074193 -0.47660893
0003c0 77 5a ec be b2 68 5a be a3 82 84 bd 62 48 54 be
       -0.4616277 -0.21329 -0.064702295 -0.20730737
0003d0 20 a4 c3 3e ca 74 91 be 79 ad 32 3e 15 92 6d bd
       0.38211155 -0.28409415 0.17448987 -0.058000643
0003e0 f6 3f 9b 3e 99 ba 29 bd c7 9a 6a 3e 15 f1 14 bd
       0.30322236 -0.04143772 0.22910605 -0.036362726
0003f0 be ac d1 be ec 06 36 3d 29 6b ad 3e e6 9a d0 3e
       -0.40952104 0.044440195 0.3387082 0.40743178

layers.0.h_bias f4 [16]
000000 7a ed 64 3e 70 de 60 be 63 6a 80 bd cd 47 b8 be
       0.22356215 -0.21959853 -0.06270292 -0.3599228
000010 57 81 7f bd 78 ef 33 3d 31 a1 7c be bb 9b bb 3d
       -0.062379207 0.043929547 -0.24670865 0.091605626
000020 f4 a2 95 be 07 a2 23 be c9 f2 48 bd 2d 4c 1a 3e
       -0.29225886 -0.15979777 -0.049059663 0.15068121
000030 95 63 3b 3e 67 37 18 3e 4b ad 85 be 34 70 51 3e
       0.18299706 0.14864884 -0.26108775 0.20452958

layers.1.weight f4 [4, 16, 16]
000000 e5 3d a0 3e 15 76 00 3e b5 60 80 3e 14 43 04 be
       0.31297222 0.12545045 0.25073782 -0.12916213
000010 39 25 03 be 9d 9c 87 bd b9 c6 ef be 04 fc 59 be
       -0.12807168 -0.066216685 -0.468313 -0.21287543
000020 90 ba ba bd 97 45 b0 ba c2 9b e3 be c5 e7 12 bf
       -0.09117615 -0.0013448474 -0.4445477 -0.573849
000030 3e d6 a6 3d ad 06 8c 3e 93 ec 19 be 78 c0 8f bf
       0.08146332 0.27348843 -0.15031652 -1.1230612
000040 95 05 94 bc 25 15 ba be 3a 18 90 bf 55 91 7e 3e
       -0.018069068 -0.36344257 -1.1257393 0.24860127
000050 0f 42 ac bd 62 27 92 be e7 c0 96 be 2c 75 ea bb
       -0.08411037 -0.28545672 -0.29444048 -0.0071550813
000060 bd 5c 35 3c 76 01 e3 bd d6 f1 bb bd 3f 94 97 bd
       0.011069474 -0.11084263 -0.09176986 -0.074013226
000070 fc 06 dd 3c ff 74 4f be ee 18 8c 3e e4 ed 58 bc
       0.02698087 -0.20259474 0.2736277 -0.013240311
000080 28 ba f7 be 32 26 99 3a 0e 21 6d 3e 2f 59 13 3e
       -0.48384213 0.0011684357 0.2315714 0.1438949
000090 58 7e 58 be 9e 8a ae be bb 0f ae 3e 4e e0 12 be
       -0.21141946 -0.34090132 0.33996376 -0.14343378
0000a0 06 98 4d 3e 3a aa 1d bd 7f 5c 94 3e 60 a9 cb 3e
       0.20077524 -0.03849242 0.2897682 0.3977766
0000b0 99 50 80 3e 7e a0 ea bd 7f 5c 62 3e 28 63 8c 3e
       0.2506149 -0.11456393 0.22105597 0.274194
0000c0 cf c5 b4 bc 14 fd ba 3e 92 ba f7 be f5 5c aa 3e
       -0.022066979 0.36521208 -0.4838453 0.33274046
0000d0 7b 49 ec be 2a c3 a4 3e f9 f2 94 bd e5 f4 1f be
       -0.4614981 0.32180148 -0.07272906 -0.15620764
0000e0 10 c4 ce 3d 19 f0 83 3c f8 c5 c6 3d ee a7 ad 3e
       0.1009599 0.016105698 0.09705728 0.33917183
0000f0 ff 56 c4 3d b1 fc 74 3e a7 0c 2e 3d da e1 39 bd
       0.09586906 0.23924519 0.042492535 -0.045381404
000100 25 b2 2c be 6d ae 3b be b9 96 36 3e b6 17 26 c0
       -0.16864832 -0.18328257 0.17830934 -2.5951972
000110 cf 71 98 be 51 db db be b4 47 80 3e 84 c2 3e 3f
       -0.2977433 -0.42940763 0.25054705 0.7451556
000120 e5 f9 00 3e 7e 3c bc 3e 4b 83 bd bd 0d 30 cb 3c
       0.12595327 0.36764902 -0.09253558 0.024803186
000130 ae 95 a1 bf 92 88 6c bd ad 4a a6 be 0d 19 58 bc
       -1.2623804 -0.05774743 -0.32478848 -0.013189566
000140 ac ee 50 be 30 3c 63 3e 0c 9a ae be 3c 66 b3 3d
       -0.20403546 0.22190928 -0.34101903 0.08759734
000150 8b 75 85 3e 98 b0 f9 3e f9 33 04 be c6 ca 99 3e
       0.2606624 0.48767543 -0.12910451 0.30037516
000160 be 83 7d be a9 07 cf be fb 2c d9 bc 40 f3 04 bf
       -0.24757287 -0.40435532 -0.026510706 -0.5193367
000170 c3 d6 23 3f b2 52 d6 be e3 64 49 bb e3 d4 9b bc
       0.63999575 -0.41859967 -0.00307303 -0.01902241
000180 ae 29 4c bf 8f de c4 be 84 86 68 bf e2 7f 83 bf
       -0.797511 -0.3845105 -0.90830255 -1.0273402
000190 25 43 b4 3e c4 41 2a 3d b9 63 12 be 74 fb 8d bb
       0.35207477 0.041566625 -0.14295854 -0.004332954
0001a0 8c 41 0e 3f 32 d4 8a 3e f3 e5 1c bf 55 0f d5 3e
       0.55568767 0.27115017 -0.61288375 0.4161326
0001b0 2f ff 23 3d 7a 5a 7c bc cf 4d 24 bd 2b 58 12 3f
       0.040038284 -0.015402431 -0.040113267 0.57165784
0001c0 19 3b 94 be a9 bd 84 bf cc c9 c4 be d0 69 b1 3c
       -0.28951338 -1.037038 -0.3843521 0.0216569
0001d0 6c 45 a1 bf 46 13 da 3d c9 ae e5 3d fd 6b d6 bc
       -1.2599311 0.10648207 0.11214978 -0.02617454
0001e0 4f 99 3d be 17 1f be 3b 9c 47 e1 3e 19 7e b8 bc
       -0.18515514 0.005802046 0.43999946 -0.022521066
0001f0 95 2c a6 3c d9 90 a6 3d 9d a0 b5 3e 03 2d d5 be
       0.02028493 0.08133096 0.354741 -0.41635904
000200 14 55 c8 be 1a c4 ae be 51 3e db bd ee 97 b8 3e
       -0.3912741 -0.3413399 -0.10705245 0.36053413
000210 16 2a b3 3e 35 4d e5 be fc be 82 3e 50 a3 d5 3e
       0.34993047 -0.44785467 0.25536335 0.4172616
000220 e0 91 a2 3e 0f 5e 90 3e 92 24 22 3d 7a 02 82 3e
       0.3175192 0.2819676 0.039585657 0.25392514
000230 49 69 01 bf b2 46 63 be 48 74 ff be 1e c7 21 3f
       -0.5055128 -0.22194937 -0.49893403 0.63194454
000240 53 61 11 3e 79 1a d0 3d d0 cc e0 3e 05 ef 8a be
       0.14197282 0.10161299 0.4390626 -0.27135482
000250 33 fa fd 3d 3b fd e4 3e a8 5d be be 36 85 9f be
       0.12401237 0.4472445 -0.3718083 -0.3115632
000260 ed d1 36 3d 9f 91 0c bf 7d b6 62 be 80 88 11 3f
       0.044633795 -0.549097 -0.22139926 0.5684891
000270 5a 37 4b bd 79 7f f1 3d 5c ca b9 3e 73 ca 83 3e
       -0.049613334 0.117918916 0.362872 0.25740394
000280 35 93 25 3e 72 f2 46 3f 1f cd 58 3e 16 2a f1 3e
       0.16169436 0.7771369 0.21171997 0.47102422
000290 47 90 02 bf 48 1e 71 be 44 2b 7b bf 64 32 a1 3f
       -0.510014 -0.23546708 -0.98112893 1.2593503
0002a0 15 88 ec 3c 91 d4 ec bd df 2e 83 bd 2a 1c 81 3e
       0.028873483 -0.11563981 -0.06405424 0.252168
0002b0 85 ca 87 bd e3 b8 c0 3e 31 f5 69 3e c8 6a 53 bf
       -0.066304244 0.37641057 0.2284744 -0.8258481
0002c0 af ae 8f bf 48 44 7d 3d b5 d2 8f be d9 9e 59 bf
       -1.1225184 0.061832696 -0.28090444 -0.8500801
0002d0 c3 42 6b 3d 97 74 05 be 55 27 80 3b 74 2b c1 bd
       0.057436716 -0.13032757 0.0039109387 -0.09432116
0002e0 42 a1 de 3e b6 c3 e6 3e db 96 db bd b5 cf 8b bd
       0.43482405 0.4507119 -0.10722133 -0.06826726
0002f0 4f 6a 0d be 7d a4 a9 be 2c 59 43 3e f2 3a e1 3e
       -0.13810085 -0.33133307 0.19076985 0.43990284
000300 42 11 69 3d 1b 0a 36 3c 3c 1b 73 be c0 67 82 3d
       0.056901224 0.011110808 -0.23740858 0.06367445
000310 e3 be a7 be af 43 94 3e 7e 7b af be 4f 6c ca bd
       -0.32762823 0.28957888 -0.34273905 -0.098839395
000320 e7 2b 49 be fc 45 a1 be 1a b7 ab 3d 66 68 04 bf
       -0.19645654 -0.31498706 0.08384533 -0.517218
000330 48 9a 67 3e d8 a5 1b 3e c9 4d e6 3c 7b b9 53 bf
       0.22617447 0.15199983 0.028113263 -0.82704896
000340 29 82 a1 bf 84 09 36 3e 91 ea 79 3c aa 2d 9b be
       -1.2617847 0.17777067 0.015253679 -0.30308276
000350 51 6d d7 3e fd 44 0f 3f b2 7c dc bc a2 d7 4b 3c
       0.4207559 0.5596464 -0.026914928 0.012441548
000360 e4 e6 63 bf 3b ed 51 3e f0 f1 9d bf 53 bd c4 bd
       -0.89024186 0.20500652 -1.2339458 -0.09606423
000370 f8 67 19 bb 90 fe 2d 3f 84 5a 10 3d 82 23 80 be
       -0.0023407917 0.67966557 0.035242572 -0.2502709
000380 e8 d0 9c 3f 57 a5 be bf fa 1c 05 bf 46 d3 25 bf
       1.2251253 -1.4894208 -0.5199734 -0.647755
000390 33 eb 43 be e8 62 e4 be 15 92 08 3f e1 ae 1a 3f
       -0.1913269 -0.4460671 0.53347903 0.60423094
0003a0 5a cb b8 3d 35 5c cf 3c d4 e8 91 3e 61 f7 99 be
       0.09023161 0.025312522 0.28497946 -0.30071548
0003b0 08 0c 6d bf 0e de aa bd 9c fd 8d 3c c4 bb 09 3f
       -0.92596483 -0.08343135 0.017332844 0.5380213
0003c0 a3 96 9a 3e f8 37 de bb 53 59 4a be 45 af 64 bd
       0.30193052 -0.0067815743 -0.19760637 -0.055831213
0003d0 f8 2d a4 bd cb 8d f7 be 8b 88 9a be 8f 3c 04 bf
       -0.0801658 -0.48350367 -0.301823 -0.51654905
0003e0 3b ca 82 3e 35 39 c4 3d 1b be 87 3c d3 0b 83 bf
       0.25544915 0.09581224 0.016570142 -1.0237983
0003f0 04 b5 5c be 30 43 4f 3e a4 84 7f 3e 70 49 61 bf
       -0.21553427 0.20240474 0.24952942 -0.8800268

layers.1.h_bias f4 [16]
000000 f7 79 38 3e 05 e3 6a 3c ff 5e 46 3b c8 51 e9 bc
       0.18015276 0.014336352 0.0030269024 -0.02848138
000010 19 5d b2 bd f4 3c 47 be b0 d6 46 3f 95 d5 8c bd
       -0.08709163 -0.19456846 0.7767134 -0.06876675
000020 e0 82 22 3d eb 14 3b bd fc dc 8b 3e eb 87 29 bd
       0.039675593 -0.045674246 0.27317035 -0.041389387
000030 21 14 65 be 72 43 af 3d db de fb be c0 a5 07 bf
       -0.2237096 0.08557786 -0.49193463 -0.5298729

layers.2.weight f4 [4, 16, 16]
000000 8e e6 50 bf f8 aa 61 be e0 b4 36 bd 93 a9 82 be
       -0.816018 -0.22037876 -0.04460609 -0.2552
000010 c0 e7 26 3e f7 67 8f 3d 5b e4 8a 3e 68 f3 9b bf
       0.16299343 0.070022516 0.27127346 -1.2183657
000020 3f 4a b7 3d 09 1d 33 bf 88 86 80 bf 9b 2f 1b 3d
       0.08949708 -0.6996618 -1.0041056 0.037887197
000030 24 bd 7a bf 54 9b a8 bd c8 f6 6a be e8 2d 08 3d
       -0.97944856 -0.082327515 -0.22945702 0.033246905
000040 91 47 39 bf 83 62 7b 3e f2 75 32 bf b1 46 1a 3d
       -0.72374827 0.24549298 -0.6971122 0.037665073
000050 42 00 d3 bd aa 2d ed be 87 90 a6 3e 53 da ce bd
       -0.103027835 -0.463239 0.3253214 -0.10100236
000060 01 86 6b 3e 95 9c 0a bf 04 76 ea bc b9 06 a2 be
       0.23000337 -0.54145175 -0.028620727 -0.31645754
000070 84 d6 0a bf 8a 5b 52 3e 64 b7 b7 3e 0b 9a 29 3e
       -0.54233575 0.20542732 0.35882103 0.16562669
000080 18 7f c8 bd 4d fc d9 3d df 17 76 bf ab 31 9d bf
       -0.09789866 0.10643826 -0.96130174 -1.2280782
000090 5b 01 da 3d ce dd 9c 3e 5e c2 7e bf 56 ae 86 3e
       0.1064479 0.30637974 -0.9951533 0.26304883
0000a0 0e 16 65 be c2 e5 9b 3b d9 03 02 3f 14 e1 a1 3d
       -0.22371694 0.004757614 0.5078712 0.07904258
0000b0 54 a8 04 3f 19 a1 cf 3e 29 d2 dd be fb 37 0e 3f
       0.5181935 0.40552595 -0.43324402 0.5555417
0000c0 32 6d c2 be cc c1 7a 3e 01 f7 13 3d 96 3f 45 bf
       -0.37973934 0.2448799 0.036124233 -0.7705015
0000d0 81 67 b0 3e e4 b0 ac 3e 78 7b 78 be 25 5f 2a 3e
       0.34453967 0.33728707 -0.2426585 0.16637857
0000e0 c3 45 be 3e 33 e0 5b 3e ab 8f dc 3d 9e c4 ed 3e
       0.371626 0.21472244 0.1076959 0.4643907
0000f0 11 48 75 be d9 fb e5 3e 07 ae 8c 3e 63 09 ce bd
       -0.23953272 0.44918707 0.27476522 -0.10060384
000100 04 ab e3 be eb 7c b8 be 8a 0a 33 3d 49 3f c6 bb
       -0.44466412 -0.36032805 0.043711223 -0.0060500246
000110 ff 37 68 3e f3 b2 2a 3e 2a 9a c6 3d 37 b4 e1 be
       0.22677611 0.16669826 0.09697373 -0.44082806
000120 ab 31 35 3e 0a ad 5b be fb 68 bc be 91 f5 10 3f
       0.17694728 -0.21452728 -0.36798844 0.56624705
000130 e9 44 b2 3e e5 78 20 3f 7a 85 a4 3e 2d 1a 28 bf
       0.348182 0.6268447 0.32133085 -0.6566494
000140 46 1d 78 bd ec 1b 74 be 1a 87 06 3f 8b c9 6e 3d
       -0.060574792 -0.23838776 0.525499 0.058297675
000150 ed f2 59 bf 42 6e 07 bf a3 4b 16 3d dd 67 16 3e
       -0.851363 -0.52902615 0.036693227 0.14688058
000160 ad cd 92 3e ce 15 ce be 11 7f a0 be a2 c3 41 3e
       0.28672543 -0.4025101 -0.31346944 0.18922284
000170 e6 93 b1 3d 03 b3 a9 bd 94 61 4c bf 70 1c 4d be
       0.086707875 -0.08286097 -0.7983639 -0.2003038
000180 38 1e 95 3e b4 29 07 3f 5c fd 27 3f e2 ad f3 3e
       0.29124618 0.5279801 0.6562097 0.475936
000190 9f fa 7d be 3d 33 a5 3e 12 89 8a 3e 50 50 04 3e
       -0.24802636 0.32265654 0.270577 0.12921262
0001a0 8f 96 17 bf 46 91 79 bf da fb cf 3d b3 77 d7 3e
       -0.5921411 -0.97487295 0.10155459 0.4208351
0001b0 2b 91 2a bf c7 04 04 bc 40 aa f1 3d 52 01 29 bf
       -0.6662776 -0.00805778 0.11800051 -0.6601764
0001c0 4b 8d a1 be fb 22 99 be 66 df 73 3f 7c 3d 3c be
       -0.3155311 -0.299095 0.95262754 -0.1838283
0001d0 fd 7a 04 bd f2 2b 63 3e 46 13 4e be f3 64 79 bd
       -0.032343853 0.22184733 -0.2012454 -0.06088729
0001e0 0c 5f 7d be e8 d5 38 3e 31 22 5a be 3a 50 29 3e
       -0.24743289 0.18050349 -0.21302105 0.1653451
0001f0 f3 e4 44 3f 9b 08 c2 3e 4f 7a 53 3e 8a 36 42 3f
       0.7691185 0.3789719 0.20652126 0.7586447
000200 ec 7f 83 3d 6a 21 34 be c3 01 db 3e 0b a7 06 3f
       0.064208835 -0.17590871 0.42774782 0.5259864
000210 9b 77 6c 3d c5 93 be 3e c1 f1 c0 be d6 b2 36 3d
       0.057731252 0.37222114 -0.37684444 0.044604145
000220 c1 df c2 bd 61 1d 68 3c a0 b3 03 be 19 95 b4 be
       -0.09515334 0.014167161 -0.1286149 -0.35270002
000230 10 0a 61 bd b2 ce 22 bc 6d 86 95 3e e7 48 86 bb
       -0.054941237 -0.009936975 0.2920412 -0.004098046
000240 74 1b 29 bf fb 44 ab 3d 61 6a 1b 3b de 05 51 be
       -0.66057515 0.08362766 0.002371453 -0.20412394
000250 51 16 8b bf 1d d4 62 3d 6d 62 20 3e 72 09 27 bf
       -1.0866185 0.05537807 0.15662546 -0.6524879
000260 45 8c 8e bf 4c 9e 6b bd 3d 37 b2 bd c6 91 99 3e
       -1.1136557 -0.05752401 -0.08701942 0.2999403
000270 6f db 45 3e c3 64 8e be f7 f1 68 3e 7c e3 d6 3d
       0.19321989 -0.2781125 0.22748552 0.10492608
000280 bd 5c 94 3e 16 98 80 3e 28 61 a3 bd fc ef 39 3e
       0.28977004 0.25116032 -0.079775155 0.18157953
000290 61 74 0f be f0 a8 ac 3e 4a 15 8b 3e 7a f3 75 bd
       -0.14009239 0.3372264 0.2716468 -0.06004665
0002a0 f3 c6 f9 3d fb 53 bc 3d 29 52 a5 3e 88 ab 47 bf
       0.1219615 0.091957055 0.32289246 -0.7799611
0002b0 74 26 83 bd 4d 55 1a bf 39 9c c1 3e 47 a1 ac 3d
       -0.06403819 -0.6028641 0.378145 0.08429199
0002c0 db c0 7d 3d 92 27 14 3f a4 88 0e bd 0b 9b 42 be
       0.0619515 0.5787288 -0.03479828 -0.19004457
0002d0 1b 4f a0 3e 2e 4b 0d bf 72 20 00 3f bf 98 e4 3e
       0.31310353 -0.5519284 0.5004951 0.44647786
0002e0 53 23 a9 be fd 7b 57 3f d7 85 2e be 1a 3e a0 3c
       -0.33034763 0.84173566 -0.17043243 0.019560862
0002f0 63 89 30 3f e4 b7 f6 3c 42 60 2d bf e5 eb 11 3e
       0.68959635 0.030116983 -0.67725 0.14250143
000300 06 b5 59 3d 10 2b 2e bf 6f 0f 84 3d 69 36 74 3e
       0.053151153 -0.6803446 0.06448256 0.23848881
000310 0b 44 c0 3d 67 12 69 bd 71 e3 36 bd 34 1a 20 3e
       0.09387978 -0.056902315 -0.0446505 0.15634996
000320 67 30 94 3e cc 11 e2 bd fb df e9 bc c7 8c 18 bf
       0.28943178 -0.11038551 -0.028549185 -0.5958981
000330 8c 09 97 3d ab 36 32 be 89 03 7b be fe 32 81 bd
       0.07374868 -0.17403667 -0.24513067 -0.06308554
000340 ed c1 37 be 36 63 96 3e 05 c7 ce 3d 1e 28 96 3c
       -0.1794507 0.29372567 0.10096554 0.018329676
000350 55 a8 8b bd 33 55 76 be 2b 64 cb be 2a b0 d8 be
       -0.06819216 -0.24055938 -0.3972486 -0.42321903
000360 0b e1 4e bf 2a 8e 33 3e 5a 41 3c 3e aa 0f 55 bd
       -0.8081214 0.175347 0.18384305 -0.05201689
000370 43 e7 cc bd 3b 47 10 be 6d 72 9a be 66 44 c8 bd
       -0.10005047 -0.14089672 -0.30165425 -0.09778671
000380 b6 23 ab 3d 6f 67 90 bf 27 4d ac 3e 92 f3 de bc
       0.08356421 -1.1281565 0.33652613 -0.027215753
000390 e1 15 d1 3d 9c 84 7a be 64 68 04 3c 74 fc 8f 3c
       0.10209251 -0.24464649 0.008081529 0.017576434
0003a0 d4 9c 11 be b7 65 8b be d1 2c 02 3d ba ed bf 3c
       -0.14219981 -0.2722604 0.03178102 0.023428787
0003b0 f1 7e db 3e ab b5 ed bd b2 c7 94 be 15 fb 86 be
       0.42870286 -0.11606916 -0.29058605 -0.26363435
0003c0 bf 34 60 bf 92 56 ea 3d 45 61 7f bc 33 2e 1c bf
       -0.87580484 0.11442293 -0.015587156 -0.61007994
0003d0 b5 2a 43 bf 5e 73 72 ba 9a 84 4e 3f 08 89 04 bd
       -0.7623704 -0.00092487584 0.80671084 -0.032357246
0003e0 f6 36 71 3e 19 c7 c4 be 2c b1 8a 3e e5 98 c8 3d
       0.23556122 -0.3843315 0.27088296 0.09794787
0003f0 a0 83 fe be 65 64 03 3e 86 20 15 bf 17 1d 57 3f
       -0.49709797 0.12831266 -0.5825275 0.8402876

layers.2.h_bias f4 [16]
000000 84 3d 2d bc 18 4b bf bd a4 19 02 bf b0 7d f3 bd
       -0.0105737485 -0.09340495 -0.50820374 -0.11889207
000010 6d 1f 28 be 6f 95 0e be 74 d5 d9 bd 0e 1b 5f 3d
       -0.16418238 -0.13924192 -0.10636416 0.05446916
000020 25 3b 98 be 4d 50 2c bb ba f4 6c bd bb 11 44 3d
       -0.29732624 -0.002629298 -0.057850577 0.04786847
000030 c2 3f a6 be 1a 8f 05 3d 73 aa 06 be 3d 40 19 be
       -0.32470518 0.032607175 -0.13150959 -0.14965911

layers.3.weight f4 [4, 16, 4]
000000 95 67 04 3e 25 e7 06 3f 3b d8 09 3f 21 47 1f bf
       0.12930138 0.5269645 0.53845567 -0.6221791
000010 13 cb d9 be 23 0c be be 3a b1 03 3f ad 2a fe 3d
       -0.42537746 -0.37118635 0.514423 0.124104835
000020 0b ec 46 be a2 cd 6b be 59 24 43 3e c5 99 87 3e
       -0.19425981 -0.23027661 0.19056834 0.26484504
000030 22 33 6a be 3c 3d b0 3e 5a ea 1f 3e 3e 62 fc bb
       -0.22871068 0.34421718 0.15616742 -0.007702141
000040 34 99 ab 3d 88 cd 28 bf 92 19 19 3e 29 fc 24 3d
       0.083788306 -0.65938616 0.1495116 0.04027954
000050 18 a9 45 3e d7 f0 db 3e 5a ea 98 3d dc 59 29 bf
       0.19302785 0.42957184 0.07466574 -0.6615274
000060 9d 40 98 be 49 5e ff 3d 39 dc 22 bf fa 8e 30 3f
       -0.29736796 0.12469155 -0.63617283 0.68968165
000070 dd df 80 bd 71 66 2e be 3e 16 2e 3f 74 cc 9d bd
       -0.062926985 -0.17031266 0.6800269 -0.07705012
000080 7b 1a b4 be 6c 30 bc 3e c2 9f d1 be 10 58 5f bf
       -0.35176453 0.36755693 -0.40942198 -0.8724375
000090 e3 e4 eb bd e0 4a c0 bd d2 76 b6 3e 5e f1 20 be
       -0.11518266 -0.09389281 0.35637528 -0.15717074
0000a0 51 6d 99 bf 8d c3 ca be 1c 72 58 3e 90 4f 62 bd
       -1.1986486 -0.39602318 0.2113728 -0.055251658
0000b0 d1 a8 99 3a 0d c5 47 be f7 8c cb bb 2f c4 45 bf
       0.0011723285 -0.19508763 -0.0062118727 -0.7725248
0000c0 1e e9 de 3c 29 91 f6 3e 07 ae 45 3e 95 49 2d 3f
       0.027210768 0.48157623 0.19304667 0.676904
0000d0 7b be 59 be a8 bf 00 3e d3 03 99 3e bd 88 d3 be
       -0.21264069 0.12573111 0.2988573 -0.4131526
0000e0 cf aa fb 3a 1b 75 6f 3d 76 9f 57 bf da 4b 9d 3e
       0.0019200685 0.05846129 -0.84227693 0.30721933
0000f0 81 30 cf 3e 6f 6c ba 3d 02 14 00 3f 80 96 8b 3e
       0.40466693 0.09102713 0.5003053 0.2726326
000100 44 40 c7 3e e6 1f f0 be c0 53 30 3f 21 94 a2 bf
       0.38916218 -0.46899337 0.6887779 -1.2701455
000110 12 ad 7f 3f 2e 97 3b 3f 3a 92 85 be 98 2e 3c 3e
       0.9987346 0.73277557 -0.26088125 0.18377149
000120 ee 89 66 bf a2 76 1e bd 49 dd cf bc 14 6d 8f be
       -0.90054214 -0.038687356 -0.025374072 -0.28012908
000130 07 ff ee be ff e9 07 bf 45 08 b6 3e cd d6 2d bf
       -0.46678945 -0.53091425 0.35553184 -0.67905885
000140 51 91 52 bd 4d ff 88 bc df 6c 0b bf 13 45 b4 3d
       -0.051408116 -0.0167233 -0.54463 0.08802237
000150 67 e0 53 be c8 f0 de be 64 4e 88 3e c1 10 0b bf
       -0.20691071 -0.43543077 0.26622307 -0.5432244
000160 b7 87 2e 3e 47 b6 60 3e a2 81 79 bc 8c 7f 26 bd
       0.17043959 0.21944533 -0.015228661 -0.040648982
000170 c9 e8 34 3f b9 25 ff 3e 39 bb f6 3d 82 11 e0 3d
       0.706677 0.49833468 0.12047429 0.10940839
000180 33 c1 58 bf 07 45 f2 3d 66 60 1b 3f 55 36 1a 3e
       -0.846698 0.11829572 0.6069397 0.15059789
000190 b3 e2 5e be 5e f2 46 bf d6 8d 1f 3f 2a 5c 00 3d
       -0.21766166 -0.7771357 0.623258 0.031337894
0001a0 d5 e7 5a 3d 57 72 2a 3d 5b 50 91 bd 4c 44 08 3e
       0.05344375 0.04161295 -0.07095405 0.13307303
0001b0 c0 33 14 be fb cf 87 3e 05 27 20 be b7 37 10 3f
       -0.14472866 0.26525864 -0.15639885 0.56335014
0001c0 a7 bf 37 3d 8c e4 cd be 43 05 4a 3d 1b 8a db bc
       0.04486051 -0.4021343 0.049321424 -0.026799252
0001d0 41 d9 ae 3d ac 4b f7 3e cc 8d bd 3d eb 58 13 be
       0.08537532 0.4829992 0.09255561 -0.14389388
0001e0 e4 41 5a 3e 83 a0 b4 be 4c a4 b9 bd f1 42 f1 bd
       0.21314198 -0.3527871 -0.0906454 -0.11780346
0001f0 a4 ef fd bd 0e df 81 bd 87 4e 5d be 8e 2f cd 3e
       -0.123992234 -0.063413724 -0.21611987 0.40075344
000200 0a ed f2 3e 2a 90 aa 3e 8c 15 a0 3d 20 81 a3 3d
       0.4744647 0.33313113 0.0781661 0.07983613
000210 12 8e 7a be b2 a7 36 3e 26 da af be 82 a8 2f 3e
       -0.24468258 0.17837408 -0.34346122 0.17154124
000220 bc 4f af be b4 78 4d bf 09 7c d8 3d e3 63 d9 be
       -0.3424052 -0.80262303 0.10570533 -0.4245902
000230 24 ff c3 3e 76 d1 13 3f ee 83 67 bf 28 56 3c 3c
       0.38280594 0.5774149 -0.90435684 0.011495151
000240 c1 18 d9 3e 8f e4 90 be ea 29 02 3e 76 e5 5b 3c
       0.42401698 -0.28299376 0.12711301 0.013421407
000250 01 c2 85 3e 7c 47 0b bf bf 5a 83 3e c9 3c 40 bf
       0.26124576 -0.5440595 0.2565517 -0.7509275
000260 f6 ea 09 bf 1b 40 27 bd c5 8f bc 3e 0e aa ed 3e
       -0.53874147 -0.04083262 0.36828437 0.46418804
000270 07 b9 87 be bb 02 64 3e a1 f6 d9 3f 03 46 2b 3f
       -0.26508352 0.22266667 1.702839 0.66903704
000280 bb 1e 5c 3e e2 0f e4 3e 5a 44 93 bf 9f 6f 18 3d
       0.21496098 0.44543368 -1.1505234 0.037215825
000290 5d 81 8c bd 33 71 81 bf 2c bd 02 3f 79 a9 5f bf
       -0.068606116 -1.0112671 0.51069903 -0.8736797
0002a0 2c 91 d8 bd ea 1d b8 3e fc f6 5b bd 6b 90 99 be
       -0.10574564 0.35960323 -0.05370234 -0.29992995
0002b0 18 77 d3 3d e3 ea 8b 3e 2b 0f de be 95 2b 48 3e
       0.1032545 0.27327642 -0.43370947 0.19547875
0002c0 c7 a7 2e bd 88 06 6f 3c ab ed b4 be 3e 2f de 3e
       -0.042640474 0.0145889595 -0.35337576 0.43395418
0002d0 72 16 c2 be 27 4a a4 be ee e7 0e 3f fb 4a 31 bf
       -0.3790775 -0.32087824 0.55822647 -0.69255036
0002e0 97 ad 70 bd 0a 9e 90 bc de d4 31 be c8 5a e8 bd
       -0.0587593 -0.017653484 -0.17366359 -0.1134544
0002f0 61 ae 98 3b 3e 0e 10 3f d9 04 82 3e 88 56 07 3e
       0.0046594595 0.5627173 0.25394323 0.13216603
000300 88 07 4a 3d c8 2d a8 be 28 a2 c3 b9 b1 a1 5f 3e
       0.04932359 -0.32847428 -0.00037314114 0.21839024
000310 9b 49 e0 bf 33 e2 27 bf 83 96 e6 3e 99 0a be bf
       -1.7522463 -0.6557953 0.45036706 -1.4846984
000320 26 ff 4d 3d c6 b8 5d 3e 1e 2e 1b bf 81 7d cf 3e
       0.050292157 0.21652517 -0.60617244 0.4052544
000330 56 f9 d9 bc a5 70 80 3d 01 0f 2d bf d0 fc eb bc
       -0.02660815 0.06271485 -0.6760102 -0.028807074
000340 44 c3 e9 be ab c7 59 3f 21 3d 35 3d 4e f8 c9 3e
       -0.45656788 0.85070294 0.04424775 0.39447254
000350 e0 15 65 bf bc f5 71 3e b1 b5 13 3e 75 5e e9 3e
       -0.89486504 0.23628896 0.14424779 0.45579877
000360 de 39 92 bd 7b 1e de 3e 3e d7 92 be 7a 76 38 3d
       -0.071399435 0.4338263 -0.28679842 0.045034863
000370 5a cc 8b 3e ea 96 a2 bf 5d 35 da bc a4 e9 0b bf
       0.27304345 -1.2702305 -0.026636774 -0.5465338
000380 ce e6 f6 be fc 1d 04 3e ae c4 79 3e fe 05 2f be
       -0.48222965 0.12902063 0.24391434 -0.1709213
000390 a6 e1 48 bf 21 d6 47 bf f9 6b 88 3f f4 b8 a5 be
       -0.7846931 -0.7806111 1.0657951 -0.3236767
0003a0 37 0d 52 3f 5c cb b0 be e4 29 a3 3e 59 b8 34 bf
       0.82051414 -0.3453015 0.31867898 -0.7059379
0003b0 71 4a 9d 3e 09 14 8c 3d 84 60 19 3f 41 04 9f 3e
       0.30720857 0.06839759 0.59912896 0.31057933
0003c0 47 f6 99 be b4 27 33 bf 90 50 2e bd 7e f7 b5 bf
       -0.30070707 -0.6998246 -0.0425573 -1.4216154
0003d0 ef ef 34 bf a6 e0 83 3e 5d 79 bb be 83 1a 3e be
       -0.7067861 0.2575733 -0.3661603 -0.18564801
0003e0 55 16 4f bd 50 27 9c 3e a2 54 f2 3d 5a 53 b5 be
       -0.050558407 0.30498743 0.11832549 -0.35415155
0003f0 77 49 1d bd f9 e0 85 bf f4 08 9d be 0f 57 93 bf
       -0.03840014 -1.0459281 -0.30670893 -1.1510943

layers.3.h_bias f4 [4]
000000 39 d2 77 3e ba f4 d0 bd ae ba 71 3e 2b 93 be 3c
       0.24201287 -0.10202928 0.23606369 0.023263535

attn.attn_l f4 [1, 1, 4]
000000 ab 9f ee bf 85 bd 98 3f 5c 1b e4 be 68 81 a7 3f
       -1.8642477 1.1932837 -0.44552124 1.3086367

attn.attn_r f4 [1, 1, 4]
000000 b4 98 59 3f 41 7a b9 3f 3c 9c 06 c0 2a dd ad bf
       0.8499863 1.4490434 -2.1032858 -1.3583119

attn.fc.weight f4 [4, 4]
000000 c1 fb 69 3e 72 ef ce 3c 5a 1d b8 3e 67 df e6 3e
       0.22849943 0.02526066 0.35959893 0.45092317
000010 4b 08 3c 3f 29 88 00 3f 5b eb 7a bf f5 36 51 3f
       0.73450154 0.50207764 -0.98015374 0.8172448
000020 75 50 ee bf 52 70 d4 be 63 29 bb bd 1a 27 ba bb
       -1.8618304 -0.41491944 -0.09138753 -0.005680931
000030 33 eb 1e 3f 72 0a d7 be 89 91 f0 3e 8d 9d 45 bf
       0.62077636 -0.42000157 0.46986035 -0.7719353

dense.weight f4 [1, 4]
000000 19 91 04 3d 5c c4 97 be eb ca 9c 3e 65 f9 c9 3e
       0.03236494 -0.29641998 0.30623564 0.39448085
