saved_model_w/herg_lowd.pth (torch_old, 15637 bytes, 12 tensors)

layers.0.weight f4 [4, 14, 16]
000000 6a 8f 7d bc 3e d0 98 3e 0f d2 3c 3c 1a 7f 76 3e
       -0.015476087 0.29846376 0.011524691 0.24071923
000010 7d c2 81 3e e5 3c ba 3e 6a f2 5d bc e6 fd 7b 3e
       0.25343695 0.36374584 -0.013546566 0.24608573
000020 b8 d0 1f 3e ce 53 15 3e f3 5f 60 be a8 28 4f be
       0.15606964 0.1458275 -0.21911602 -0.20230353
000030 eb 7e d2 3d b0 2f 85 bd 46 19 c8 be 5b 7b 1c 3e
       0.10278114 -0.06503236 -0.39081782 0.15281431
000040 c6 4c d2 3e e4 0f 7c 3e 2a d5 c5 be b2 c4 b2 3e
       0.41074198 0.24615437 -0.38639194 0.34915692
000050 0f aa 12 3f 73 42 fb 3e 7f 06 59 bf ae 37 56 be
       0.5729074 0.49074134 -0.8477554 -0.20919678
000060 f3 03 2d 3f 2f 67 54 bf 5f 5e 89 bf 7a 2a e4 be
       0.6758415 -0.82969946 -1.0731925 -0.44563657
000070 d9 04 b3 3d a9 c9 33 bf f5 15 7d bf 08 64 db bf
       0.08741159 -0.70229584 -0.9886163 -1.7139902
000080 20 c8 9f 3d b0 9a e3 bc b8 8c 94 3d 5a 7e 96 bd
       0.07801843 -0.027783722 0.072534025 -0.073483184
000090 c3 19 d9 bd c8 c5 11 3d 7c fa 03 3d a8 53 ce 3d
       -0.10600617 0.03558901 0.032221302 0.1007455
0000a0 8c 21 f9 bd bc 1f 11 3e 7c ff 11 bd 6e ed 48 be
       -0.12164602 0.14172262 -0.03564404 -0.19621822
0000b0 f4 f8 88 3d fe de 26 3e a8 a9 3e 3d 1c 8a bd bd
       0.06688109 0.16296002 0.046548516 -0.09254858
0000c0 1d 33 b0 3f a3 e3 be be 3b c1 14 40 79 95 12 40
       1.3765599 -0.37283048 2.3242939 2.290373
0000d0 23 ce cc 3e 24 17 20 3f bb 98 b2 be 17 8e f4 3e
       0.4000102 0.6253531 -0.3488215 0.47764656
0000e0 ee a0 92 bf 6b 17 22 40 56 bb 62 3f d0 67 a5 bf
       -1.1455362 2.5326793 0.885671 -1.2922306
0000f0 f5 a4 16 40 42 93 de 3f 7d 65 b0 3e 09 fb 69 3f
       2.3538182 1.738869 0.3445243 0.91398674
000100 73 28 fe bf ca 6c d8 bd 76 a9 82 3d 07 72 81 3e
       -1.9856094 -0.10567625 0.06379978 0.25282308
000110 5e 45 a2 bf d0 19 ba 3e 16 02 1d 40 95 92 0f 40
       -1.2677419 0.36347818 2.4532523 2.2433217
000120 70 f4 3d bf fc 63 33 3f a8 7e 82 3f 8e 69 03 40
       -0.7420111 0.7007444 1.0194902 2.0533175
000130 28 ba ff 3f 82 8b bb 3b dc a1 44 3f bd a3 86 bf
       1.9978685 0.0057234177 0.7680948 -1.0518719
000140 d2 fd 38 40 2c fb 8d bf 48 06 e3 be 3e 44 f9 3f
       2.890492 -1.1092277 -0.4434073 1.9473951
000150 f5 6f 26 bf b2 47 b2 40 40 4b 8a bf 6b 58 ae bf
       -0.6501458 5.571252 -1.0804214 -1.3620733
000160 e4 c2 03 bf 04 7e 0f 40 c0 32 02 bc ac cb 64 bf
       -0.51469254 2.2420664 -0.00794667 -0.8937328
000170 86 81 13 40 64 d4 0d bf a1 6f 06 bf 26 c6 1e bf
       2.3047805 -0.5540221 -0.5251408 -0.620211
000180 85 23 c1 3e 9f cc fd 3e 70 10 06 be 04 1d 9c 3e
       0.37722412 0.49570176 -0.13092208 0.30490887
000190 e1 57 b0 bf a6 b1 18 bf 52 9d 2e bd 48 1a 9b be
       -1.3776819 -0.5964607 -0.0426305 -0.30293489
0001a0 f3 77 b8 be 3c 20 c8 3e b7 d6 89 3e 18 4b 40 bf
       -0.36029014 0.39087093 0.26921627 -0.75114584
0001b0 9e 3b 9c be ba b7 3a bf a5 a0 41 bf 61 0a 0f 3f
       -0.30514234 -0.72936594 -0.7563575 0.5587521
0001c0 e5 2e 70 bf 74 47 98 3e 4a 4a 13 3f d2 b6 dd 3b
       -0.93821555 0.29742014 0.5753523 0.0067661786
0001d0 dd 6f 26 3f 5f 35 11 c0 f9 35 b2 3e 85 ed 6f 3f
       0.6501444 -2.2688825 0.34806803 0.937218
0001e0 35 3b d3 3e 46 bd 16 c0 eb 3a 3b bd 0b 0f 2c 3f
       0.4125611 -2.3553023 -0.045710485 0.67210454
0001f0 98 3f 6c 3e cc 36 eb 3e e0 41 04 bf b8 b3 95 bf
       0.23071134 0.45940244 -0.5166302 -1.1695471
000200 9e ca a4 3e 9b 00 d4 3e 4e ac 46 c0 3a f8 a9 bc
       0.32185835 0.41406712 -3.1042666 -0.020748246
000210 fe 90 3a 3f 74 b1 d2 3f 77 32 13 3f 11 81 37 c0
       0.7287749 1.6460404 0.5749888 -2.8672526
000220 3a b0 15 3f e2 c5 ca bf 62 df b6 bf c3 c5 18 bf
       0.58472025 -1.5841639 -1.4286921 -0.5967676
000230 7f a6 93 3f 52 3e df 3e 0e c1 48 3f ae 52 c1 bf
       1.1535186 0.43602234 0.7841958 -1.5103357
000240 9d c5 3f be b3 25 fe be 71 b1 7d 3d 0d 74 d7 3e
       -0.18727727 -0.49638137 0.0619368 0.42080727
000250 0a c7 53 3f 37 39 ed 3d 7a c1 9a bd 23 04 4f 3e
       0.82725585 0.115831785 -0.07556434 0.20216422
000260 6a ee 1a bf 4a 0e ca 3f 5b f8 4f bc 93 4e b8 bf
       -0.6052004 1.5785611 -0.01269349 -1.4398979
000270 38 37 04 bd b1 1c 6c bd d9 6a a3 38 3b b1 04 3f
       -0.032279223 -0.05764455 7.7923476e-05 0.5183293
000280 e9 da cf be 5e b4 19 3e 6e 39 6e 3e cd 18 8a bd
       -0.40596703 0.15010211 0.23264095 -0.067430116
000290 59 17 81 bf 67 d2 6c 3e 49 97 ce bf a0 5f 43 be
       -1.008525 0.23127137 -1.6139919 -0.19079447
0002a0 65 1a 08 bf 15 51 48 c0 7c f8 99 bf 43 56 b6 bf
       -0.53165275 -3.1299489 -1.2028956 -1.4245075
0002b0 07 28 13 3f 28 63 d3 bf 8a b8 7f bf 69 2a 0c bf
       0.5748295 -1.6514635 -0.9989096 -0.5475221
0002c0 0f a5 ad be 43 e3 6d bf 0d 29 27 3e e8 92 3c 3f
       -0.33914992 -0.929249 0.16324253 0.7366166
0002d0 fd dd d8 3d 3e d5 86 3f 13 f7 a9 3d f8 d2 d0 3e
       0.10589216 1.0533826 0.08299079 0.40785956
0002e0 91 84 80 be 57 3c c4 bf f3 a9 8d 3e ea a2 17 be
       -0.2510114 -1.5330914 0.27668723 -0.1480824
0002f0 e4 f6 33 bf aa 62 83 be 3d db 86 bf d8 b3 87 3f
       -0.702986 -0.25661212 -1.0535656 1.0601759
000300 16 8d b2 bf ff 17 08 c0 d7 5e 7e 3f af ef c2 3e
       -1.3949306 -2.1264646 0.99363464 0.3807349
000310 6b 76 59 c0 68 d7 7a 3f d8 af c5 bf 23 ec 62 be
       -3.3978527 0.97984934 -1.5444288 -0.22160392
000320 75 67 2b 3e c3 74 8e 3f 78 9d 48 3f 18 65 c7 be
       0.16738684 1.1129383 0.7836528 -0.38944316
000330 2d 5d 6c be e8 b0 ac 3f d7 03 80 bf 45 6d 21 c0
       -0.23082419 1.3491488 -1.0001172 -2.5222943
000340 98 7f fc be d0 12 a5 3e 70 c4 68 3e ad 5d 04 bf
       -0.49316096 0.32240915 0.22731185 -0.5170544
000350 a8 e8 68 3f 62 d3 5e 3e 30 82 5b 3f 55 06 91 3e
       0.90980005 0.21760324 0.85745525 0.28325143
000360 99 03 32 bf 64 ac 5a be f7 0d 88 3f 84 56 14 bf
       -0.6953674 -0.21354824 1.0629262 -0.5794451
000370 8b 04 12 3f 02 12 02 3f 35 51 d0 3e c0 63 b9 3f
       0.5703818 0.5080873 0.40686956 1.4483566
000380 77 f5 3f 3f fa 6c 40 be 20 89 49 be 5d 4c a9 3e
       0.74983925 -0.18791571 -0.19681215 0.33066073
000390 8d 87 fb bc 27 3d 96 be 78 05 1d bf 26 56 58 3e
       -0.030704284 -0.2934353 -0.6133647 0.21126613
0003a0 b2 27 1b bf 9c b2 3c 3e 09 ad 44 3e d8 a7 f1 3d
       -0.60607445 0.18427509 0.19206633 0.11799592
0003b0 86 b5 e3 3e 3d bb 20 3f 91 f9 a3 be 66 6f 4d bf
       0.4447443 0.627857 -0.32026342 -0.80248106
0003c0 d3 4a 49 bf 2d f6 96 bf 44 05 a6 3e af 27 ab be
       -0.786298 -1.1793877 0.32425892 -0.33428714
0003d0 49 18 a3 3f fe e2 4c be 1c d7 ef bf 94 15 0e 3e
       1.2741786 -0.20008466 -1.8737521 0.13875419
0003e0 57 f6 ee 3e 86 ad 70 bf 67 fb d3 3e 8c f4 fe be
       0.46672317 -0.94014776 0.41402742 -0.4979595
0003f0 e7 e8 4a bf dc 99 95 bf 6d be 2b 3f 82 37 b2 3e
       -0.7926163 -1.1687579 0.6708744 0.34807974

layers.0.h_bias f4 [16]
000000 8c ab 72 3e 2a 0e 10 bf f4 8a 29 be f0 67 75 bf
       0.23698252 -0.5627161 -0.16556913 -0.9586172
000010 a8 38 06 be 58 4a ae bc 91 06 c2 be 4a 51 e6 bc
       -0.1310755 -0.021275684 -0.37895635 -0.028114934
000020 18 c6 55 bf 12 7b 80 be 88 8b 98 be 27 e0 5f 3e
       -0.8350539 -0.25093895 -0.29793954 0.21862851
000030 91 f2 bf 3e 97 84 b5 3d 99 89 43 bf fe d8 1c 3e
       0.3748975 0.0886318 -0.7638183 0.15317151

layers.1.weight f4 [4, 16, 16]
000000 95 0b ee 3e 80 0e 64 3d e9 a7 f2 3e 91 28 4f be
       0.4649321 0.05567789 0.4739373 -0.20230319
000010 8f ff bb bd 4e 7b ba bd e0 e4 1e bf 3f 82 3d be
       -0.09179603 -0.0910555 -0.62067986 -0.18506716
000020 29 44 d0 bd b4 b9 97 bd da 72 b4 be c7 b7 17 bf
       -0.101692505 -0.07408467 -0.35243875 -0.59264797
000030 fb d8 29 bd cf 7f ec 3e 7a 69 9e be 07 04 0f c0
       -0.041466694 0.4619126 -0.30939847 -2.2346208
000040 86 4f 42 be 2f 2e 3b bf 12 6e 01 c0 62 df 83 3e
       -0.18975648 -0.73117346 -2.0223432 0.25756365
000050 4f ba bd bd 46 0e bf be 06 e9 08 bf 9f 43 3e bc
       -0.09264051 -0.37315577 -0.53480566 -0.011612802
000060 97 1a 41 3d 3b e1 2f be e7 2c ca bd e7 34 2b be
       0.0471445 -0.17175762 -0.09871846 -0.167194
000070 c2 a0 67 3e 2c 54 a7 be e0 d5 81 3e 47 7b 2e be
       0.22619918 -0.32681406 0.25358486 -0.17039214
000080 59 a4 06 bf bd 5f de 3d b0 33 bf 3e eb b9 4e 3e
       -0.52594525 0.108581044 0.37344122 0.2018811
000090 e9 47 ec be be e1 cc be 3f 2a ad 3e 26 d2 7b be
       -0.46148613 -0.40015978 0.33821294 -0.24591884
0000a0 0b 65 f0 3e 25 1f d8 bd 91 98 15 3f da 6a 1f 3f
       0.4695209 -0.10552815 0.5843592 0.6227242
0000b0 43 8e 8d 3e 8c 16 30 be d1 f0 90 3e 62 9e 37 3f
       0.276476 -0.17196101 0.28308728 0.7172605
0000c0 d8 ac bd 3e fd 74 76 3f be a3 90 bf 0c 86 02 3f
       0.37045932 0.9627226 -1.129997 0.5098579
0000d0 c2 76 21 bf 40 19 0c 3f 89 dc 8b be d0 96 f2 be
       -0.63071835 0.5472603 -0.27316692 -0.47380686
0000e0 37 b8 f5 3e 33 e0 02 3e c2 c0 ec be 14 c7 bc 3e
       0.47992107 0.12780838 -0.46240813 0.36870635
0000f0 99 2d 75 3e fc 52 e4 3e 3e 56 54 be 24 75 3d 3e
       0.23943175 0.44594562 -0.20736024 0.18501717
000100 4c f1 1a bf bd bb d2 bf 20 7f b8 3e ac cb 48 c0
       -0.6052444 -1.6463543 0.3603449 -3.1374311
000110 a1 31 11 bf bd 6a 51 be f1 16 f7 3e 96 87 7c 3f
       -0.5671635 -0.20450874 0.4825969 0.9864439
000120 73 5d a5 3c 3a 99 31 3f 6f 8f 8d 3e e6 75 94 3e
       0.020186162 0.6937443 0.27648494 0.289962
000130 78 3f 0c c0 24 d2 10 be e0 6e 0d bf 1f 4b db 3c
       -2.1913738 -0.14142662 -0.55247307 0.026769219
000140 c6 b5 e2 be 75 c5 18 3f 90 28 a8 bf 48 8b d4 bd
       -0.44279307 0.59676296 -1.3137379 -0.10378128
000150 b2 76 d3 3e 96 08 3b 3f 63 03 c9 bd da fe e5 3e
       0.41301495 0.73059976 -0.09815099 0.44921
000160 80 67 21 be 3d 91 fa be 83 fe f9 be d5 01 6d bf
       -0.15762138 -0.48938933 -0.4882699 -0.9258092
000170 ea 5d 74 3f 87 17 05 bf ab 2d 07 bd 72 a5 65 3e
       0.954558 -0.51989025 -0.033002537 0.22426394
000180 09 15 8f bf a4 b9 37 bf ab 31 04 c0 de dc c6 bf
       -1.1178294 -0.7176764 -2.0655315 -1.5536153
000190 7e 8c 16 3f aa 8b 4c 3e 58 f9 5e be f6 47 f5 bc
       0.58808124 0.19975153 -0.21774805 -0.02994154
0001a0 b8 8d 79 3f c0 a3 12 3f a9 7e 46 bf b0 97 36 3f
       0.9748187 0.5728111 -0.7753702 0.71325207
0001b0 85 82 5c bf 53 a3 84 3c 26 db 21 bd 79 80 83 3f
       -0.86136657 0.01619116 -0.039515637 1.0273582
0001c0 ef 56 05 bf 7e ce 79 bf 83 90 2b bf 46 d9 83 3d
       -0.52085775 -0.9758071 -0.6701738 0.06437926
0001d0 8f 59 bf bf 46 69 f7 3d ac 1e 27 3e 82 bf 77 3d
       -1.4949206 0.12080626 0.16320294 0.06048537
0001e0 fb 8e a2 be a8 10 eb bc 6d 27 2a 3f 24 e3 4f be
       -0.3174971 -0.028694466 0.6646641 -0.20301491
0001f0 85 71 b8 3c 26 7e 08 3e 1e f1 00 3f 66 26 3f bf
       0.022515068 0.13329372 0.50367916 -0.74667966
000200 e9 66 4b bf 74 bb a2 be 5d cb 96 bc 62 90 78 3f
       -0.79453903 -0.3178364 -0.018407518 0.9709531
000210 c6 c9 13 3f 70 ab 37 bf fc ed fb 3e f3 0f 39 3f
       0.57729757 -0.7174597 0.49205005 0.7228996
000220 41 52 aa 3e 06 37 01 3f 2d a0 e3 be 4f 10 15 3f
       0.3326588 0.50474584 -0.44458142 0.5822801
000230 40 5a 5a be 28 59 91 be f6 f5 7d bf 0b a1 93 3f
       -0.2132349 -0.28388333 -0.9920343 1.1533521
000240 16 3e 7a 3e c6 17 a9 3e 9f b8 34 3f 0c 0c bd be
       0.24437746 0.3302595 0.7059421 -0.36923254
000250 34 d0 fd 3d 88 fa 4f 3f fb df de be 37 cd 1e bf
       0.12393227 0.81241655 -0.4353026 -0.62031883
000260 7d 99 a8 bd 20 1b 43 bf da 4a 62 be a3 7e 70 3f
       -0.082324006 -0.76213264 -0.22098866 0.9394323
000270 a9 28 96 3c 35 dd fd bc 47 dc 18 3f 50 da 35 3f
       0.018329935 -0.030989269 0.59711117 0.71036243
000280 50 7c 98 3d 92 ee 82 3f 38 97 8b 3e ad b1 65 3f
       0.07445586 1.0229056 0.27263808 0.89724237
000290 4a 4c 26 bf 33 a8 5a 3e cd 1f 86 bf 45 c2 0b 40
       -0.6496016 0.21353225 -1.0478455 2.1837323
0002a0 f5 a0 2d be 40 26 f7 be 6d df c0 3d 06 b3 0e be
       -0.16955931 -0.4827137 0.09417615 -0.1393548
0002b0 7f 4e b4 bd 23 19 0b 3f 61 64 20 3f b1 7c 12 be
       -0.088040344 0.5433523 0.62653166 -0.14305378
0002c0 3d 58 32 c0 ce 88 e1 bc bb be e6 be 14 0e 8f bf
       -2.7866356 -0.027531054 -0.4506739 -1.1176171
0002d0 03 1a 1e 3e 23 e3 3e bf 16 4c 27 be b8 9c 67 3d
       0.1543961 -0.74565333 -0.16337618 0.056545943
0002e0 06 33 5e 3f ae e3 30 3f 3f 41 d9 be eb be 19 be
       0.86796606 0.6909741 -0.4243259 -0.15014236
0002f0 12 97 d5 bd 63 e5 1f bf 77 1c b2 3e 8b 3e 51 3f
       -0.10429205 -0.6245939 0.34787342 0.8173606
000300 6c 9e 54 3e 5d c0 0d be f6 67 bb be 64 9d d4 3d
       0.20763558 -0.13842912 -0.36602753 0.103815824
000310 97 ab 03 bf 5c 83 24 3f 45 09 cc be ac c2 01 be
       -0.514337 0.6426294 -0.39850822 -0.12671918
000320 d9 00 93 be 8c 24 17 bf 02 16 0d 3e 64 1c 20 bf
       -0.28711584 -0.5904014 0.13777927 -0.6254332
000330 14 2c 94 3e a3 b0 5d 3e 71 6c b6 3d 67 f9 c2 bf
       0.2893988 0.21649413 0.08907402 -1.5232362
000340 1c e5 e9 bf 5e a6 f0 bb 3a ca 8c 3d b8 bd 01 bf
       -1.8273044 -0.0073440513 0.06874509 -0.5068011
000350 9c 21 4c 3f fd 6f 2d 3f 01 5f f4 bd 4f 42 93 be
       0.79738784 0.67749006 -0.11932183 -0.28761527
000360 b3 ca 94 bf 49 26 20 3f 94 02 fa bf c1 71 5a be
       -1.1624359 0.6255842 -1.9532037 -0.21332456
000370 5d 03 0a 3e ac 0c ac 3f cf 58 4c 3e 36 6a 3e bf
       0.13477845 1.3441367 0.19955753 -0.74380815
000380 06 30 e4 3f a8 e2 a9 bf 76 47 58 bf 36 35 e4 bf
       1.7827156 -1.3272295 -0.8448404 -1.7828739
000390 49 ad d6 be 11 9f 79 bf 0c 11 25 3f 4c 71 62 3f
       -0.4192908 -0.9750834 0.64479136 0.8845413
0003a0 94 bb ba be 13 fe 1d bc d5 3c 4a 3f 71 d2 2c bf
       -0.36471236 -0.009643096 0.7899907 -0.6750861
0003b0 f9 2d 00 c0 a9 5d 92 bf 7f 18 e5 3e 1d a5 81 3f
       -2.002806 -1.1434833 0.44745252 1.0128514
0003c0 04 85 d7 3e ed e7 02 3d c9 36 1f bf 37 a6 9d 3c
       0.4209367 0.031959463 -0.6219297 0.019244296
0003d0 6a 59 c8 be 04 2c 32 bf c5 3c 44 bf c5 20 65 bf
       -0.39130718 -0.6959841 -0.76655227 -0.8950313
0003e0 64 49 9d 3e 15 99 15 bc b3 b5 be bd 63 3a c9 bf
       0.30720055 -0.009130736 -0.09312 -1.5720943
0003f0 6b ea ad be d9 43 d3 3e 2c c1 fe 3e 54 47 c3 bf
       -0.3396791 0.412627 0.49756753 -1.5256143

layers.1.h_bias f4 [16]
000000 54 d5 bd 3e 1d cb e0 be a8 b4 27 3e e7 4e b8 bc
       0.3707682 -0.43904963 0.16377509 -0.022498561
000010 4f 8b ae 3d 7c b7 2f bf bc f7 d8 3f 72 61 d3 be
       0.08522665 -0.6863935 1.6950603 -0.41285282
000020 64 42 90 be e2 24 9b be b5 d1 67 3e 44 39 29 bd
       -0.28175652 -0.30301577 0.2263859 -0.04131438
000030 91 6c be be e1 cb 15 be 81 6c 4a bf f5 33 99 bf
       -0.37192205 -0.14628555 -0.79071814 -1.1968981

layers.2.weight f4 [4, 16, 16]
000000 fc aa e4 bf 3d 84 5a be e4 25 04 be 84 17 f6 be
       -1.786468 -0.21339507 -0.12905079 -0.48064816
000010 fa 2f 8d 3e b8 77 e9 3d fe c6 bc 3e 99 ef ca bf
       0.27575666 0.11399788 0.3687057 -1.5854369
000020 7e bb 64 3e 01 b4 15 c0 94 ab a7 bf 53 fd d8 bb
       0.22337148 -2.3391116 -1.3099236 -0.0066219955
000030 a9 2f ed bf b8 a7 30 be fc 50 2f bd a4 3d ec 3e
       -1.853017 -0.1725148 -0.042801842 0.46140778
000040 17 58 05 bf 93 38 1a 3f 0b 39 82 bf ce ca 96 bc
       -0.5208754 0.60242575 -1.0173658 -0.018407252
000050 8f b4 b3 3e 88 52 fa be d9 8a 61 3f 7b 00 20 bf
       0.35098693 -0.4889109 0.8810249 -0.62500733
000060 bc 61 02 3e b1 5c d4 bf 72 e8 fe 3c 8c 2b 83 be
       0.12732595 -1.6590787 0.031116698 -0.2561916
000070 3a a5 89 bf 51 92 19 3f fc f6 f6 3e be 5b 94 3e
       -1.0753548 0.59988886 0.4823531 0.28976244
000080 37 69 b9 be b2 e4 ca 3d 20 98 ee bf 8e 31 6d bf
       -0.36213085 0.099069014 -1.8640175 -0.9265374
000090 80 6d 34 3f 4d 53 83 bd e9 14 fb bf e7 44 3d 3f
       0.70479584 -0.06412373 -1.9615756 0.7393326
0000a0 14 7b 10 bf 9d 36 85 3e 7b 70 08 3f c6 f0 64 bd
       -0.564378 0.2601823 0.5329663 -0.055893682
0000b0 d0 61 a5 3f cc 8e 36 3f 06 49 35 bf 72 45 71 3f
       1.2920475 0.7131164 -0.7081455 0.9424659
0000c0 b2 b9 2b bf a0 6a 9b 3e 4b 46 d4 bd 7b 58 f1 bf
       -0.67080224 0.30354786 -0.1036497 -1.8855127
0000d0 dc a4 15 3f d1 96 ad 3e 4a f8 e9 be d1 98 8e 3e
       0.5845468 0.33904126 -0.45697242 0.27850965
0000e0 99 91 2b 3f d0 13 6e 3e 24 94 b1 3d 83 30 73 3f
       0.6701904 0.23249745 0.08670834 0.949959
0000f0 e2 85 29 be 24 b2 01 3f ab b8 d7 3e 71 11 3f bf
       -0.16554978 0.50662446 0.42133078 -0.7463599
000100 fb e2 ee be eb 92 4a bf c9 6f c4 3e 73 e0 f9 be
       -0.46657547 -0.7913043 0.38366535 -0.48804054
000110 5b fc 9b 3e 5b 54 09 3f 3d 4a d1 3d 52 4f 24 bf
       0.3046597 0.5364434 0.10219238 -0.64183533
000120 7d 72 43 3e 94 ef d9 be e4 a9 c4 be df 70 ee 3e
       0.19086643 -0.42565596 -0.38410866 0.4657049
000130 0e a5 11 3f ca 06 9f 3f fa 0d 12 3f 69 88 2d bf
       0.5689248 1.2423947 0.57052577 -0.6778627
000140 db 85 08 be e2 45 d4 3d eb 0c 08 3f e6 4b 1e 3d
       -0.13332312 0.103648916 0.5314471 0.0386466
000150 09 79 c3 bf cf b2 85 bf bc 0d d4 be d1 c5 a5 3d
       -1.5271312 -1.0445193 -0.41416728 0.08094371
000160 e0 89 0d 3f 0d d5 6c bf 43 6b fc be 04 a3 9d 3e
       0.55288506 -0.9251259 -0.49300584 0.30788434
000170 ca a2 5b 3e 4c e6 a1 bd 12 78 78 bf 9c 9c 70 be
       0.21448818 -0.07905254 -0.9705821 -0.23497242
000180 ac 54 1d 3f ee 28 8c 3f a5 90 9d 3f 84 3f 20 3f
       0.61457324 1.0949991 1.2309767 0.6259692
000190 df 6d 59 be 36 78 66 3f 19 03 fd 3e 01 db 5f 3e
       -0.21233319 0.9002718 0.49416426 0.21860887
0001a0 69 25 ce bf 28 30 f3 bf 69 2c d5 bb 25 5b 4b 3f
       -1.6105167 -1.8999071 -0.0065055382 0.7943595
0001b0 a6 6d dd be 32 9f 83 3d 8e ee 45 bd d2 4f 7a bf
       -0.43247718 0.064268485 -0.048323207 -0.97778046
0001c0 f6 59 b2 bf 08 53 4c bf cc 87 af 3f 27 b7 6b be
       -1.3933704 -0.79814196 1.3713317 -0.23019086
0001d0 a1 b7 23 3e af cd d1 3d 6f 41 17 bf d5 f2 bf bc
       0.15988018 0.10244309 -0.5908422 -0.023431221
0001e0 b7 59 3a bf e6 01 45 3f 68 b9 54 be 95 0e 0c 3e
       -0.72793144 0.7695602 -0.20773852 0.13677438
0001f0 5e e8 9e 3f 20 70 f1 3e 13 a8 d5 3e e7 fd 8d 3f
       1.2414663 0.47155857 0.41729793 1.109311
000200 37 f6 20 bc d6 12 94 be dc 43 11 3f b2 6e 82 3f
       -0.009824327 -0.2892062 0.5674417 1.0190032
000210 56 88 ad bd e2 0b 1b 3f 7f f6 12 bf 7b 35 48 be
       -0.0847327 0.60565007 -0.57407373 -0.19551651
000220 28 66 fb be ea 41 2d 3e 79 da a3 be df 36 02 bf
       -0.49101377 0.16919675 -0.3200262 -0.50864977
000230 0c 25 cf bd f9 9e 3d 3e e3 84 11 3f bb 52 b5 bd
       -0.10114488 0.18517675 0.56843394 -0.0885367
000240 fa f8 3e bf 82 5b 83 bd f2 03 0c be f8 e6 66 bf
       -0.7459866 -0.06413938 -0.1367338 -0.9019618
000250 00 6c 42 c0 ed ff f0 bd 2c 81 9a 3e 2e df 54 bf
       -3.0378418 -0.11767564 0.30176675 -0.83153045
000260 30 84 16 c0 e1 c5 ab 3e 50 71 10 3e 49 d6 fa 3e
       -2.351818 0.33549407 0.14105725 0.48991612
000270 4a bf 24 3e b9 52 89 be bf 12 c4 3e f2 26 b9 3e
       0.16088596 -0.26820925 0.38295552 0.36162525
000280 a7 ea b2 3e 44 7b 9a 3c f2 73 21 be 8d b5 bd 3e
       0.3494465 0.018857606 -0.15766886 0.37052575
000290 11 ab 5c be 78 62 1a 3f cd 82 ae 3e 11 f5 7e be
       -0.21549632 0.603065 0.34084168 -0.24898173
0002a0 d0 e0 87 3e e8 de 85 3e fa a7 22 3f d3 ab 7e bf
       0.26538706 0.26146626 0.6353756 -0.9948093
0002b0 70 44 84 be 78 47 05 bf 30 89 2a 3f 63 2c 6d 3e
       -0.25833464 -0.5206218 0.6661558 0.23161463
0002c0 9c 55 b6 3c eb ef 38 3f 6e 31 6a be 86 41 11 3e
       0.022257619 0.72241086 -0.22870418 0.14185151
0002d0 ae 3b a0 3f 66 53 4d bf 3e 91 22 3f c2 c5 76 3f
       1.2518213 -0.8020538 0.6350287 0.96395504
0002e0 db 8f 5e bf c1 47 a0 3f 9c 24 b0 be 01 5a af bd
       -0.86938256 1.2521898 -0.3440293 -0.08562089
0002f0 40 16 7f 3f bc be 0c be cf ae bf bf a7 bf 89 3e
       0.99643326 -0.13744634 -1.4975222 0.26904032
000300 ac 96 be 3c 14 f7 a8 bf e4 52 ce 3d 95 19 9c 3e
       0.023265205 -1.3200402 0.10074404 0.30488268
000310 8e eb 8d 3e 6d 77 e0 bb 32 1c 51 3e f4 60 b3 3e
       0.27718776 -0.006850174 0.20420912 0.35034907
000320 00 16 cc 3e 32 7c 31 bd 1a fa ea 3d 4d 83 80 bf
       0.39860535 -0.043331333 0.11473484 -1.004007
000330 ed 34 8b 3c cf d1 1f be 89 37 bd be 9e 4d 08 bf
       0.01699301 -0.1560738 -0.36956432 -0.53243434
000340 e7 cb 8c be ad bb 02 3f e0 67 04 3d 11 ae 7d 3d
       -0.27499315 0.5106762 0.032325625 0.06193358
000350 98 31 19 be 1d 64 23 bf ad 7b 2c bf d2 b2 30 bf
       -0.14960325 -0.63824636 -0.67376214 -0.6902286
000360 9e 8e a5 bf b3 26 8d 3e 05 5a 65 3e ea 4d ec bc
       -1.2934148 0.27568588 0.22397621 -0.028845746
000370 c9 b4 83 be c6 d2 43 be a4 82 ce be af fd 72 be
       -0.25723866 -0.19123372 -0.40334046 -0.23729585
000380 d7 b2 34 3e 4a 41 bb bf 9a 42 f3 3e 12 7f 20 3d
       0.17646347 -1.46293 0.4751175 0.039183684
000390 f1 53 85 3e 44 e5 80 be 8f df 94 3d 18 f1 88 3e
       0.26040605 -0.25174916 0.07269203 0.2674644
0003a0 2b 94 86 be 65 05 89 be 5d 7b cb 3d 6f e5 c4 3b
       -0.26284918 -0.26761928 0.09935639 0.006008796
0003b0 3c bd 43 3f 37 ba c3 be 0f 6a 02 bf 15 71 29 bf
       0.76460624 -0.38228008 -0.5094308 -0.66188174
0003c0 5a 9b de be 02 cd 1f 3f ab 69 5a 3d 1d 63 6b bf
       -0.434779 0.6242219 0.05332343 -0.9194811
0003d0 d8 c7 1d c0 11 e4 2e bd e4 48 97 3f 66 94 a1 bb
       -2.4653225 -0.04269797 1.181912 -0.0049310206
0003e0 c7 7f 6a 3f ab cc 23 be 78 11 36 3e bb ee fc 3e
       0.9160122 -0.15996043 0.17780101 0.49400887
0003f0 e7 2f 7f bf 80 cc f3 3d 57 88 e0 be 19 e2 85 3f
       -0.9968247 0.1190424 -0.4385402 1.0459625

layers.2.h_bias f4 [16]
000000 92 80 38 be 74 41 eb be 2a 0e 99 bf 88 4e a3 be
       -0.18017796 -0.45948374 -1.1957448 -0.31895852
000010 f8 91 25 bf c2 2f 9c be dc c9 ec be d5 e8 a0 3d
       -0.64675856 -0.30505186 -0.46247756 0.07856909
000020 b5 2a 3d bf 2a 8e e6 be cb 90 2d bf c7 c3 59 be
       -0.7389329 -0.45030338 -0.6779906 -0.2126609
000030 a2 d3 2c bf d5 5c 02 be 2a c1 1b bf 71 be 06 bf
       -0.67510426 -0.12730725 -0.6084162 -0.5263434

layers.3.weight f4 [4, 16, 4]
000000 24 34 4a bf 8c 1b 79 3f f5 99 62 3f e0 8a bb bf
       -0.7898581 0.9730766 0.8851617 -1.4651756
000010 ce 60 6c bf 2d 00 0b bf 2f d0 02 3f 87 a7 ce 3e
       -0.9233521 -0.54297143 0.5109891 0.40362188
000020 8e b0 c9 be a7 6d cf be 74 90 59 3e 3b f3 b4 3e
       -0.39392513 -0.40513346 0.2124651 0.3534182
000030 02 a4 13 bf 57 67 c4 3e 89 dd e9 3d 8d 63 a1 bd
       -0.5767213 0.38360092 0.114192076 -0.07880316
000040 b3 9e 3a 3e 12 9c 87 bf 74 78 86 3e 91 4f 3e 3e
       0.18224601 -1.0594504 0.26263773 0.1858504
000050 66 12 b6 3e 48 12 0b 3f 3b 02 75 3e de 81 37 bf
       0.35560912 0.5432477 0.23926632 -0.71682537
000060 e2 6e 76 bf 16 87 0d 3e 7b 15 66 bf 1b 6c 47 3f
       -0.96262944 0.13821062 -0.89876527 0.7789933
000070 d2 97 fd bc 26 11 a0 be 24 dc 2e 3f 92 bd 4a be
       -0.030956183 -0.31263083 0.6830466 -0.19798878
000080 b6 87 66 bf 3a e5 a7 3e 6e 6b 38 bf ce b1 98 bf
       -0.9005083 0.32792073 -0.72038925 -1.1929262
000090 b1 19 7d bb 8e 07 e1 3e d5 72 83 3f 7e 2b 92 3e
       -0.003862005 0.43951076 1.0269419 0.28548807
0000a0 98 8b a7 bf ea bd 25 bf c3 44 1e 3e c7 5e d9 3d
       -1.3089476 -0.6474291 0.15455918 0.106137805
0000b0 da ec ce bc 80 fb f5 bd 3e 78 08 bd 11 6c 82 bf
       -0.025259424 -0.120108604 -0.033317797 -1.0189229
0000c0 d5 96 24 3d ac eb 24 3f a9 12 12 3e 60 63 27 3f
       0.040182907 0.64422107 0.14264931 0.6538601
0000d0 57 0c 16 be f3 0e 78 3e ef b5 c5 3e 18 8e 76 be
       -0.14653145 0.24224453 0.38615367 -0.24077642
0000e0 be 94 33 bd e7 c0 d2 be 01 e8 89 bf dd c5 24 3e
       -0.043843023 -0.41162798 -1.0773927 0.16091104
0000f0 3c 4a 49 3f 1f 22 c7 3d 27 83 1e 3f 31 62 d2 3e
       0.786289 0.09723305 0.6191887 0.4109054
000100 99 7d 44 3f 53 41 9c bf e8 56 1e 3f ff a5 9e be
       0.76754147 -1.2207435 0.6185136 -0.3098602
000110 08 91 56 3f d0 c4 3a 3f ac 78 01 be 7d 41 0c 3e
       0.8381505 0.7295656 -0.12643689 0.13696857
000120 39 61 11 c0 9a a8 83 3f 18 d5 b4 bd 83 a9 4d be
       -2.271559 1.0285828 -0.08829707 -0.20084195
000130 7b 0a fb 3c f1 fa 88 bf 9b 44 f2 3d c1 d3 6b bf
       0.030644646 -1.0701581 0.11829492 -0.92119986
000140 3b 4e 0d 3e d1 1b 19 bf b4 bb 6b bf 61 a8 58 3e
       0.13799374 -0.5980807 -0.9208329 0.21157981
000150 75 e0 e5 3d 00 28 31 bf b7 58 dc 3e 11 f2 63 bd
       0.112244524 -0.6920166 0.43036434 -0.055650774
000160 df 53 c0 3e a9 8f a2 3e 44 7b 5a be c9 d0 63 bc
       0.3756399 0.3175023 -0.21336085 -0.013904759
000170 f2 54 67 3f 76 49 1a 3f 05 20 0e be 74 14 cb bd
       0.9036399 0.6026834 -0.13879402 -0.099160105
000180 34 e6 8b bf 9c 8e a1 3e 9a 1e 1a 3f 8f 62 a1 3e
       -1.0929627 0.31554115 0.60202944 0.31520507
000190 b9 89 30 3e 56 69 87 be f4 fe be 3f ba 5a fe 3d
       0.17240037 -0.26447552 1.4921556 0.124196485
0001a0 d5 e7 5a 3d 57 72 2a 3d 6b 5a 56 bd 4c 44 08 3e
       0.05344375 0.04161295 -0.052332323 0.13307303
0001b0 9c 8e 2d be 74 41 22 3f 1a 42 7b be cf c7 d8 3e
       -0.16948932 0.63381124 -0.24536934 0.42339942
0001c0 e4 ff 92 3d 01 1b c5 bf 97 4b 8e 3e 05 f1 32 3e
       0.071777135 -1.5398866 0.27792045 0.17474754
0001d0 43 30 38 bd 3e 55 40 3f cf 97 27 3e 27 71 83 bf
       -0.0449679 0.7513007 0.16366504 -1.0268906
0001e0 77 17 1b 3f a9 ec 17 bf 10 23 0d be e5 d1 98 be
       0.6058268 -0.5934549 -0.13782907 -0.29847637
0001f0 51 5d d6 be 7c eb 42 be be 90 fd 3e 22 9f 3f 40
       -0.4186807 -0.19035143 0.49524492 2.9940877
000200 e0 2e 1f 3f 67 1d ef 3e 60 2f c1 3e 05 11 2a be
       0.621809 0.4670212 0.37731457 -0.16608055
000210 12 8e 7a be 91 3b 88 3e fe c7 1a bf 55 65 93 3e
       -0.24468258 0.26607946 -0.60461414 0.28788248
000220 1c ff 8b bc 56 b1 e0 bf c9 94 02 be 7d 41 b2 bf
       -0.017089419 -1.7554119 -0.1275207 -1.3926235
000230 b0 97 07 3f 4a 4c 30 3f 40 de b6 be 58 8c 42 bf
       0.5296583 0.6886641 -0.35716438 -0.759954
000240 2d b7 f0 3e 64 65 6b bf 65 57 0a 3f c5 6e 47 3f
       0.47014752 -0.91951585 0.54039603 0.77903396
000250 84 ac 26 3f 23 fa 99 be 76 61 63 3e 65 15 0f bf
       0.6510699 -0.30073652 0.22205147 -0.5589202
000260 e7 94 9f bf 91 a6 fa 3f 05 a7 b0 3e 89 c0 c0 3f
       -1.2467316 1.9582082 0.34502426 1.5058757
000270 f2 2e f0 3d fe 87 50 3f 9d e2 a3 3f e5 8e f1 3e
       0.11727704 0.8145751 1.2803532 0.47179332
000280 9d 24 47 3d 49 6e c8 3e 40 0a bc bf ce 9c ec be
       0.0486189 0.3914664 -1.4690628 -0.46213382
000290 17 08 a2 bf 4f 61 ea bf e7 af ea 3f 8b a2 ac bf
       -1.2658719 -1.8310946 1.8334931 -1.3487104
0002a0 2c 91 d8 bd d5 59 c9 3e b0 74 d8 bc 6b 90 99 be
       -0.10574564 0.3932635 -0.026422828 -0.29992995
0002b0 cd ee 8d bf ea 48 47 3f 3e 2a 8c bf 40 3e 2b 3f
       -1.1088501 0.77845633 -1.0950391 0.6689186
0002c0 94 c8 4d bd 56 3e be 3e 04 af a5 be 69 fa 91 3e
       -0.050240114 0.37156934 -0.3236009 0.2851136
0002d0 08 77 1a bf b6 e2 2e be c9 f5 1f 3f 29 6f 65 bf
       -0.6033788 -0.17078671 0.62484413 -0.8962274
0002e0 c2 49 44 be 71 5c 2c bf 6c 5b 4c be 19 10 4d bb
       -0.19168761 -0.67328554 -0.1995675 -0.0031290113
0002f0 2a 82 0c bf 80 7e 83 3f 2a d7 1b 3f bf 1e 7f 3f
       -0.54886115 1.027298 0.6087519 0.9965629
000300 5d e5 16 3e 8d 9f aa be 34 30 6c 3d 2b f5 6c 3e
       0.14735933 -0.33324853 0.057663158 0.23140399
000310 af 3b 30 c0 b6 ad 44 bf 40 79 2e 3e f1 08 1b c0
       -2.7536428 -0.7682756 0.1703844 -2.4224207
000320 1d de 39 3d 82 bb 82 3e 71 25 62 bf 56 30 13 3f
       0.04537784 0.25533682 -0.8833838 0.5749563
000330 24 b5 83 bd f8 e6 c1 bd 4c 94 83 bf e9 c4 43 be
       -0.06431034 -0.09467882 -1.0279632 -0.19118084
000340 0b 22 5c bf 34 dd ca 3f 90 7a 9e 3e f0 49 a5 3f
       -0.85989445 1.5848756 0.30952883 1.2913189
000350 5a cf 46 bf 87 85 9a 3e d5 1c 43 3e 47 5a 43 3f
       -0.77660143 0.30179998 0.19053967 0.7630963
000360 d4 a8 0d ba b1 b0 f0 3e 15 db 7d be 9f ca 7a 3b
       -0.00054038805 0.47009805 -0.24790604 0.0038267744
000370 f6 e6 92 3e 4c 82 39 c0 f8 98 e0 bd 7a 41 81 bf
       0.28691834 -2.8985777 -0.109666765 -1.0098107
000380 c0 2d bc bf 6d e6 21 3e 07 ad dc 3e b1 d5 a0 be
       -1.4701462 0.15810557 0.4310076 -0.31413034
000390 2f d5 34 c0 6f 47 b7 bf cd ba 68 3f 01 57 d4 bf
       -2.8255117 -1.4318675 0.90910035 -1.6589051
0003a0 e8 c1 8a 3f 66 49 6d be b8 94 ff 3e 76 8c c4 bf
       1.0840425 -0.2317253 0.4991815 -1.5355365
0003b0 76 d3 ac 3e f1 4e 65 3d d2 c2 1c 3f 31 bf f8 3e
       0.33755082 0.055983488 0.6123477 0.48583367
0003c0 e2 c8 9c be 44 07 72 bf 59 41 4d 3e 5c c9 62 c0
       -0.3062201 -0.94542336 0.2004446 -3.54354
0003d0 8b e1 56 bf 5c 6c 8b 3e d3 c3 b7 be f9 0b 94 be
       -0.839379 0.2723111 -0.3589159 -0.28915384
0003e0 2f b5 9d 3d d4 14 06 3f fa a7 35 3e d7 91 bd bf
       0.07700574 0.5237553 0.17739859 -1.4810132
0003f0 c2 d0 90 be 1b 4b e0 bf 4f 0b fb bd 36 32 b5 bf
       -0.2828427 -1.752292 -0.12258016 -1.4155948

layers.3.h_bias f4 [4]
000000 cd 20 27 3f 05 d6 11 bf db 33 3a 3f 1d df 4c 3c
       0.65284425 -0.5696719 0.72735375 0.012504366

attn.attn_l f4 [1, 1, 4]
000000 19 50 eb bf 19 b3 a0 3f 34 a4 1a bd ea da a3 3f
       -1.8383819 1.2554656 -0.037754253 1.2801182

attn.attn_r f4 [1, 1, 4]
000000 c9 bd 13 40 a7 c4 86 3f 37 52 65 c0 fd f9 df bf
       2.3084586 1.0528764 -3.583143 -1.7498165

attn.fc.weight f4 [4, 4]
000000 c8 b5 0a 3e e6 71 87 bc 4a 17 63 bd c3 dc 9e 3e
       0.13545907 -0.016533803 -0.055442132 0.31027803
000010 95 b7 67 3f 93 94 3b 3f 0c f8 5f bf 2b d8 60 3f
       0.905145 0.7327358 -0.87487864 0.87829846
000020 4e e0 a2 bf c8 a6 81 be d3 3b 58 3e 07 79 9c 3d
       -1.2724702 -0.25322556 0.21116571 0.07640272
000030 c1 8a 8f 3d 84 95 37 bf 98 97 b0 3e d5 ae 4b bf
       0.07008887 -0.7171252 0.34490657 -0.7956365

dense.weight f4 [1, 4]
000000 d1 d1 eb 3c 82 06 6a be 57 f3 ad 3b 37 96 63 3c
       0.028786572 -0.22854045 0.0053085494 0.0138907945
