saved_model_w/herg.pth (torch_old, 21140 bytes, 7 tensors)

layers.0.weight f4 [4, 40, 16]
1.0238352 0.066335745 0.73082805 -0.6549794 0.77860457 -0.32490566 0.96916413 0.5924958
-0.19273612 0.78957665 -0.7477541 0.6264606 -1.4528193 0.48638108 -0.44467062 0.8348559
0.039631635 -0.08588386 -0.10883519 0.040393054 -0.02389808 -0.085089594 -0.11613801 0.057150036
0.06260365 -0.022112332 -0.008272104 -0.08877294 -0.015566774 -0.112649195 -0.009077027 -0.064292066
-0.030057952 0.03802736 -0.01721628 -0.022320569 -0.016825229 -0.08601894 0.09503999 0.0060496777
0.12035371 -0.09403902 -0.10619898 -0.11415261 -0.059531905 0.046555683 -0.09304878 0.041079223
0.12497072 0.06566945 0.09943327 0.08755909 -0.036364898 -0.015526108 -0.08477545 -0.0808288
-0.003395155 0.09527767 -0.118941106 0.11215538 -0.022075571 -0.05743441 -0.07847398 0.12095003
0.8862354 -0.1361782 0.6584178 -0.13711014 1.2599021 1.0276572 2.3569357 1.8706038
-0.08678042 2.080416 1.3422426 -0.15503418 -0.24675916 0.828949 -0.003676151 -0.27712178
0.028421208 -0.080654174 0.040422007 -0.07709771 -0.03543987 0.1078212 -0.10390182 0.10722689
-0.12219319 0.0017963052 0.08100413 0.04945907 -0.016190164 0.09103499 -0.087097764 0.03089635
-0.12891883 0.032748893 -0.09499719 0.12466867 -0.050003916 -0.08546738 -0.10211104 -0.12371836
-0.0715837 0.055656508 -0.106417626 0.01528652 -0.04803323 0.10620834 0.07553546 0.121324226
0.3646527 0.5678112 0.065059476 -0.06662353 -0.040540174 1.0996305 1.3611625 -0.075908974
-0.02025313 1.3980379 0.31800175 -0.17116359 -0.24688141 0.79718095 -0.05532559 -0.26438662
-0.16338323 0.28425732 -0.11444622 -0.004703776 -0.9013178 -0.5893205 -0.20377259 -0.43859488
-0.87939394 -0.4980498 0.30997345 -0.20864157 0.23999585 -0.22832581 -0.11275009 0.0007494674
0.25427288 -0.027153194 -0.39769977 -0.60461366 -0.12276864 0.782481 0.29542312 0.62521994
-0.72393316 1.419486 -0.3502575 -0.5943589 -0.10279432 0.52226216 1.2584113 -0.97082347
-0.080554634 0.0205151 -0.07334119 0.026082456 -0.043057017 0.027298361 0.040685415 -0.06800433
0.07731168 0.1007209 -0.0829307 -0.067027256 0.04308434 0.12339689 -0.03871966 0.002452746
-0.027265875 -0.10492447 0.15074424 0.15459014 0.11239801 0.20645462 -0.059479143 -0.1235037
0.003441294 0.014870975 0.13387643 0.1444348 -0.1730769 0.026285416 -0.035149783 0.086203635
-0.24232149 -0.2749773 0.08243283 0.3879052 -0.11930758 0.36459926 0.40766782 -0.077649616
0.62506217 0.43403235 0.3659109 0.19420834 -0.5442697 0.19105674 0.047887348 0.23095027
0.25425062 -0.035284013 -0.01240085 -0.011625229 0.4087741 0.65220004 0.089273706 0.41605037
-0.603074 -0.28862408 0.54449093 -0.18273126 0.5875323 -0.5110951 -0.59197915 -1.1166353
-0.024819486 0.08905211 0.025590241 -0.003255695 -0.07003714 -0.008546166 -0.059975863 0.0066603273
0.00037623942 0.0059463084 -0.10795498 -0.07126382 -0.100177385 -0.074289896 -0.028780602 -0.12106307
1.3530447 0.65515786 0.9274751 1.1179475 0.31384882 -0.4151404 1.5900027 1.5978653
-0.069731936 0.73875195 -0.6283018 1.0614778 0.5594881 -0.24976552 -0.3719247 -0.46121877
00000000: 080d 833f 09db 873d 8c17 3b3f bbac 27bf
00000010: a152 473f 095a a6be 241b 783f cead 173f
00000020: 9e5c 45be b221 4a3f d06c 3fbf b95f 203f
00000030: fcf5 b9bf f106 f93e deab e3be 1eb9 553f
00000040: c854 223d e1e3 afbd fce4 debd 3073 253d
00000050: e8c5 c3bc 7443 aebd c4d9 edbd 2816 6a3d
00000060: 5836 803d ec24 b5bc b887 07bc 96ce b5bd
00000070: c80b 7fbc 9fb4 e6bd d0b7 14bc 8fab 83bd
00000080: 183c f6bc 94c2 1b3d 2809 8dbc a0d9 b6bc
00000090: 10d5 89bc b32a b0bd 54a4 c23d 603c c63b
000000a0: 027c f63d 8897 c0bd da7e d9bd d8c8 e9bd
000000b0: bad7 73bd 2cb1 3e3d 5c90 bebd b042 283d
000000c0: a6f0 ff3d b47d 863d aca3 cb3d 2e52 b33d
000000d0: 5cf3 14bd 3861 7ebc c09e adbd 9289 a5bd
000000e0: 4081 5ebb f020 c33d 6597 f3bd b8b1 e53d
000000f0: d4d7 b4bc 5840 6bbd f7b6 a0bd a6b4 f73d
00000100: 53e0 623f 4c72 0bbe 128e 283f 9a66 0cbe
00000110: 7944 a13f 458a 833f 09d8 1640 f26f ef3f
00000120: efb9 b1bd 8925 0540 9bce ab3f 48c1 1ebe
00000130: 6fae 7cbe 0036 543f 94eb 70bb e8e2 8dbe
00000140: 98d3 e83c 042e a5bd 8c91 253d 67e5 9dbd
00000150: 6629 11bd 5cd1 dc3d 7aca d4bd c699 db3d
00000160: 6c40 fabd 0072 eb3a 7ee5 a53d 9895 4a3d
00000170: 3ca1 84bc 8e70 ba3d 5060 b2bd 581a fd3c
00000180: 4c03 04be b423 063d e38d c2bd 4a52 ff3d
00000190: e8d0 4cbd 8609 afbd 981f d1bd 0d60 fdbd
000001a0: 7a9a 92bd 14f8 633d 7cf1 d9bd 5074 7a3c
000001b0: 7ebe 44bd c283 d93d 56b2 9a3d d678 f83d
000001c0: c2b3 ba3e 135c 113f e73d 853d eb71 88bd
000001d0: 740d 26bd b1c0 8c3f 933a ae3f 2a76 9bbd
000001e0: e4e9 a5bc e8f2 b23f 20d1 a23e 8245 2fbe
000001f0: 7bce 7cbe 0d14 4c3f 169d 62bd af5d 87be
00000200: ef4d 27be 2d8a 913e c862 eabd 2222 9abb
00000210: c3bc 66bf b5dd 16bf c3a9 50be 828f e0be
00000220: f61f 61bf 6200 ffbe d7b4 9e3e 23a6 55be
00000230: 79c1 753e 3ece 69be 85e9 e6bd e877 443a
00000240: 0e30 823e 6070 debc 4e9f cbbe f6c7 1abf
00000250: 206e fbbd ad50 483f b341 973e 6a0e 203f
00000260: af53 39bf b8b1 b53f f354 b3be e827 18bf
00000270: d485 d2bd f9b2 053f 9f13 a13f e387 78bf
00000280: d4f9 a4bd 480f a83c e833 96bd e0aa d53c
00000290: 8e5c 30bd d0a0 df3c c0a5 263d db45 8bbd
000002a0: 9655 9e3d c246 ce3d 92d7 a9bd 9645 89bd
000002b0: 3479 303d 82b7 fc3d 8298 1ebd 40be 203b
000002c0: af5c dfbc a4e2 d6bd b35c 1a3e e14c 1e3e
000002d0: ee30 e63d d768 533e 67a0 73bd 82ef fcbd
000002e0: 5587 613b 64a5 733c e716 093e b7e6 133e
000002f0: 123b 31be 8354 d73c 38f9 0fbd 888b b03d
00000300: 2023 78be d3c9 8cbe 8bd2 a83d 839b c63e
00000310: 8857 f4bd c1ac ba3e d6b9 d03e c306 9fbd
00000320: 1304 203f 7d39 de3e ac58 bb3e 8dde 463e
00000330: 4255 0bbf 61a4 433e 8625 443d 3a7e 6c3e
00000340: 232d 823e f885 10bd ef2c 4bbc bf77 3ebc
00000350: d74a d13e 95f6 263f 22d5 b63d 8e04 d53e
00000360: 0f63 1abf 89c6 93be c263 0b3f e71d 3bbe
00000370: 8468 163f 21d7 02bf f28b 17bf e8ed 8ebf
00000380: 3c52 cbbc f460 b63d a0a2 d13c 805d 55bb
00000390: a26f 8fbd 3805 0cbc 40a9 75bd e03e da3b
000003a0: 0042 c539 40d9 c23b 8017 ddbd c4f2 91bd
000003b0: cd29 cdbd 4d25 98bd 4cc5 ebbc eaef f7bd
000003c0: 9230 ad3f 6db8 273f 026f 6d3f e718 8f3f
000003d0: cbb0 a03e 488d d4be 3585 cb3f da86 cc3f
000003e0: 9ecf 8ebd d91e 3d3f 63d8 20bf 81de 873f
000003f0: 9d3a 0f3f 88c2 7fbe ea6c bebe de24 ecbe

layers.1.weight f4 [4, 16, 16]
-0.077887736 -1.5343307 0.14236383 -0.65059495 0.43517035 -0.12041357 -0.01103634 0.050976753
-0.17854628 0.26306006 -0.7413581 -0.39823872 0.32144842 0.17994346 0.04906379 0.1564849
-0.8031134 -0.9530883 -0.35025623 -0.5770027 0.22912756 -0.22042997 0.24439827 0.05865467
-0.048011992 0.19771747 0.09556185 0.542869 -0.25259316 0.029625805 -0.30254692 -0.12474746
-0.24955589 -0.51866025 -0.8495705 -0.5667335 0.10516052 0.045144305 0.19321793 0.36972356
0.08706769 -0.052122917 0.08604151 -0.36076242 0.26249573 -0.91090834 -0.37609133 0.68865025
-0.27744085 0.031839915 0.18711346 0.28666767 0.12180589 -0.072529085 -0.34548315 -0.41629085
-0.331711 -0.36985916 0.36649892 0.22762647 0.2797328 -0.09643386 -0.20187972 -0.4355943
0.35972983 0.39344585 0.44718575 -1.0899053 -0.05414559 -0.48635212 0.3331378 0.027755536
-1.2461315 -0.23739423 -2.4811542 0.19194646 0.096173294 0.25391817 0.362032 -0.34221727
0.51696503 0.28469515 0.59494406 -1.4277902 -0.11565215 -0.34042093 0.001425805 0.2157903
-0.38627717 0.49509922 -1.569011 0.25213844 -0.08361048 0.47832367 0.65010065 -0.8103299
0.30752265 -0.37848204 0.39722773 0.05643998 -0.04917471 0.30604237 0.11338422 0.6147592
-0.70548195 0.59149194 0.22664666 0.26972127 -0.008571635 0.2204083 0.11366495 -0.0032410938
0.38447982 -0.20272408 -0.34429133 0.67413884 0.5122371 -0.90734357 0.2747374 -1.0759261
0.3857689 -1.391249 -0.64016134 -1.3980857 -1.0784091 0.27386743 0.17719918 0.11121725
0.022246048 0.17917101 -0.18939674 0.23874618 -0.15356441 -1.3714325 -0.49203464 0.24360448
0.17601037 -0.8501976 -2.310381 -0.17664066 0.42622745 -0.07179036 -0.6165005 -0.5133076
0.25857487 0.6797729 -1.332261 -0.7432509 0.16660035 -0.30094707 0.81267637 0.32333606
0.42695805 0.33765632 -3.4418502 -0.004684235 -0.4255183 0.5709291 0.4866431 0.095068306
0.01712694 -0.49102163 0.14882852 0.0520813 -0.14547502 0.26561785 0.0739124 0.27757803
-0.40132737 -0.11549259 0.31512448 -0.5251961 -0.14831343 0.16128643 0.028004577 -0.14514808
0.22351478 -0.08200539 -0.24536206 0.2610385 0.017615108 -0.38009936 -0.023786832 -0.21095543
0.49333814 -0.24977294 -0.60750055 0.043085493 -0.025830979 -0.99484646 -0.26921403 0.21357162
0.1227934 -0.16178596 -0.47765186 0.021105934 0.24378501 -0.09191612 -0.5451879 0.5510838
-0.057576276 0.0129340505 -0.21387713 -0.011748137 -0.037494805 -0.06592114 -0.37125978 -0.10734841
0.70668685 0.013741372 0.1959532 -0.5859485 -0.6711999 -0.7828963 0.10199637 0.017643398
-0.16740306 0.06482969 -0.2525365 -0.5563634 0.21930912 0.48708406 0.44818413 -0.22415492
0.61320865 0.684298 0.26848912 0.12419107 0.45728108 0.36795816 0.0017967932 -0.4310249
1.0370604 -0.44516614 -0.14679831 -0.4208234 0.10431653 0.1353365 -0.30715284 0.3272458
0.02803889 -0.30740976 0.29013592 -0.09794075 -1.2909302 0.08081112 -0.040005967 -0.21111402
0.16362116 -0.500035 0.17871767 0.19611023 0.36742204 -0.17519471 -0.2380372 0.030921616
00000000: 9b83 9fbd f364 c4bf d3c7 113e 648d 26bf
00000010: a6ce de3e 649b f6bd c4d1 34bc 00cd 503d
00000020: d6d4 36be cfaf 863e a5c9 3dbf f2e5 cbbe
00000030: e394 a43e 1943 383e 1df7 483d 943d 203e
00000040: d798 4dbf 98fd 73bf c954 b3be 73b6 13bf
00000050: 6aa0 6a3e 65b8 61be 8a43 7a3e e13f 703d
00000060: 39a8 44bd 7376 4a3e eeb5 c33d 76f9 0a3f
00000070: e453 81be d1b1 f23c 6ee7 9abe 997b ffbd
00000080: 948b 7fbe ebc6 04bf 747d 59bf 7215 11bf
00000090: 665e d73d 3ce9 383d ecda 453e 684c bd3e
000000a0: 8c50 b23d d77e 55bd 8836 b03d dab5 b8be
000000b0: d765 863e 4a31 69bf 0b8f c0be 624b 303f
000000c0: ba0c 8ebe 926a 023d ac9a 3f3e 1bc6 923e
000000d0: 5e75 f93d 218a 94bd 2be3 b0be 1324 d5be
000000e0: 06d6 a9be 2e5e bdbe bfa5 bb3e ea16 693e
000000f0: 2339 8f3e 1e7f c5bd 8fb9 4ebe 3706 dfbe
00000100: 822e b83e bc71 c93e 88f5 e43e 0482 8bbf
00000110: c4c7 5dbd 2503 f9be 0a91 aa3e 945f e33c
00000120: 3d81 9fbf 7917 73be 3bcb 1ec0 9d8d 443e
00000130: 81f6 c43d 9001 823e 425c b93e 1a37 afbe
00000140: d257 043f 90c3 913e 414e 183f d4c1 b6bf
00000150: 09db ecbd a74b aebe 14e2 ba3a 22f8 5c3e
00000160: 1fc6 c5be a57d fd3e 5ad5 c8bf 4a18 813e
00000170: f93b abbd d7e6 f43e ff6c 263f c871 4fbf
00000180: 9c73 9d3e 66c8 c1be 6f61 cb3e 9c2d 673d
00000190: 6c6b 49bd 96b1 9c3e fc35 e83d dc60 1d3f
000001a0: 779a 34bf 046c 173f 1016 683e e818 8a3e
000001b0: 0b70 0cbc b7b2 613e 2bc9 e83d 8868 54bb
000001c0: 8ada c43e e796 4fbe f446 b0be 5d94 2c3f
000001d0: f821 033f ab47 68bf 61aa 8c3e f2b7 89bf
000001e0: 8083 c53e 7214 b2bf 9de1 23bf 79f4 b2bf
000001f0: 4f09 8abf 5a38 8c3e b473 353e dfc5 e33d
00000200: 583d b63c 9b78 373e 38f1 41be e179 743e
00000210: fd3f 1dbe 1a8b afbf f7eb fbbe 7473 793e
00000220: 103c 343e 8da6 59bf 48dd 13c0 4ae1 34be
00000230: 7c3a da3e d306 93bd fad2 1dbf 2068 03bf
00000240: ed63 843e 9905 2e3f 8787 aabf b145 3ebf
00000250: 4899 2a3e bc15 9abe 8f0b 503f 4e8c a53e
00000260: 3f9a da3e 4ae1 ac3e 4647 5cc0 367e 99bb
00000270: 89dd d9be 6928 123f 4929 f93e 2cb3 c23d
00000280: cc4d 8c3c 3067 fbbe 8166 183e 3453 553d
00000290: 67f7 14be 10ff 873e 625f 973d b51e 8e3e
000002a0: c87a cdbe 6187 ecbd ff57 a13e 4073 06bf
000002b0: 7adf 17be 4528 253e db69 e53c b3a1 14be
000002c0: 0fe1 643e 71f2 a7bd 3140 7bbe d7a6 853e
000002d0: 8f4d 903c 629c c2be 9adc c2bc b304 58be
000002e0: d196 fc3e 7ac4 7fbe 2885 1bbf 6a7a 303d
000002f0: 7d9b d3bc 42ae 7ebf 6cd6 89be 85b2 5a3e
00000300: 1b7b fb3d 38ab 25be c98e f4be 5ae6 ac3c
00000310: c7a2 793e 853e bcbd 6f91 0bbf d413 0d3f
00000320: 1ad5 6bbd 57e9 533c 9b02 5bbe 427b 40bc
00000330: 2794 19bd aa01 87bd c315 bebe 7cd9 dbbd
00000340: 6ee9 343f 7e23 613c f5a7 483e b900 16bf
00000350: c2d3 2bbf e46b 48bf 79e3 d03d e388 903c
00000360: b56b 2bbe 6ec5 843d 774c 81be d56d 0ebf
00000370: 9292 603e 1563 f93e 6478 e53e de88 65be
00000380: 3efb 1c3f 272e 2f3f 6877 893e e357 fe3d
00000390: bf20 ea3e 0365 bc3e 6082 eb3a 4caf dcbe
000003a0: 65be 843f d1ec e3be 4c52 16be 2a76 d7be
000003b0: e8a3 d53d a795 0a3e 2343 9dbe c38c a73e
000003c0: d0b1 e53c d064 9dbe b28c 943e 2995 c8bd
000003d0: 333d a5bf 4d80 a53d 4cdd 23bd 462e 58be
000003e0: 4e8c 273e 4b02 00bf c401 373e 1fd1 483e
000003f0: be1e bc3e 3e66 33be 06c0 73be 544f fd3c

layers.2.weight f4 [4, 16, 16]
-0.17183945 0.3503596 -0.12747437 -0.8022439 -0.09721286 -0.1323223 -0.9355795 0.17895992
-0.021842245 -0.6898888 -0.014054941 0.24727812 -0.38451648 -0.13942401 -0.8339017 -0.23027599
-0.14597361 -1.0403609 -2.2082026 -0.13371985 -1.5027248 0.7062343 -0.46773902 0.08911124
-0.26082596 -0.050964277 0.3121504 -1.0053625 0.0019587984 0.14893924 0.04731232 0.54987884
-0.2589267 0.13493297 0.42535275 -0.2905275 0.34540948 -0.10813127 0.3482956 0.40460715
0.33522785 0.016587026 0.39277315 0.5214809 0.41256738 0.38213632 -0.42369986 0.4351408
-0.06340621 0.0053973906 -1.1447676 0.6434851 -0.24118719 -1.2775879 -0.3910316 0.095978975
0.16401364 0.17564653 0.43093717 0.4532052 -0.29452688 -0.8292958 0.20949392 -0.49316862
-0.029410334 -0.41839287 -0.55051184 0.066209055 0.15131627 -0.37408873 0.15269378 0.19631635
-0.74216264 -0.097393975 -0.3129802 -1.3095119 -0.86869234 -0.4892709 -0.058533773 -0.42857134
0.22247905 0.35559973 -0.056791212 -0.010588786 0.04699326 -0.26050597 0.18610454 0.07705545
0.37581143 0.22463533 -0.63961256 0.11083023 -1.2497996 0.32845914 0.5206912 -0.32709625
0.051813386 -1.1611826 0.056413908 0.12949687 -0.24804717 -0.4767116 -0.0008999994 0.5607589
-0.30944243 -0.38560772 0.10390364 -0.13210782 -0.12455348 -0.56783193 -1.6268005 0.56815755
0.082671024 0.060490813 0.083257735 -0.14121763 -0.72663444 -1.0709563 -0.5239255 -0.29073864
0.14315198 -0.05405792 -0.47355413 -0.34045982 0.40351468 0.07046257 -0.10452082 0.24144109
0.7045134 0.32862407 -0.88115406 0.14396046 -0.23271127 0.49605066 0.059128027 -0.04668275
0.1213185 -0.43120575 0.21489073 -0.07500448 -0.24664126 0.25648358 -0.33220014 -0.1625899
0.08956908 0.13481328 -1.238509 0.0842311 0.7250886 0.13695942 -0.73455286 0.40911484
0.19313075 -1.6994054 0.43982473 0.039598152 -0.56068647 0.35945702 0.083519414 0.07460716
-0.06852175 -0.03407208 -0.28391808 -0.7785838 0.20103845 0.11715096 0.006030601 -0.35909528
0.09809661 -0.361375 0.31228933 -0.9529732 -0.047278255 0.19833937 0.12099465 -0.33850297
0.15416352 -0.6890939 0.03268236 0.17776509 -0.05919793 -0.88152933 -0.059771176 -0.2207153
0.052690636 0.34886545 -0.36716264 0.29936662 -0.012744681 0.11848119 0.16891587 0.09606632
-0.37225643 0.31732816 0.15686433 -1.1281956 -0.052141525 0.094497174 -0.21292539 0.2064515
0.3363168 -1.6641695 -0.23817489 -0.597901 0.10981953 -0.36931464 0.20762245 -0.005838672
0.17040564 -0.5272689 -1.2225802 -0.16692002 0.3734757 -0.6073344 0.037885863 -0.048592675
-0.21926875 0.40684542 -0.3362531 -0.22190608 0.18826742 -0.19809705 -0.13090226 -0.6051404
0.24887753 0.38491085 -1.7305441 -0.074704856 -1.1538779 0.24940923 0.37505376 0.3460643
-0.3211728 -0.19858213 -0.4900944 0.54897285 0.45063734 -1.6346718 -0.21296029 0.4702847
0.7669197 -0.018606523 -1.4516178 0.2585622 -0.31350642 -0.3677194 0.21897936 -0.04901192
-1.3278915 -1.6034379 -1.5291271 0.19612688 0.13818225 -0.21512207 0.12386689 -0.14602077
00000000: aef6 2fbe 5562 b33e a488 02be db5f 4dbf
00000010: 8917 c7bd 7f7f 07be 2382 6fbf 4541 373e
00000020: 82ee b2bc 8d9c 30bf b246 66bc 7a36 7d3e
00000030: 58df c4be 2bc5 0ebe 957a 55bf 78cd 6bbe
00000040: 1b7a 15be 8c2a 85bf 3153 0dc0 dbed 08be
00000050: 4959 c0bf c5cb 343f 7d7b efbe f47f b63d
00000060: fb8a 85be ebbf 50bd 2dd2 9f3e b8af 80bf
00000070: 2f5f 003b 8783 183e 90ca 413d dcc4 0c3f
00000080: 0a92 84be de2b 0a3e d6c7 d93e 05c0 94be
00000090: 83d9 b03e ed73 ddbd cd53 b23e ab28 cf3e
000000a0: fca2 ab3e 84e1 873c 9019 c93e c67f 053f
000000b0: 083c d33e 5fa7 c33e 30ef d8be c6ca de3e
000000c0: 1ddb 81bd 98dc b03b bf87 92bf 71bb 243f
000000d0: c6f9 76be 0088 a3bf 4b35 c8be a090 c43d
000000e0: 31f3 273e afdc 333e cca3 dc3e 830a e83e
000000f0: 3acc 96be bb4c 54bf 9385 563e 9980 fcbe
00000100: f1ed f0bc 9737 d6be 58ee 0cbf 9d98 873d
00000110: a7f2 1a3e 8f88 bfbe c25b 1c3e 2707 493e
00000120: 5ffe 3dbf 7e76 c7bd f13e a0be 169e a7bf
00000130: 9f62 5ebf b781 fabe 1cc1 6fbd b46d dbbe
00000140: 8cd1 633e 2b11 b63e e79d 68bd 967c 2dbc
00000150: 017c 403d 0a61 85be 3092 3e3e 3fcf 9d3d
00000160: 5b6a c03e ce06 663e a6bd 23bf f6fa e23d
00000170: 6ff9 9fbf cc2b a83e 054c 053f 2979 a7be
00000180: 463a 543d a2a1 94bf 4512 673d d49a 043e
00000190: 1400 7ebe 8b13 f4be f0ed 6bba e58d 0f3f
000001a0: 3d6f 9ebe 606e c5be 6ecb d43d 4647 07be
000001b0: e515 ffbd 6f5d 11bf 003b d0bf c672 113f
000001c0: 6d4f a93d 37c5 773d 0883 aa3d 5b9b 10be
000001d0: b704 3abf 1915 89bf fb1f 06bf b2db 94be
000001e0: 6f96 123e d66b 5dbd b075 f2be c050 aebe
000001f0: 7a99 ce3e ae4e 903d 030f d6bd 553c 773e
00000200: fd5a 343f 6a41 a83e 5093 61bf 5f6a 133e
00000210: dd4b 6ebe 5afa fd3e 3b30 723d 6936 3fbd
00000220: d575 f83d 00c7 dcbe 510c 5c3e f39b 99bd
00000230: 878f 7cbe d151 833e 2316 aabe f77d 26be
00000240: fe6f b73d 7e0c 0a3e 7787 9ebf 5b81 ac3d
00000250: 689f 393f 173f 0c3e a80b 3cbf 8077 d13e
00000260: 11c4 453e 1e86 d9bf b530 e13e ac31 223d
00000270: 2689 0fbf c00a b83e 3a0c ab3d a4cb 983d
00000280: 2255 8cbd 2a8f 0bbd b65d 91be 4551 47bf
00000290: 06dd 4d3e d8ec ef3d 599c c53b 56db b7be
000002a0: e0e6 c83d 2506 b9be 63e4 9f3e 0df6 73bf
000002b0: d8a6 41bd 7a19 4b3e 0bcc f73d 4350 adbe
000002c0: 0bdd 1d3e 7568 30bf f0dd 053d 0d08 363e
000002d0: 8779 72bd e8ab 61bf 9fd2 74bd 3103 62be
000002e0: 23d2 573d 7e9e b23e befc bbbe 9546 993e
000002f0: 11cf 50bc 44a6 f23d 48f8 2c3e 6bbe c43d
00000300: 6598 bebe d678 a23e 0ba1 203e b768 90bf
00000310: 5a92 55bd bc87 c13d 1d09 5abe 0668 533e
00000320: b731 ac3e 8203 d5bf 1ee4 73be 0a10 19bf
00000330: 10e9 e03d cf16 bdbe fb9a 543e 5552 bfbb
00000340: d17e 2e3e 18fb 06bf 827d 9cbf 15ed 2abe
00000350: 3538 bf3e 447a 1bbf 352e 1b3d 1d09 47bd
00000360: fd87 60be 0b4e d03e 5e29 acbe 593b 63be
00000370: 2dc9 403e f4d9 4abe 3e0b 06be 7bea 1abf
00000380: c0d9 7e3e 0913 c53e 7882 ddbf dcfe 98bd
00000390: 45b2 93bf 2265 7f3e 0c07 c03e 572f b13e
000003a0: c370 a4be 1d59 4bbe a7ed fabe 7c89 0c3f
000003b0: f0b9 e63e ed3c d1bf 4312 5abe 28c9 f03e
000003c0: d954 443f b56c 98bc 9dce b9bf 4462 843e
000003d0: ea83 a0be b845 bcbe 203c 603e b9c0 48bd
000003e0: 59f8 a9bf 743d cdbf 70ba c3bf 7cd5 483e
000003f0: a67f 0d3e f648 5cbe edad fd3d 7886 15be

layers.3.weight f4 [4, 16, 4]
0.03999393 -0.05698406 -0.08541061 -0.2863385 -0.1413444 0.011402777 -0.3824831 -0.34781438
-1.215235 -1.0455476 -1.1030388 -0.765112 -0.84166384 -0.8885728 -0.847455 -0.8951943
-0.5398109 0.11089954 0.21647453 -0.40386945 0.3385397 0.5911934 0.4611911 0.9339643
0.7244033 0.14439084 -0.64444774 0.792054 0.26270777 0.2696896 0.10989407 0.64217025
-0.10216986 0.05116113 -0.13181747 -0.040806465 -1.7135834 -1.0659715 -0.8084571 -1.8315567
0.18120214 -0.2623313 -0.3442117 0.6920324 -0.5564332 -0.31710723 -0.35856405 -0.45590127
-0.014857629 0.04752364 -0.079627946 0.03372937 -0.24253945 -0.1287412 0.2492621 0.08011917
0.35739937 0.18227595 0.41164792 0.425569 0.34728914 -0.21131532 0.27156055 0.40265563
0.74958193 0.7546096 0.59913206 0.9826253 0.039374534 0.53477746 0.53059477 -0.58466977
0.6520803 1.0319552 1.0031419 0.8083978 -1.128032 0.052744947 -0.38975224 -0.9468041
-0.007274372 -0.3288877 -0.24426605 0.04206926 -0.08871456 0.19344284 0.060142122 -0.2164898
0.45210353 -0.054735936 -0.70219785 0.41422102 0.3507655 0.9027329 0.6795765 0.41470996
-0.45946288 0.23266567 0.112301886 -0.86417794 0.107844085 -0.021064658 -0.28678188 0.13598405
-0.07846357 0.42968935 0.096811555 -0.18820077 -0.62519443 -0.18575266 -0.16663846 -0.8009143
0.17170273 -0.18710269 -0.16727582 0.81068325 1.2578739 0.99891955 0.9657534 1.0420668
0.10998615 -0.008183818 -0.5270819 0.2740731 -0.18385875 -0.03370471 0.39508033 0.40032837
1.4911966 2.2106376 2.1313107 0.06387455 1.9075935 1.4491776 1.2454287 1.5723336
-0.31357333 -0.15696794 0.004151279 -0.36207804 0.27794582 0.41704985 0.16757657 0.43212986
0.12575525 0.2602354 0.49680966 -0.5629879 0.2391548 0.36358085 0.28887087 0.23602581
0.19258124 0.004866003 -0.29793316 -0.401353 0.20676737 -0.3716182 0.025004933 0.098625444
0.04078402 0.53563565 0.23821466 0.33145872 0.056458943 -0.29878852 -0.28995675 0.4385688
-0.6969559 -0.84531456 -0.7264249 -0.255506 -0.77696174 -0.62326276 -0.5984528 -0.6002148
1.5163132 1.2323016 0.84104 0.82961845 0.72248006 0.8109874 0.931493 0.10816622
0.29798046 0.30011508 0.2609402 0.13709518 -0.16841574 -0.4497653 -0.7994128 -0.015520056
0.6488431 -0.041673247 0.09388218 0.7271184 -0.5492305 -0.6364976 -0.92903626 -0.2815752
-0.97486657 -1.1148121 -0.88732356 -0.55196184 -0.25731915 0.049785823 -0.18584844 0.056116264
1.9141496 1.2389513 1.5400696 2.5095894 0.4646159 -0.043218534 0.34012294 0.32917163
0.40797436 0.7145492 0.3047474 0.5254117 -0.18922491 0.32594213 -0.30636576 -0.15943085
-0.75231713 -0.31495437 -0.761868 -0.4708798 -0.7881831 -1.1250352 -1.2554879 -0.6712957
0.09544757 0.05042474 0.28994137 0.0683077 0.46583307 0.45472932 0.70669055 0.073550425
1.4442792 0.5971361 0.46719852 1.3134725 -0.6247693 -0.6965635 -1.1274631 -0.94553363
-0.28770152 -0.14272508 0.12669979 -0.16085911 -0.501907 -0.43736926 -0.5279977 -0.33273727
00000000: add0 233d 1e68 69bd c2eb aebd f69a 92be
00000010: 96bc 10be b7d2 3a3c d3d4 c3be ba14 b2be
00000020: d28c 9bbf 81d4 85bf 6030 8dbf 61de 43bf
00000030: 4877 57bf 8279 63bf d0f2 58bf 742b 65bf
00000040: 0c31 0abf 4c1f e33d 80ab 5d3e fac7 cebe
00000050: 1355 ad3e 7358 173f 3d21 ec3e 4918 6f3f
00000060: 7f72 393f 31db 133e 87fa 24bf 0dc4 4a3f
00000070: a281 863e c114 8a3e 2410 e13d 4565 243f
00000080: 6e3e d1bd 558e 513d 29fb 06be ae24 27bd
00000090: b356 dbbf c171 88bf 0bf7 4ebf 7370 eabf
000000a0: 0e8d 393e 4a50 86be 843c b0be 0929 313f
000000b0: 6872 0ebf e15b a2be b595 b7be e46b e9be
000000c0: 6a6d 73bc 26a8 423d fa13 a3bd cf27 0a3d
000000d0: 435c 78be bcd4 03be 903e 7f3e 8515 a43d
000000e0: 0dfd b63e 8ca6 3a3e 84c3 d23e 2ee4 d93e
000000f0: e2cf b13e 0b63 58be fc09 8b3e e128 ce3e
00000100: 9ae4 3f3f 182e 413f b860 193f 558d 7b3f
00000110: 3147 213d 2de7 083f 0fd5 073f ebac 15bf
00000120: bcee 263f 1c17 843f f466 803f 29f3 4e3f
00000130: 5a63 90bf 160b 583d 9b8d c7be c161 72bf
00000140: db5d eebb f863 a8be e120 7abe d150 2c3d
00000150: fbaf b5bd e115 463e 9657 763d 81af 5dbe
00000160: 1d7a e73e ca32 60bd 3dc3 33bf c714 d43e
00000170: 8997 b33e 8119 673f baf8 2d3f dd54 d43e
00000180: b83e ebbe e93f 6e3e 88fe e53d c43a 5dbf
00000190: 5cdd dc3d ca8f acbc 13d5 92be 673f 0b3e
000001a0: 82b1 a0bd 3e00 dc3e 2345 c63d b4b7 40be
000001b0: be0c 20bf f235 3ebe 46a3 2abe b808 4dbf
000001c0: d7d2 2f3e d997 3fbe 5a4a 2bbe f088 4f3f
000001d0: 0302 a13f 31b9 7f3f 9d3b 773f 7262 853f
000001e0: 6b40 e13d 6c15 06bc d7ee 06bf 4f53 8c3e
000001f0: 7845 3cbe f30d 0abd f847 ca3e d7f7 cc3e
00000200: 88df be3f 167b 0d40 6567 0840 a9d0 823d
00000210: 062c f43f a77e b93f 356a 9f3f 3a42 c93f
00000220: af8c a0be 34bc 20be 7407 883b 4b62 b9be
00000230: ea4e 8e3e 8f87 d53e 3199 2b3e 2040 dd3e
00000240: fcc5 003e 933d 853e d65d fe3e fa1f 10bf
00000250: ffe4 743e 4527 ba3e e2e6 933e c0b0 713e
00000260: 0434 453e fe72 9f3b b28a 98be 247e cdbe
00000270: d3ba 533e be44 bebe 25d7 cc3c 23fc c93d
00000280: 250d 273d 6b1f 093f 8bee 733e f5b4 a93e
00000290: 7e41 673d cffa 98be 3675 94be 178c e03e
000002a0: b46b 32bf 8966 58bf fbf6 39bf afd1 82be
000002b0: f7e6 46bf 268e 1fbf 3434 19bf ada7 19bf
000002c0: 8d16 c23f 0fbc 9d3f 664e 573f e061 543f
000002d0: 74f4 383f df9c 4f3f 5376 6e3f 4086 dd3d
000002e0: e590 983e afa8 993e f499 853e ae62 0c3e
000002f0: 2d75 2cbe a347 e6be 51a6 4cbf d547 7ebc
00000300: 951a 263f 91b1 2abd 4d45 c03d 6e24 3a3f
00000310: 5f9a 0cbf 82f1 22bf 52d5 6dbf a02a 90be
00000320: db90 79bf 2ab2 8ebf a327 63bf 5f4d 0dbf
00000330: 56bf 83be 38ec 4b3d 0e4f 3ebe 2bda 653d
00000340: db02 f53f f595 9e3f 0021 c53f 1d9d 2040
00000350: 23e2 ed3e eb05 31bd 9824 ae3e 2f89 a83e
00000360: 04e2 d03e b2ec 363f da07 9c3e 6281 063f
00000370: 2dc4 41be e3e1 a63e f9db 9cbe d741 23be
00000380: db97 40bf b341 a1be c809 43bf 2817 f1be
00000390: 5ec6 49bf 2701 90bf d4b3 a0bf 09da 2bbf
000003a0: 047a c33d 2c8a 4e3d 3273 943e e8e4 8b3d
000003b0: ac81 ee3e 48d2 e83e ace9 343f 9ba1 963d
000003c0: 24de b83f e9dd 183f a534 ef3e de1f a83f
000003d0: e1f0 1fbf fc51 32bf b650 90bf 7e0e 72bf
000003e0: 9d4d 93be 8626 12be 97bd 013e 40b8 24be
000003f0: fa7c 00bf ddee dfbe db2a 07bf 8a5c aabe

attn.fc.weight f4 [4, 4]
0.5907231 -0.4826021 -0.49877968 0.6234752 0.59362906 0.4872986 0.31724128 -0.07086649
0.18752591 -0.06190394 -0.21817835 0.9702931 0.19383824 0.17498499 0.5049479 0.031456288
00000000: a139 173f 9f17 f7be 0d60 ffbe 129c 1f3f
00000010: 13f8 173f 347f f93e 736d a23e 7322 91bd
00000020: cb06 403e fc8e 7dbd 256a 5fbe 2165 783f
00000030: 887d 463e 442f 333e 4444 013f 4fd8 003d

attn.attn_fc.weight f4 [1, 8]
-1.685058 0.52089137 -0.93884003 0.2639871 0.24120592 2.6777244 1.1678108 2.7326531
00000000: fbaf d7bf 2359 053f d257 70bf 5129 873e
00000010: affe 763e d65f 2b40 d37a 953f cae3 2e40

dense.weight f4 [1, 4]
-0.38571623 -0.4071991 -0.005267978 -0.22531843
00000000: 997c c5be 677c d0be 019f acbb e0b9 66be
