saved_model_w/logp.pth (torch_old, 19642 bytes, 9 tensors)

layers.0.weight f4 [4, 1, 16]
0.26050025 -0.2697691 0.2784777 0.10705014 -0.37751862 -0.30322754 -0.1642037 -0.15218662
-0.25343636 0.0542012 -0.047364917 0.1154498 0.32070738 -0.38723877 -0.34230006 0.25346014
0.08726431 0.20830068 -0.0012226843 -0.30226538 -0.16717915 0.11720875 -0.08589932 -0.38352633
-0.24825677 0.20730738 0.3620936 0.14756376 0.0022827582 0.043963835 0.3060622 0.35420763
-0.09547443 -0.38500562 0.09890846 0.17801154 -0.25849396 0.09350706 0.33373958 -0.14125541
0.21619676 0.27169463 -0.03691858 0.108610444 0.30301327 0.3834261 0.3182532 0.29165643
-0.11199649 -0.34828073 -0.060396153 0.1408108 -0.111739755 -0.05822123 0.15252617 0.099993065
-0.21736924 -0.16632368 0.01959057 0.1848199 -0.29603586 0.10583236 0.00031906102 0.22480187
00000000: 4a60 853e 2d1f 8abe a194 8e3e 1b3d db3d
00000010: 1f4a c1be a440 9bbe 0425 28be cfd6 1bbe
00000020: 69c2 81be 1402 5e3d b701 42bd f270 ec3d
00000030: c233 a43e 2944 c6be f441 afbe 87c5 813e
00000040: a1b7 b23d c64c 553e 7a42 a0ba 87c2 9abe
00000050: 0331 2bbe 240b f03d fceb afbd 905d c4be
00000060: 0637 7ebe 6348 543e 5564 b93e f41a 173e
00000070: 549a 153b 6c13 343d 2fb4 9c3e b45a b53e
00000080: 1988 c3bd 751f c5be 8590 ca3d a848 363e
00000090: 5259 84be a180 bf3d eadf aa3e 42a5 10be
000000a0: af62 5d3e 8f1b 8b3e f037 17bd 276f de3d
000000b0: 8e24 9b3e 6d50 c43e 15f2 a23e fe53 953e
000000c0: 6a5e e5bd da51 b2be f561 77bd b530 103e
000000d0: d0d7 e4bd 6279 6ebd d22f 1c3e 2ac9 cc3d
000000e0: 0b96 5ebe c150 2abe 677c a03c 6e41 3d3e
000000f0: 0392 97be a3be d83d a547 a739 7632 663e

layers.1.weight f4 [4, 16, 16]
0.20543516 -0.14152642 0.035187185 0.017843625 0.07676902 0.013657433 0.1971412 -0.10490085
0.035871148 -0.15149309 -0.07687366 -0.076328926 -0.012536099 -0.037081446 0.11229275 0.054546684
0.10331002 -0.047490492 -0.0033317804 0.18239397 0.06560716 -0.021950766 0.16488048 -0.12688817
0.11984897 0.02757378 -0.1104236 -0.002222702 0.14458734 -0.09459077 0.13648632 0.17704096
0.062918164 0.15975471 -0.025938913 -0.07705103 -0.1298055 0.020413257 -0.03334276 -0.035233192
-0.069128774 0.08598598 -0.055390432 0.07597884 -0.055849392 -5.7033132e-05 -0.029072102 0.07086499
-0.015445705 0.17652284 -0.08665877 0.2295189 -0.1942365 0.0010482311 0.042306 0.006983158
0.08324077 -0.085288316 -0.11176554 -0.08459374 0.17182 -0.05862501 0.07625691 -0.099544585
-0.108456545 -0.10120762 -0.17119503 -0.18463208 -0.17326643 -0.031770036 0.15249184 -0.1328413
0.081908554 -0.09293466 0.05060184 0.044067398 0.19324365 0.058855385 0.11565712 -0.020164043
-0.09503388 -0.15105456 0.14547977 0.07894367 0.18447325 -0.09113271 -0.023805052 -0.029096007
-0.17739971 0.045828223 -0.18693471 -0.031810775 -0.108177245 0.04317364 1.12354755e-05 0.00547947
-0.011594378 0.26909292 0.01620476 0.09177857 0.054991346 0.13297977 -0.063551165 0.05583802
0.08632315 0.1371222 -0.06694284 0.1406264 0.08970606 -0.17696418 0.1643771 0.015053955
0.11439133 0.039782934 -0.042172298 0.023658067 0.10727794 0.16629614 -0.09618436 -0.033530995
-0.0274863 0.10588047 0.094343275 -0.15821192 -0.12430053 -0.15413357 -0.13154472 0.21650301
-0.01776445 -0.11583073 0.06141922 -0.0027000457 0.042614922 -0.02486743 0.048640996 0.18364897
0.032988757 0.11523089 0.054607302 0.08574936 -0.08677516 -0.045715988 0.1617212 -0.053658053
0.096338786 0.13732696 -0.16797933 0.021965314 -0.12517267 -0.14836895 -0.13605663 0.056990642
0.17395093 -0.020208074 -0.10242038 0.023618715 0.04400623 -0.026907349 0.06377599 -0.18253067
-0.025896752 0.1986714 -0.069482304 -0.04551775 0.05907555 -0.13447249 0.05917841 0.07272917
-0.16941679 0.18914498 0.027753934 0.088315375 0.05029907 -0.07969634 -0.026166387 -0.07511283
-0.14679652 -0.0045469254 0.006199643 0.08522774 -0.20000093 0.11278019 -0.022778943 -0.086370096
0.09206497 0.05480496 0.0427725 0.06443194 0.11152917 0.14550382 0.14830074 -0.10407678
0.024678096 0.028455172 -0.16079761 0.07600003 0.09765057 0.14614019 -0.019688893 -0.15795894
-0.023053356 -0.16501972 0.13919637 0.15538858 -0.14228211 0.016987931 0.009631776 -0.08914415
0.01629456 0.0515607 -0.14492863 -0.065441616 -0.17815274 -0.15409495 -0.007041172 0.10491249
-0.16119498 -0.047675148 -0.045638084 0.00763418 -0.07272267 -0.124739036 0.14464456 0.14700511
0.12903187 0.18526918 -0.050473586 0.034320533 0.0950585 0.055409476 0.05471079 -0.05081542
0.11264032 -0.07028011 0.15988663 0.11329806 0.10132486 2.1442771e-05 -0.14619143 -0.08493216
0.024205169 -0.046372116 -0.11071126 -0.14565782 0.121649355 0.0701926 0.05378958 -0.19493769
-0.16717626 -0.006548494 -0.18977894 -0.13282919 0.20497307 -0.0043185186 0.051843796 0.15085943
00000000: 985d 523e 4dec 10be 7020 103d cb2c 923c
00000010: 1339 9d3d 6dc3 5f3c 62df 493e 42d6 d6bd
00000020: a0ed 123d 0121 1bbe f06f 9dbd 5752 9cbd
00000030: 3664 4dbc b7e2 17bd bef9 e53d 586c 5f3d
00000040: 3494 d33d 6485 42bd 005a 5abb 7cc5 3a3e
00000050: 0c5d 863d 18d2 b3bc 6ed6 283e f9ee 01be
00000060: 6073 f53d 68e2 e13c c525 e2bd c0aa 11bb
00000070: b40e 143e ceb8 c1bd 12c3 0b3e 3a4a 353e
00000080: 3ddb 803d bd96 233e d87d d4bc eecc 9dbd
00000090: bceb 04be b439 a73c 6b92 08bd ae50 10bd
000000a0: 6393 8dbd 6b19 b03d 14e1 62bd cb9a 9b3d
000000b0: 55c2 64bd dc36 6fb8 9e28 eebc aa21 913d
000000c0: fb0f 7dbc 67c2 343e 277a b1bd 0107 6b3e
000000d0: efe5 46be cd64 893a 0e49 2d3d fad2 e43b
000000e0: 237a aa3d a4ab aebd 55e5 e4bd 7c3f adbd
000000f0: 95f1 2f3e c720 70bd 952c 9c3d 08de cbbd
00000100: 771e debd f145 cfbd c04d 2fbe 3110 3dbe
00000110: c16c 31be 4c21 02bd d226 1c3e 8d07 08be
00000120: acbf a73d 8754 bebd e043 4f3d 0480 343d
00000130: aae1 453e 5812 713d a4dd ec3d 102f a5bc
00000140: 1fa1 c2bd 0cae 1abe a6f8 143e 38ad a13d
00000150: 8ee6 3c3e c9a3 babd d002 c3bc c05a eebc
00000160: 45a8 35be 60b6 3b3d d06b 3fbe 044c 02bd
00000170: 088c ddbd d8d6 303d 0080 3c37 208d b33b
00000180: 59f6 3dbc 8cc6 893e d8bf 843c 67f6 bb3d
00000190: 9b3e 613d d92b 083e 1d27 82bd 68b6 643d
000001a0: 31ca b03d c369 0c3e 5419 89bd 5e00 103e
000001b0: d0b7 b73d 1936 35be 7852 283e dda4 763c
000001c0: 0046 ea3d 6ef3 223d dcbc 2cbd 90ce c13c
000001d0: 89b4 db3d 8949 2a3e 4efc c4bd cc57 09bd
000001e0: f32a e1bc dcd7 d83d 0c37 c13d 4e02 22be
000001f0: 4791 febd 31d5 1dbe a9b3 06be f7b2 5d3e
00000200: c086 91bc a938 edbd b892 7b3d 40f3 30bb
00000210: fc8c 2e3d c8b6 cbbc c83b 473d 7a0e 3c3e
00000220: 381f 073d 2cfe eb3d e8ab 5f3d 5c9d af3d
00000230: 2db7 b1bd b040 3bbd 3e9a 253e 8cc8 5bbd
00000240: 454d c53d 709f 0c3e c602 2cbe 9af0 b33c
00000250: 442d 00be 08ee 17be 6e52 0bbe 056f 693d
00000260: 3120 323e 678b a5bc c7c1 d1bd 097c c13c
00000270: e03f 343d cd6c dcbc fc9c 823d 52e9 3abe
00000280: 6d25 d4bc 8470 4b3e bd4c 8ebd d270 3abd
00000290: 34f9 713d 28b3 09be 0f65 723d 08f3 943d
000002a0: 987b 2dbe 39af 413e 385c e33c b1de b43d
000002b0: 6606 4e3d d637 a3bd e45a d6bc c1d4 99bd
000002c0: d451 16be 60fe 94bb 6026 cb3b e28b ae3d
000002d0: 0bcd 4cbe 4df9 e63d e89a babc cee2 b0bd
000002e0: 8f8c bc3d 2a7b 603d 3832 2f3d e5f4 833d
000002f0: 6869 e43d f4fe 143e 26dc 173e 3526 d5bd
00000300: b829 ca3c d21a e93c 21a8 24be e7a5 9b3d
00000310: 06fd c73d c6a5 153e 9a4a a1bc fdbf 21be
00000320: 64da bcbc eefa 28be 7e89 0e3e 2f1e 1f3e
00000330: 67b2 11be 462a 8b3c 99ce 1d3c 3591 b6bd
00000340: 2b7c 853c 5031 533d 2c68 14be 4106 86bd
00000350: ac6d 36be 11cb 1dbe a2b9 e6bb 5cdc d63d
00000360: 4c10 25be 0447 43bd 00ef 3abd 2528 fa3b
00000370: a0ef 94bd 2e77 ffbd b41d 143e 8288 163e
00000380: ee20 043e 34b7 3d3e 64bd 4ebd b093 0c3d
00000390: 08ae c23d 0cf5 623d 6c18 603d d423 50bd
000003a0: f8af e63d 05ef 8fbd 52b9 233e d008 e83d
000003b0: 6883 cf3d 00e0 b337 35b3 15be eaf0 adbd
000003c0: eb49 c63c b0f0 3dbd 96bc e2bd 5327 15be
000003d0: 4c23 f93d 23c1 8f3d 7652 5c3d bf9d 47be
000003e0: 4130 2bbe c094 d6bb 6955 42be 6004 08be
000003f0: 76e4 513e 5c82 8dbb 295a 543d e57a 1a3e

layers.2.weight f4 [4, 16, 16]
0.13076963 -0.0320139 0.067446984 -0.17580518 -0.12809883 0.12266269 -0.015679557 -0.15574466
0.13434322 -0.120771095 -0.121225946 -0.043514423 -0.13321014 -0.027027994 0.046224397 -0.14940794
0.122435816 0.18984587 -0.08132521 -0.037745487 0.049419343 -0.0846487 0.026494253 -0.14210838
0.022999935 -0.106703915 -0.1583484 -0.08208638 0.023648154 0.0017056937 0.15556522 -0.013140261
-0.076121345 -0.053926945 0.17685208 -0.11370192 0.027903423 0.11424351 -0.14990391 0.06588918
0.016112342 -0.1034058 0.14016083 0.18757537 -0.102582626 0.16563731 -0.12478875 0.030229539
0.09499164 0.35603252 0.33263943 0.17288971 0.27494827 0.09396886 -0.023840848 0.16627158
0.03439459 0.038588326 -0.13174386 0.2196841 0.16576707 0.1326912 0.17284156 -0.08697964
-0.022314815 -0.1385645 0.1932975 0.15518676 -0.061524276 0.110130385 0.08618049 0.06557942
0.08165107 -0.06897634 0.12625252 -0.055198018 0.09054092 0.15504916 0.11378363 -0.13544244
-0.018925454 0.14033808 0.17592086 0.16363111 0.11587635 0.08842069 0.12880912 0.15920775
-0.19730113 -0.18298714 0.0067961407 0.12816647 0.15984769 0.15831739 0.13610257 0.06644151
0.017486384 -0.09072225 0.066662714 0.08340245 -0.112387024 -0.005838661 -0.08368217 0.05225598
-0.022888465 -0.024947021 0.14302215 -0.017277967 -0.07581147 -0.15363422 -0.14513293 -0.025442155
0.13652271 0.12164543 -0.17073812 -0.034716815 0.0061470717 -0.06593092 -0.00910151 -0.10453236
-0.055005953 0.087438494 -0.13941412 0.029332519 -0.14939971 -0.060732484 0.11492329 -0.18682547
0.094317526 -0.0529771 0.024087839 -0.06974007 0.19671771 -0.12972155 -0.13058843 -0.10894906
-0.24007009 -0.15900198 -0.065068744 0.19625771 -0.17431194 0.06623579 -0.007416403 -0.074240975
0.21678965 0.15976007 -0.11871341 -0.070179544 0.11806252 0.041974902 -0.08188073 0.14944077
0.04879578 -0.07671832 0.16393833 0.051804163 0.062277876 -0.14129956 0.09304774 0.08266196
-0.15440927 0.19331661 0.036946103 -0.09179455 -0.034749642 0.14429614 0.10341844 0.06349313
0.11874494 0.15861443 0.19305855 -0.1266471 0.024340898 0.15718156 0.14822367 0.022722855
-0.07475054 -0.13305232 -0.1476215 0.17513639 0.22523789 0.011765611 -0.14856952 -0.09754615
0.042483535 -0.018502828 -0.03707315 -0.104102544 0.04046461 0.00014262757 0.14826597 -0.032849755
-0.11090886 0.08377493 -0.02837877 -0.004409037 -0.0023063363 -0.012024677 0.038143687 0.1699419
-0.059391376 -0.070994444 -0.17593154 -0.027503718 -0.20454003 -0.059372455 -0.028726198 -0.13193145
0.09468419 -0.11894424 0.1895467 0.084612675 -0.1415178 0.14190912 -0.009696365 0.019743701
0.16122477 0.18637599 -0.08827351 -0.13745497 -0.017704112 0.09977622 -0.104506165 0.10564326
0.08224962 -0.028723517 -0.051968347 0.10776873 -0.13252032 0.10287635 -0.13502221 -0.15072125
-0.1367046 0.12064664 0.017992675 -0.070817895 -0.1682909 0.083034106 -0.14056364 0.040039312
-0.13611968 0.29213476 -0.06305599 0.14956456 0.052217633 0.0010495097 0.21984316 0.2357405
0.01814497 0.16276892 0.10113687 -0.09191348 -0.16664854 -0.13409212 -0.030260745 0.07465724
00000000: 79e8 053e 0221 03bd a521 8a3d 4606 34be
00000010: 572c 03be 9436 fb3d 6a72 80bc 877b 1fbe
00000020: 4591 093e d656 f7bd 4f45 f8bd 2e3c 32bd
00000030: 3d68 08be d069 ddbc cb55 3d3d 65fe 18be
00000040: a1bf fa3d f566 423e d58d a6bd 039b 1abd
00000050: f06b 4a3d 4c5c adbd 7a0a d93c dc84 11be
00000060: 5c6a bc3c 9587 dabd 1526 22be e71c a8bd
00000070: c6b9 c13c 9591 df3a 7d4c 1f3e 404a 57bc
00000080: 82e5 9bbd 80e2 5cbd b618 353e 8ddc e8bd
00000090: b895 e43c 80f8 e93d 6980 19be e8f0 863d
000000a0: 08fe 833c 6cc6 d3bd 5286 0f3e c213 403e
000000b0: d716 d2bd d49c 293e 3f91 ffbd f0a3 f73c
000000c0: fa8a c23d e549 b63e b74f aa3e 000a 313e
000000d0: 05c6 8c3e bf72 c03d e24d c3bc 1943 2a3e
000000e0: 57e1 0c3d cb0e 1e3d dde7 06be def4 603e
000000f0: d8be 293e 34e0 073e 61fd 303e 6222 b2bd
00000100: 8fcd b6bc dae3 0dbe c8ef 453e 47e9 1e3e
00000110: e100 7cbd 0a8c e13d 667f b03d 814e 863d
00000120: ad38 a73d 7843 8dbd 5748 013e 5117 62bd
00000130: 856d b93d 35c5 1e3e 6407 e93d 6cb1 0abe
00000140: 8e09 9bbc c9b4 0f3e 9924 343e ea8e 273e
00000150: 9450 ed3d e815 b53d 8ae6 033e 5b07 233e
00000160: 4f09 4abe fb60 3bbe 29b2 de3b 123e 033e
00000170: 1daf 233e f41d 223e 795e 0b3e 7d12 883d
00000180: 9b3f 8f3c 96cc b9bd 7686 883d e7ce aa3d
00000190: 2b2b e6bd 3d52 bfbb 8f61 abbd 5e0a 563d
000001a0: 9780 bbbc b25d ccbc 6674 123e 868a 8dbc
000001b0: 0b43 9bbd 4a52 1dbe ba9d 14be 116c d0bc
000001c0: 9ccc 0b3e 3d21 f93d f9d5 2ebe 3833 0ebd
000001d0: 606d c93b ca06 87bd 801e 15bc 1015 d6bd
000001e0: ec4d 61bd f412 b33d 93c2 0ebe c04a f03c
000001f0: 3dfc 18be a0c2 78bd e75c eb3d 2d4f 3fbe
00000200: 8c29 c13d 84fe 58bd dc53 c53c e2d3 8ebd
00000210: 5e70 493e bad5 04be f9b8 05be af20 dfbd
00000220: efd4 75be 6ad1 22be c342 85bd c8f7 483e
00000230: d47e 32be a1a6 873d 4c05 f3bb a70b 98bd
00000240: 1bfe 5d3e 2598 233e 0420 f3bd 4bba 8fbd
00000250: c3ca f13d e0ed 2b3d 16b1 a7bd 0007 193e
00000260: 15de 473d 7f1e 9dbd 73df 273e 9a30 543d
00000270: 1617 7f3d d5b0 10be d08f be3d ac4a a93d
00000280: 771d 1ebe caf4 453e cc54 173d c8fe bbbd
00000290: a455 0ebd 5ec2 133e 0ccd d33d b008 823d
000002a0: 8c30 f33d d26b 223e 24b1 453e c7af 01be
000002b0: 9066 c73c 34f4 203e f2c7 173e 4825 ba3c
000002c0: d016 99bd de3e 08be 172a 17be f456 333e
000002d0: c3a4 663e 8dc4 403c 9c22 18be 47c6 c7bd
000002e0: 3703 2e3d 3e93 97bc 04da 17bd b733 d5bd
000002f0: 38be 253d 4c8e 1539 09d3 173e 778d 06bd
00000300: 2f24 e3bd 3192 ab3d 987a e8bc af79 90bb
00000310: e725 17bb 2703 45bc 8e3c 1c3d 4005 2e3e
00000320: 5f44 73bd 8965 91bd 6627 34be 7a4f e1bc
00000330: f172 51be 8830 73bd 3453 ebbc 0a19 07be
00000340: c9e9 c13d 0a99 f3bd 8818 423e 6949 ad3d
00000350: 0bea 10be a050 113e 81dd 1ebc 8bbd a13c
00000360: 1b18 253e 59d9 3e3e bec8 b4bd ffc0 0cbe
00000370: 3708 91bc 7a57 cc3d 5407 d6bd 7e5b d83d
00000380: 7d72 a83d 954d ebbc c3dc 54bd dab5 dc3d
00000390: 68b3 07be d6b0 d23d 4343 0abe ac56 1abe
000003a0: 4afc 0bbe 9615 f73d 6065 933c f908 91bd
000003b0: 7354 2cbe c90d aa3d eaef 0fbe 4300 243d
000003c0: f562 0bbe b092 953e 8023 81bd 7427 193e
000003d0: 28e2 553d b48f 893a 911e 613e f565 713e
000003e0: c3a4 943c e5ac 263e d920 cf3d 223d bcbd
000003f0: eaa5 2abe 724f 09be 62e5 f7bc e5e5 983d

layers.3.weight f4 [4, 16, 16]
0.04924177 -0.073464476 -0.09209421 0.19279714 -0.14967044 -0.027963948 0.102277905 -0.13152197
-0.17829053 -0.16347292 -0.06825535 -0.18800157 0.08244599 0.015221569 0.10094619 -0.17003804
0.061599046 -0.16222987 -0.027620848 -0.005735927 0.007721694 0.05044827 -0.09211601 0.081514284
0.12351723 -0.14274082 -0.09097457 -0.21738724 -0.21627207 -0.07439358 -0.06623705 0.12551315
-0.14028935 -0.14193329 -0.13996445 -0.06629319 -0.12277185 0.17477477 -0.0143944435 0.12473315
0.1479784 0.015775982 0.12834992 -0.04824925 -0.010435896 0.16525309 0.02067794 0.0016302998
0.1333747 -0.05415022 -0.21732295 -0.13867828 0.04575105 -0.047563657 0.16549318 0.074335314
0.046667904 -0.10113321 -0.05498586 0.06670087 0.05737428 -0.061428145 -0.12767217 0.101556025
0.046660952 -0.16278455 -0.06843024 0.06542458 -0.07700286 0.2045287 -0.13392133 -0.09400939
0.030742941 -0.13293877 0.0670461 0.11432922 -0.040412743 0.17879839 -0.054736186 0.07083085
0.11000186 -0.025475152 -0.07857465 0.0403832 -0.08048806 0.06776339 -0.12381752 0.0052174516
-0.1683095 0.06364215 0.057719834 0.12067224 -0.11756728 -0.1480556 -0.2118928 -0.12995313
-0.04157729 -0.16498122 -0.19677143 -0.023388254 0.21458557 0.27514365 0.23318788 -0.117060065
-0.004029631 -0.1849158 0.15490304 -0.024141356 -0.008471927 0.10159265 0.057945978 0.2212709
0.21364363 0.18219538 -0.19963156 0.20018567 -0.09598192 0.24319711 0.07458772 -0.04652223
0.10969781 -0.15153536 0.048859667 -0.010900921 -0.210133 0.031114973 -0.0708104 0.103211544
0.10688117 0.10480539 -0.16377345 -2.581527e-05 0.069406465 0.09849107 0.13449278 0.073752284
0.14709404 0.03363713 0.118333384 -0.07896785 -0.17181881 -0.1773337 -0.15064086 -0.20854409
0.104694575 0.15436538 -0.15665108 -0.05300682 0.04668108 0.0030372213 -0.123845585 -0.07037883
0.057947464 -0.10649216 -0.05092041 -0.06473943 -0.053471368 -0.07297506 -0.11361958 -0.05972654
-0.1883987 -0.19290273 0.14600743 -0.05015896 -0.10572494 -0.1105779 0.061146863 0.091623224
-0.026125697 0.1549915 -0.19027552 -0.07878586 0.16080481 0.0977333 -0.17025982 0.13849823
0.07703157 0.055817526 -0.09183957 -0.035575747 -0.006990369 -0.13498563 -0.04732146 0.08982544
0.044817436 0.013684066 0.07409829 -0.07270761 -0.17432658 -0.029658403 -0.13041687 0.06436547
-0.045694545 -0.14543296 -0.116718106 0.019057656 0.024243398 -0.115022995 -0.040348466 0.12352782
0.0941222 0.06133419 -0.04242409 -0.17514856 0.13985467 -0.015173432 0.080272086 -0.10367168
0.1370345 -0.15267937 0.015184746 -0.019318543 0.13008611 0.15179954 0.10508587 -0.012612294
0.048266295 -0.09230952 0.08112084 0.13090365 0.060462933 0.051929474 0.10207245 0.15612143
0.020024132 0.21653533 -0.10579741 -0.10971763 -0.03174913 0.037625883 0.11093287 -0.18393467
0.135658 0.049956903 -0.0012147434 0.13480951 0.08785299 0.01341492 -0.06710519 0.17322153
-0.16438594 -0.17542706 0.01260539 -0.085680835 0.15710963 -0.06510846 -0.050219025 -0.09022936
0.20103225 -0.15282379 0.16247568 0.05104032 -0.10735106 -0.032536227 0.07427033 -0.012332874
00000000: bdb1 493d 8b74 96bd e49b bcbd 9d6c 453e
00000010: 3543 19be a614 e5bc 1477 d13d b2ad 06be
00000020: cb91 36be 7265 27be 76c9 8bbd 7c83 40be
00000030: 71d9 a83d e363 793c e0bc ce3d 741e 2ebe
00000040: 484f 7c3d 961f 26be 1e45 e2bc 71f4 bbbb
00000050: 4406 fd3b d8a2 4e3d 52a7 bcbd f6f0 a63d
00000060: 9af6 fc3d a62a 12be e050 babd c39a 5ebe
00000070: 6d76 5dbe a95b 98bd 4aa7 87bd 8586 003e
00000080: 03a8 0fbe f656 11be d752 0fbe b9c4 87bd
00000090: cf6f fbbd 28f8 323e acd6 6bbc 1874 ff3d
000000a0: a687 173e a23c 813c 296e 033e 01a1 45bd
000000b0: 52fb 2abc 1b38 293e c964 a93c c9af d53a
000000c0: 6193 083e 9fcc 5dbd e889 5ebe ae01 0ebe
000000d0: 7465 3b3d 1cd2 42bd 0b77 293e 1d3d 983d
000000e0: d826 3f3d ee1e cfbd da38 61bd 779a 883d
000000f0: 4b01 6b3d 149c 7bbd 7ebc 02be 9bfc cf3d
00000100: 8e1f 3f3d feb0 26be 2725 8cbd 52fd 853d
00000110: adb3 9dbd f96f 513e ac22 09be ff87 c0bd
00000120: 9fd8 fb3c 1a21 08be 774f 893d 7025 ea3d
00000130: d587 25bd ed16 373e 0d33 60bd c40f 913d
00000140: a848 e13d 44b1 d0bc bfeb a0bd db68 253d
00000150: edd6 a4bd 88c7 8a3d 0a94 fdbd 28f7 aa3b
00000160: 5359 2cbe d156 823d a26b 6c3d 0223 f73d
00000170: 1dc7 f0bd e39b 17be 6dfa 58be 6f12 05be
00000180: f34c 2abd d6f0 28be 737e 49be b998 bfbc
00000190: 52bc 5b3e a1df 8c3e cec8 6e3e 30bd efbd
000001a0: ff0a 84bb 915a 3dbe e79e 1e3e 18c4 c5bc
000001b0: d6cd 0abc cf0f d03d c358 6d3d d794 623e
000001c0: 65c5 5a3e 6d91 3a3e 376c 4cbe 79fd 4c3e
000001d0: 2b92 c4bd aa08 793e 72c1 983d 188e 3ebd
000001e0: 3fa9 e03d 162c 1bbe 1321 483d c799 32bc
000001f0: 1b2d 57be d4e4 fe3c 0b05 91bd 9360 d33d
00000200: 84e4 da3d 35a4 d63d 3ab4 27be df8d d8b7
00000210: fa24 8e3d b0b5 c93d 7ab8 093e 700b 973d
00000220: d29f 163e 16c7 093d c658 f23d e5b9 a1bd
00000230: 45f1 2fbe f796 35be 9941 1abe 958c 55be
00000240: 1c6a d63d f511 1e3e 2469 20be ae1d 59bd
00000250: a934 3f3d 1e0c 473b c1a2 fdbd c722 90bd
00000260: 525a 6d3d 9018 dabd eb91 50bd 1b96 84bd
00000270: cb04 5bbd f373 95bd 62b1 e8bd d1a3 74bd
00000280: 97eb 40be 4b88 45be f982 153e 7b73 4dbd
00000290: 5186 d8bd ab76 e2bd 2275 7a3d f5a4 bb3d
000002a0: 8f05 d6bc 17b6 1e3e 96d7 42be 7b5a a1bd
000002b0: 04aa 243e 6528 c83d 9758 2ebe 7bd2 0d3e
000002c0: bac2 9d3d eba0 643d 6216 bcbd e0b7 11bd
000002d0: 770f e5bb ac39 0abe 26d4 41bd 66f6 b73d
000002e0: 7d92 373d 2233 603c d8c0 973d bae7 94bd
000002f0: ab82 32be 2ef6 f2bc 008c 05be 0bd2 833d
00000300: 342a 3bbd 61ec 14be e709 efbd cd1e 9c3c
00000310: 179a c63c 2d91 ebbd 6f44 25bd 27fc fc3d
00000320: 24c3 c03d 8f39 7b3d e2c4 2dbd 255a 33be
00000330: 1036 0f3e fd99 78bc b165 a43d d151 d4bd
00000340: c652 0c3e fb57 1cbe 71c9 783c ec41 9ebc
00000350: 4b35 053e 5771 1b3e 4337 d73d cca3 4ebc
00000360: e1b2 453d c60c bdbd af22 a63d 9b0b 063e
00000370: fba7 773d 00b4 543d 5c0b d13d 4cde 1f3e
00000380: a609 a43c 70bb 5d3e 50ac d8bd a3b3 e0bd
00000390: 600b 02bd 991d 1a3d c630 e33d 5f59 3cbe
000003a0: eee9 0a3e 9c9f 4c3d 0638 9fba 810b 0a3e
000003b0: 45ec b33d 41ca 5b3c 726e 89bd fc60 313e
000003c0: ca54 28be 27a3 33be d686 4e3c 6f79 afbd
000003d0: 59e1 203e 9657 85bd 77b2 4dbd 2cca b8bd
000003e0: 66db 4d3e d77d 1cbe 0660 263e a80f 513d
000003f0: dfda dbbd b544 05bd 0b1b 983d d30f 4abc

layers.4.weight f4 [4, 16, 16]
0.14180091 -0.14955096 -0.065545335 0.017594395 -0.020401003 0.11035304 -0.0795682 0.11952585
0.09454385 0.17277177 -0.19553381 0.061936814 -0.07090458 -0.10344192 0.09518354 -0.217485
0.069843695 0.019113295 -0.07116399 -0.078632705 -0.056475762 -0.04307048 0.12271669 0.22226249
0.049308594 -0.032846674 -0.18417658 0.20564224 -0.12843779 0.06431352 -0.18978827 0.09848464
-0.1762801 -0.014378401 -0.09313342 0.008874942 -0.0048102364 0.041789863 0.03137321 -0.010362481
0.08260851 -0.103686064 -0.15202963 -0.053382896 -0.19370297 0.03384896 0.0445369 -0.08316743
-0.059187133 0.0503044 -0.010391953 0.03762591 -0.12625517 0.06350289 -0.062895 0.069225445
-0.16876762 -0.020121623 -0.15382504 0.18025923 -0.18777718 0.020871788 0.052879166 0.0006986769
0.13434964 0.136788 0.032719295 -0.16505913 0.08047957 0.16708691 -0.058954235 0.14922898
-0.035815783 -0.09033288 -0.05745009 0.12779985 0.035318457 0.10861057 0.025580328 0.023849914
-0.0005296087 -0.16679586 -0.036691494 0.09746323 -0.051138982 -0.085106134 0.01637778 0.1733121
0.057690717 0.18915817 -0.05824546 -0.0061272103 -0.15868434 0.08578508 -0.119182765 -0.027321331
0.0011327678 -0.08203348 0.05491736 -0.088085756 0.13293079 -0.17135568 -0.12256808 0.09338871
0.04770589 0.11038026 0.0045411526 0.059933662 0.15685391 0.032331962 0.123120464 -0.10968225
-0.002371821 0.14806469 0.075638525 0.09634429 -0.08306189 -0.060709935 0.073626995 -0.058660265
0.09792702 -0.06962513 -0.09304502 -0.008766592 0.11160481 0.18458523 -0.17225221 -0.1606125
-0.046661563 -0.19297302 -0.07509924 -0.019901901 -0.10755514 -0.10047083 -0.06362469 -0.1271992
0.052316125 -0.09959846 -0.16007127 0.019684957 -0.064595 -0.14545406 -0.04248174 0.06026146
-0.12702899 -0.05774692 -0.14418715 0.13757323 0.11429525 0.20640069 0.1904726 -0.1441319
-0.20548697 -0.14148228 0.13179621 0.097140834 -0.13113524 -0.04098622 -0.042933233 -0.14824155
-0.0991795 -0.02629461 0.15663832 -0.076698616 -0.018387385 0.14106303 0.04455032 0.20888175
0.13453938 -0.122696295 0.16930674 0.17573588 -0.03604218 -0.10751653 -0.20314242 -0.01937716
-0.008436903 0.15593795 0.12654185 0.08396321 0.023845466 -0.09990051 -0.14770536 -0.103766225
-0.1941101 0.06750953 -0.06810569 -0.13174184 -0.085272685 0.20696132 0.13865754 0.168711
0.0018962518 0.090345435 -0.0741609 0.023687113 -0.0043872795 0.16413848 -0.00643659 -0.15324175
0.005599538 -0.013603772 0.13507906 -0.13867155 0.1734839 -0.006673296 -0.09110712 -0.19471557
0.16219322 0.092353694 0.08006185 0.12116682 0.021300873 0.031542256 -0.22463529 -0.13473393
0.0811484 0.2027389 -0.16168694 0.103699334 -0.04579554 0.088292666 0.12760143 0.17750204
0.10414555 -0.18832189 0.09118113 -0.019811906 -0.19594479 -0.095804825 -0.1458095 -0.0559251
0.078888945 0.17442739 0.07973982 0.12388473 -0.20755506 -0.15881482 -0.07933864 0.15183415
-0.14931428 0.12661134 0.087157995 -0.14754318 0.046759494 -0.034576815 0.029853696 0.13813382
0.15944746 0.09214254 0.11064436 0.16681534 0.17424247 0.21685508 -0.18911447 -0.1426203
00000000: 4234 113e e323 19be a23c 86bd 1f22 903c
00000010: 0120 a7bc c600 e23d a7f4 a2bd f8c9 f43d
00000020: 35a0 c13d 15eb 303e 043a 48be 75b1 7d3d
00000030: 6c36 91bd 5bd9 d3bd 96ef c23d 63b4 5ebe
00000040: 360a 8f3d 7c93 9c3c 6dbe 91bd 2f0a a1bd
00000050: 2153 67bd ac6a 30bd e352 fb3d c798 633e
00000060: cff7 493d 3c8a 06bd c998 3cbe e193 523e
00000070: 3285 03be cfb6 833d db57 42be 51b2 c93d
00000080: c582 34be 6393 6bbc bcbc bebd 3468 113c
00000090: 309f 9dbb d92b 2b3d 3281 003d 65c7 29bc
000000a0: a72e a93d 5c59 d4bd a8ad 1bbe 06a8 5abd
000000b0: 125a 46be 35a5 0a3d 536c 363d af53 aabd
000000c0: 356e 72bd fd0b 4e3d 0343 2abc a01d 1a3d
000000d0: 0949 01be ce0d 823d 18cf 80bd 12c6 8d3d
000000e0: 6bd1 2cbe 1ad6 a4bc 5084 1dbe e095 383e
000000f0: a948 40be 50fb aa3c d397 583d 6a27 373a
00000100: f492 093e 2712 0c3e ab04 063d 4305 29be
00000110: 79d2 a43d d518 2b3e ff79 71bd 7bcf 183e
00000120: 92b3 12bd 7200 b9bd c950 6bbd f7dd 023e
00000130: 16aa 103d 386f de3d d68d d13c e560 c33c
00000140: 70d5 0aba 89cc 2abe d249 16bd cd9a c73d
00000150: 1c77 51bd 204c aebd b22a 863c ba78 313e
00000160: 1a4d 6c3d aeb2 413e cb92 6ebd c4c6 c8bb
00000170: 267e 22be 17b0 af3d 1816 f4bd fcd0 dfbc
00000180: 6179 943a 2b01 a8bd 07f1 603d 4e66 b4bd
00000190: 021f 083e dd77 2fbe f904 fbbd 9442 bf3d
000001a0: 4067 433d 0c0f e23d f3cd 943b 007d 753d
000001b0: 509e 203e 856e 043d 9526 fc3d 16a1 e0bd
000001c0: 8e70 1bbb 459e 173e 5fe8 9a3d 2850 c53d
000001d0: 5a1c aabd fbaa 78bd c0c9 963d bf45 70bd
000001e0: f68d c83d 9f97 8ebd 638e bebd c0a1 0fbc
000001f0: 1091 e43d e903 3d3e e262 30be 9a77 24be
00000200: 3220 3fbd b89a 45be a1cd 99bd 5009 a3bc
00000210: df45 dcbd a7c3 cdbd a94d 82bd 8240 02be
00000220: 6f49 563d 47fa cbbd b9e9 23be 5942 a13c
00000230: 624a 84bd e9f1 14be 5501 2ebd b8d4 763d
00000240: e313 02be 0988 6cbd cca5 13be ffdf 0c3e
00000250: a113 ea3d b45a 533e 400b 433e 5097 13be
00000260: 2d6b 52be bbe0 10be 96f5 063e c6f1 c63d
00000270: 5148 06be 2be1 27bd c2da 2fbd a2cc 17be
00000280: 9f1e cbbd cb67 d7bc cc65 203e 2a14 9dbd
00000290: 24a1 96bc d472 103e 657a 363d 19e5 553e
000002a0: b1c4 093e 3248 fbbd bf5e 2d3e 1bf4 333e
000002b0: f7a0 13bd a031 dcbd 9104 50be dabc 9ebc
000002c0: f03a 0abc 33ae 1f3e 3094 013e e7f4 ab3d
000002d0: 9157 c33c a398 ccbd 1340 17be 6383 d4bd
000002e0: ccc4 46be 7042 8a3d ff7a 8bbd 55e7 06be
000002f0: 72a3 aebd abed 533e 3efc 0d3e 94c2 2c3e
00000300: a78b f83a 0707 b93d ace1 97bd 7a0b c23c
00000310: 2bc3 8fbb eb13 283e 08ea d2bb 68eb 1cbe
00000320: 547c b73b 5be2 5ebc 2a52 0a3e eaff 0dbe
00000330: c3a5 313e aaab dabb 5f96 babd 8563 47be
00000340: fb15 263e ef23 bd3d 78f7 a33d 4f26 f83d
00000350: 2b7f ae3c 7432 013d cb06 66be b1f7 09be
00000360: 2231 a63d c99a 4f3e 4391 25be 5160 d43d
00000370: 1b94 3bbd c9d2 b43d f3a9 023e 18c3 353e
00000380: 434a d53d 74d7 40be 2cbd ba3d 944c a2bc
00000390: c0a5 48be 5235 c4bd 164f 15be b811 65bd
000003a0: 8790 a13d 189d 323e a14e a33d 47b7 fd3d
000003b0: 5089 54be 5aa0 22be 4c7c a2bd 697a 1b3e
000003c0: d8e5 18be 67a6 013e e47f b23d 8f15 17be
000003d0: e286 3f3d 6ba0 0dbd bd8f f43c f472 0d3e
000003e0: 3246 233e 3ab5 bc3d 8399 e23d a4d1 2a3e
000003f0: 9e6c 323e 420f 5e3e 39a7 41be 0e0b 12be

layers.5.weight f4 [4, 16, 4]
0.28685674 0.032180633 -0.3404737 0.32693228 -0.26299554 -0.056546155 -0.37028822 0.36058283
-0.0017086681 0.093036965 -0.34465584 0.06351418 0.002763995 0.11434554 -0.16367252 -0.14592774
0.06860618 0.30176952 -0.016433826 0.35620046 -0.21994008 -0.41079596 0.22456948 0.053429633
0.21875587 -0.22157758 -0.007623684 -0.24319749 -0.3918122 -0.33995107 -0.011939598 0.26383144
0.26925862 0.06641209 0.11055438 -0.029735163 -0.40130794 -0.30585346 0.19572312 0.32024515
0.07378457 -0.07421715 -0.084753275 -0.34480906 -0.18900795 0.040476847 -0.06686459 -0.02968238
0.041525077 0.10705138 0.081516035 0.17483726 -0.064805366 -0.19013257 0.3571617 0.3544627
-0.17434503 0.037890904 -0.33597547 0.31359446 -0.07203675 0.32756838 0.11532169 0.23330554
-0.06110963 0.11816072 -0.041736986 0.30806825 0.28230917 -0.36708814 0.089835875 0.24084517
0.35671327 -0.023406493 -0.30078396 -0.210989 0.03950084 0.07324697 -0.20269477 -0.14986682
0.115117356 -0.21386954 -0.36095428 -0.23434593 -0.2978959 -0.031698316 0.029192412 0.26634526
-0.1265279 0.48302814 0.1029911 0.12518756 0.22685507 -0.029191371 -0.31382245 -0.014213186
0.1341558 -0.09124202 0.038601432 0.0439445 0.35047996 -0.3449067 -0.16586581 0.078953385
-0.15286636 -0.07030118 0.20861967 0.05037196 -0.1250197 -0.33201942 -0.07871759 0.23304588
0.042298738 0.29730195 0.08084496 -0.30423585 -0.13940234 -0.34085643 0.25970778 -0.20984378
0.1474053 0.31957498 0.05536942 -0.046022005 0.11794984 0.0018265513 0.34903798 -0.024629267
0.096632645 -0.19691442 0.28061852 0.0028376153 -0.024507098 -0.3278734 0.0030511734 0.018490264
-0.07381519 0.24225715 0.19872841 0.24508598 -0.3442605 -0.292608 -0.17981163 -0.37915313
-0.24523647 0.21859698 0.27294824 0.33296236 0.19424222 0.31370547 0.13668135 -0.1856971
0.31759644 0.3591862 0.092153065 -0.21242236 -0.20682639 -0.33508432 -0.33815438 -0.08405222
0.12012565 -0.328239 0.29492062 0.16751206 -0.1587181 -0.2425439 -0.08160791 -0.2561872
0.24884742 0.15592535 0.2645555 0.026746266 -0.36022037 -0.056361474 0.16511452 0.2704226
0.21719527 0.17031513 0.20604004 0.21781121 -0.14203963 -0.27061364 -0.05780544 -0.2231716
0.26604947 0.13764004 0.20847736 -0.11847944 0.3009788 0.11278981 0.20023462 0.013777125
0.27625692 0.36562884 -0.17700817 -0.12872897 -0.15648635 -0.16190524 -0.16430213 0.17620797
0.27720144 0.048996598 -0.15076566 -0.016599039 -0.10146234 0.07349921 -0.09725118 0.112384155
-0.18940282 -0.38310397 -0.19161925 0.24125935 -0.33118293 -0.31658733 -0.2624807 0.031263445
0.1389005 0.31091514 0.18059824 -0.054368734 0.30133328 -0.19128953 0.26544803 -0.015941128
-0.10306944 0.3003877 0.33451214 0.29209992 0.22318044 0.050742142 -0.07621318 -0.020848347
0.33340046 0.05438425 0.23327728 0.17939419 -0.29431078 -0.2831086 0.21603778 0.24975063
0.008129557 0.17551093 -0.06839915 0.0027985345 -0.16016564 0.11412288 0.27651453 -0.12135921
0.2513827 -0.1837398 0.15182309 0.27257028 0.09496125 -0.17677751 0.004785784 -0.37014425
00000000: e3de 923e d7cf 033d 9252 aebe ab63 a73e
00000010: 5aa7 86be f19c 67bd 6b96 bdbe 509e b83e
00000020: 63f5 dfba 2a8a be3d bb76 b0be b913 823d
00000030: 2424 353b ff2d ea3d c599 27be 156e 15be
00000040: 6681 8c3d 8981 9a3e 3ba0 86bc e85f b63e
00000050: f937 61be d953 d2be 8bf5 653e 08d9 5a3d
00000060: 8a01 603e 3ce5 62be 19d0 f9bb c308 79be
00000070: 9c9b c8be 110e aebe 4e9e 43bc ea14 873e
00000080: 44dc 893e 1003 883d 566a e23d 2897 f3bc
00000090: 3c78 cdbe d398 9cbe a46b 483e 2cf7 a33e
000000a0: 5d1c 973d 29ff 97bd 2093 adbd d08a b0be
000000b0: 4d8b 41be 0dcb 253d 4df0 88bd 7628 f3bc
000000c0: 3316 2a3d c13d db3d e1f1 a63d 8a08 333e
000000d0: adb8 84bd 1db2 42be e6dd b63e 237c b53e
000000e0: 8187 32be 7e33 1b3d fa04 acbe 748f a03e
000000f0: 0188 93bd 0bb7 a73e c72d ec3d a6e7 6e3e
00000100: 174e 7abd 3ffe f13d 67f4 2abd 1fbb 9d3e
00000110: d48a 903e faf2 bbbe dffb b73d 1ea0 763e
00000120: 1fa3 b63e f9be bfbc 5b00 9abe 800d 58be
00000130: a2cb 213d 8202 963d 388f 4fbe b076 19be
00000140: a6c2 eb3d 9e00 5bbe 00cf b8be 61f8 6fbe
00000150: d085 98be 18d6 01bd ed24 ef3c 685e 883e
00000160: 8890 01be 774f f73e ffec d23d 2b31 003e
00000170: b24c 683e be22 efbc 56ad a0be 6cde 68bc
00000180: 2360 093e 19dd babd 891c 1e3d 26ff 333d
00000190: 1c72 b33e 9c97 b0be bad8 29be 50b2 a13d
000001a0: 0089 1cbe 11fa 8fbd 65a0 553e d452 4e3d
000001b0: 2a05 00be 73fe a9be b036 a1bd 94a3 6e3e
000001c0: 7141 2d3d f637 983e 0b92 a53d cdc4 9bbe
000001d0: 7dbf 0ebe bc84 aebe 6bf8 843e 4ae1 56be
000001e0: 6af1 163e 559f a33e 0ccb 623d 9281 3cbd
000001f0: b08f f13d e468 ef3a 1bb5 b23e 51c3 c9bc
00000200: 56e7 c53d efa3 49be 3bad 8f3e 49f7 393b
00000210: 1cc3 c8bc 06df a7be 32f6 473b e578 973c
00000220: 6b2c 97bd 4212 783e 767f 4b3e d2f7 7a3e
00000230: ea42 b0be b7d0 95be 8a20 38be 5c20 c2be
00000240: 451f 7bbe e3d7 5f3e dfbf 8b3e 0b7a aa3e
00000250: 6fe7 463e 019e a03e 32f6 0b3e 6127 3ebe
00000260: 009c a23e 41e7 b73e bfba bc3d 3f85 59be
00000270: 4cca 53be 2c90 abbe 9222 adbe 9223 acbd
00000280: 7004 f63d f10e a8be d6ff 963e 4888 2b3e
00000290: ff86 22be 6e5d 78be 0c22 a7bd f82a 83be
000002a0: dcd1 7e3e e5aa 1f3e d273 873e fc1a db3c
000002b0: ce6e b8be 4adb 66bd c813 293e d574 8a3e
000002c0: 7068 5e3e 1767 2e3e 29fc 523e e709 5f3e
000002d0: d672 11be df8d 8abe 66c5 6cbd 1987 64be
000002e0: a337 883e 83f1 0c3e 177b 553e 59a5 f2bd
000002f0: e519 9a3e 58fe e63d 4e0a 4d3e 73b9 613c
00000300: 8c71 8d3e b433 bb3e a141 35be 87d1 03be
00000310: f53d 20be 7dca 25be d13e 28be dd6f 343e
00000320: 59ed 8d3e a8b0 483d 5062 1abe b5fa 87bc
00000330: 7dcb cfbd c186 963d a02b c7bd aa29 e63d
00000340: d0f2 41be 3426 c4be d637 44be b10c 773e
00000350: cf90 a9be bc17 a2be df63 86be 190e 003d
00000360: ef3b 0e3e 4530 9f3e bfee 383e c0b1 5ebd
00000370: 5b48 9a3e 67e1 43be cee8 873e f896 82bc
00000380: 1216 d3bd 6bcc 993e 2d45 ab3e 1f8e 953e
00000390: 6a89 643e fed6 4f3d a815 9cbd 27ca aabc
000003a0: 77b3 aa3e 05c2 5e3d 3de0 6e3e 1cb3 373e
000003b0: e7af 96be 9cf3 90be 0239 5d3e a1be 7f3e
000003c0: d531 053c 23b9 333e db14 8cbd 9e67 373b
000003d0: 7602 24be 42b9 e93d 5093 8d3e 2d8b f8bd
000003e0: 3cb5 803e 4926 3cbe 8377 1b3e 558e 8b3e
000003f0: 0b7b c23d 2a05 35be 11d2 9c3b 8c83 bdbe

attn.fc.weight f4 [4, 4]
-0.4535569 0.09268882 -0.18948689 0.23584585 -0.49850044 -0.29398286 -0.4678527 0.42868093
0.20747943 0.3926253 0.045620993 0.32374614 -0.16421239 0.41935644 -0.26412657 0.16748928
00000000: 9c38 e8be a3d3 bd3d da08 42be 9381 713e
00000010: 733b ffbe ec84 96be 648a efbe 117c db3e
00000020: 7d75 543e 2f06 c93e 14dd 3a3d 0ec2 a53e
00000030: 4b27 28be e3b5 d63e 993b 87be 4f82 2b3e

attn.attn_fc.weight f4 [1, 8]
0.021227427 -0.1307326 0.08542522 0.25811675 -0.0781212 0.24256052 0.116080165 0.30440333
00000000: 24e5 ad3c c4de 05be 6bf3 ae3d e127 843e
00000010: 02fe 9fbd c961 783e 70bb ed3d c1da 9b3e

dense.weight f4 [1, 4]
0.33567077 0.00089062296 -0.44739145 -0.43721604
00000000: 0add ab3e b278 693a 7e10 e5be c8da dfbe
