saved_model_w/logp.pth (torch_old, 19662 bytes, 9 tensors)

layers.0.weight f4 [4, 1, 16]
0	0xbaecd8c8	-0.0018069977
1	0xbb6a66a5	-0.0035766747
2	0xbd4cbc77	-0.04998442
3	0xbf280044	-0.65625405
4	0x3dc30c97	0.09523886
5	0x3e98ac07	0.29818746
6	0xbb485592	-0.0030568582
7	0xbf2e3a92	-0.6805812
8	0x3e5f5d75	0.21812995
9	0x3e810c81	0.25204852
10	0x3e8f96ca	0.2804473
11	0xbec2fbf1	-0.3808284
12	0xbf129475	-0.5725778
13	0xbc90bed0	-0.017669111
14	0xbf3603f4	-0.7109978
15	0x3e7e4213	0.24829893
16	0xbe0a3fb0	-0.13500857
17	0xbd637a50	-0.05553657
18	0xbe9a4c68	-0.30136418
19	0xbacf0533	-0.0015794396
20	0xbe61bb03	-0.22043996
21	0xbea50047	-0.32226774
22	0x3f1d6371	0.6147986
23	0x3f03298e	0.5123528
24	0xbe65ec44	-0.2245341
25	0x3dcd31fa	0.10019298
26	0x3f799b93	0.9750301
27	0x3f4180f2	0.7558738
28	0x3f0be982	0.5465318
29	0xbedcacb2	-0.43100506
30	0xbe40aba4	-0.18815476
31	0xbe89ddcc	-0.2692703
32	0xbcaf2918	-0.0213819
33	0x3e3c9a84	0.18418318
34	0x3f3fc33a	0.7490727
35	0x3f23b90f	0.6395425
36	0xbe073bf7	-0.13206469
37	0x3cb94e38	0.022620305
38	0x3e94f50f	0.29093215
39	0x3f23291d	0.6373461
40	0x3e00c927	0.12576734
41	0xbe08a0a7	-0.13342534
42	0x3e1d9096	0.15387186
43	0xbe985224	-0.29750168
44	0xbd4137a8	-0.04717222
45	0x3bdb4bfe	0.0066924086
46	0x3f31ff83	0.69530505
47	0xbcff14ed	-0.031137908
48	0xbd1253bd	-0.03572439
49	0x3ed27a03	0.41108713
50	0xbe5da9e0	-0.21646833
51	0x3e7603d3	0.24024896
52	0xbdb86a8c	-0.09004697
53	0x3cffa33f	0.031205771
54	0xbea5db52	-0.3239389
55	0x3e777494	0.24165565
56	0xbc14f0d4	-0.009090621
57	0xbeb7e4c3	-0.3591672
58	0xbc0b1c94	-0.0084907
59	0xbe4f99ae	-0.20273468
60	0x3e4e8a8c	0.20170039
61	0x3df7bb09	0.12096221
62	0xbec1412c	-0.37745035
63	0xbec62c9b	-0.38705906

layers.1.weight f4 [4, 16, 16]
0	0xbd9ad3bd	-0.07559917
1	0x3e3098f2	0.17245844
2	0xbe16b5a1	-0.14717723
3	0x3d994c09	0.07485206
4	0x3c4dc317	0.01255872
5	0x3dbedaf8	0.09319109
6	0x3e03bb9e	0.12864539
7	0x3cbc4c2f	0.022985546
8	0x3d002ee7	0.03129473
9	0x3d3ce019	0.046112154
10	0x3de9be9c	0.11413309
11	0xbce9b44e	-0.028528359
12	0x3e4a0c07	0.1973115
13	0xbdeb97d4	-0.11503568
14	0xbead6aed	-0.3387064
15	0xbcb4ffa3	-0.022094553
16	0xbed8e61e	-0.42363065
17	0x3f0fc198	0.56154776
18	0x3f2aa3cc	0.66656184
19	0xbec14171	-0.3774524
20	0x3eb3338f	0.35000274
21	0x3e15c2cb	0.14625089
22	0xbf3314bb	-0.6995351
23	0xbe1c479d	-0.15261693
24	0xbfa03d63	-1.2518734
25	0x3e150752	0.14553574
26	0x3ee90665	0.4551269
27	0x3f0c692a	0.5484797
28	0xbf6101f7	-0.87893623
29	0xbe309959	-0.17245997
30	0xbf1ec893	-0.620248
31	0x3f16c64e	0.5889634
32	0xbe63b64c	-0.2223751
33	0xbf7a9a11	-0.97891337
34	0x3e1b2aab	0.15152995
35	0x3eedcbe8	0.4644463
36	0x3da8fda0	0.082515
37	0xbf2524f1	-0.64509493
38	0xbe051ef1	-0.13000084
39	0x3e53ea3d	0.20694824
40	0xbf261343	-0.6487314
41	0x3ed09af9	0.40743235
42	0xbe8a9f35	-0.2707459
43	0xbf821adf	-1.016445
44	0xbff3d707	-1.9049996
45	0x3c4dbd6d	0.01255737
46	0xbe33ec65	-0.17570646
47	0x3d062f0c	0.03275971
48	0xbc87d210	-0.016579658
49	0x3d61ebb8	0.05515644
50	0xbd695dd4	-0.056974247
51	0x3cf97849	0.030452864
52	0x3e2c10f7	0.16803347
53	0xbd306da7	-0.043073323
54	0x3e04adfc	0.12956995
55	0x3de3fcb5	0.111321844
56	0xbe7e6006	-0.24841318
57	0x3dcf5513	0.101236485
58	0x3ea75b1b	0.32686695
59	0xbda67c2e	-0.08129154
60	0xbda49e6d	-0.0803803
61	0x3e2f6d46	0.17131528
62	0x3e1a56a3	0.15072112
63	0x3e6d4f6b	0.23174827
64	0xbdaf2718	-0.085523784
65	0xbdd03cb6	-0.1016783
66	0xbdcb1842	-0.09916736
67	0x3c020793	0.007936376
68	0x3d9d191e	0.07670806
69	0xbe65a036	-0.22424397
70	0x3e859935	0.2609345
71	0x3e3f31f5	0.18671401
72	0x3cdd0140	0.026978135
73	0xbd22a6f7	-0.03971001
74	0x3e255a39	0.16147698
75	0x3cdee6bb	0.02720963
76	0x3e7e24c8	0.24818718
77	0x3e57a23d	0.21057983
78	0xc01e7088	-2.4756184
79	0xbe8cb68d	-0.27483025
80	0xbe2fa67a	-0.1715335
81	0x3da5ab10	0.08089268
82	0x3e190819	0.14944495
83	0xbc1d1b00	-0.009588957
84	0x3e7d6ad2	0.2474778
85	0xbe68c42f	-0.22731088
86	0x3e690d9a	0.22759095
87	0x3d41eacb	0.047343057
88	0xbec68bb9	-0.38778475
89	0x3e1e3da8	0.15453207
90	0x3e3b8b89	0.18314947
91	0x3c8cd701	0.017192366
92	0x3dcf4f25	0.101225175
93	0x3e317b94	0.17332298
94	0xc0089c30	-2.134533
95	0x3c8d727d	0.017266506
96	0xbd82c496	-0.06385152
97	0xbb1ef1d8	-0.0024253037
98	0xbe659918	-0.22421682
99	0x3ee146ee	0.43999428
100	0xbe086822	-0.13320974
101	0x3d409b19	0.047022913
102	0xbe37fcd1	-0.17967536
103	0xbdea8915	-0.114519276
104	0xbf3c4ce9	-0.73554856
105	0xbda74246	-0.081669375
106	0xbcc44b7a	-0.023961771
107	0xbec62609	-0.38700894
108	0xbf2b045b	-0.6680352
109	0xbde83b26	-0.11339407
110	0x3e478115	0.19482835
111	0xbeaa9b8c	-0.33321798
112	0xbbecf0e2	-0.007230864
113	0xbe007984	-0.12546355
114	0xbd82e69c	-0.063916415
115	0xbe651e19	-0.22374763
116	0x398f2e8f	0.00027309774
117	0xbe3a90e0	-0.18219328
118	0x3dddbbe6	0.108268544
119	0x3e626c0b	0.22111528
120	0xbeb8586b	-0.36004958
121	0x3e6d355d	0.23164888
122	0x3e8bd3c7	0.2731001
123	0xbe8e740c	-0.27822912
124	0xbe37cf66	-0.1795021
125	0xbc81ca4e	-0.015843537
126	0xbe8742a9	-0.26418045
127	0xbe549314	-0.20759231
128	0xbe7b8ba1	-0.24564983
129	0xbd81768d	-0.0632144
130	0x3dd91887	0.10600381
131	0x3d7467d6	0.05966934
132	0x3e47c9c3	0.1951056
133	0xbdfaeb8f	-0.122519605
134	0x3dacb871	0.08433617
135	0x3dd50ea2	0.104031816
136	0xbef4e524	-0.4783107
137	0x3e2463b2	0.16053656
138	0xbdbe9522	-0.093057886
139	0x3dd6f4a3	0.104958795
140	0x3e6adf8c	0.22936839
141	0xbca76624	-0.020434447
142	0xc01a38ce	-2.409717
143	0xbdb37ee7	-0.08764439
144	0xbe08a206	-0.13343057
145	0xbdd60a03	-0.10451128
146	0xbdbc0279	-0.09180159
147	0x3ebaa87b	0.36456665
148	0xbe0d9775	-0.13827308
149	0x3e0b002a	0.13574281
150	0x3e9a9835	0.3019425
151	0xbe0cbbcc	-0.13743514
152	0xbea51ba0	-0.3224764
153	0x3db61e8e	0.088925466
154	0xbe0728bb	-0.13199131
155	0xbd06f6ec	-0.032950327
156	0x3e0bc41d	0.1364903
157	0x3e29f0ab	0.16595714
158	0x3bc4cc32	0.0060057873
159	0xbf1f7c35	-0.622989
160	0xbdfd2337	-0.12360232
161	0xbd4a7bab	-0.049434345
162	0x3d0c6afb	0.034281712
163	0x3ee89163	0.4542342
164	0x3dd6dc16	0.10491197
165	0x3d9a138f	0.07523262
166	0x3e1befd5	0.15228207
167	0xbe7a4d04	-0.24443442
168	0xbf3e498b	-0.7433097
169	0xbe12135d	-0.14265199
170	0xbe21c590	-0.1579802
171	0x3d5932a5	0.053026814
172	0xbe8db9d1	-0.2768083
173	0xbe47c70b	-0.19509523
174	0x3ec2f639	0.38078478
175	0xbd3c9466	-0.04603996
176	0xbecac7ec	-0.39605653
177	0xbf9840b9	-1.1894752
178	0xbf248975	-0.6427224
179	0xbf57419e	-0.840845
180	0xbf21ce2c	-0.6320522
181	0x3c36e8f4	0.011163939
182	0xbf84f863	-1.0388302
183	0xb98b83c7	-0.00026610328
184	0x3e96763a	0.29387075
185	0xbfaf9497	-1.3717221
186	0xbcb697ab	-0.022289118
187	0x3f9b77a5	1.2145888
188	0xbdeefd8d	-0.11669455
189	0xbc0d5834	-0.008626986
190	0x3f4d9a01	0.80313116
191	0xbe4f4a93	-0.20243292
192	0xbdb17e47	-0.086666636
193	0x3e6a1551	0.22859694
194	0xbdb54fde	-0.08853124
195	0x3e25d39f	0.16194008
196	0xbe7b94ca	-0.24568477
197	0xbec17ce7	-0.37790605
198	0xbe85369a	-0.2601822
199	0xbde6789f	-0.112534754
200	0xbd734939	-0.059396002
201	0x3d1df531	0.03856391
202	0x3e1ed698	0.15511549
203	0xbe3ebd18	-0.18626821
204	0xbbf4e165	-0.007473158
205	0xbda2b99b	-0.07945558
206	0x3e05d34f	0.13068889
207	0xbe3e99f4	-0.18613416
208	0xbed8e136	-0.42359322
209	0x3eec5e96	0.46165913
210	0x3ea7c61c	0.32768333
211	0xbe8f3aae	-0.27974457
212	0x3eac2029	0.33618286
213	0xbc8c552d	-0.017130459
214	0xbf0fcf4e	-0.56175697
215	0xbe133e86	-0.1437932
216	0xbf8f0774	-1.117415
217	0xbe1d7f2d	-0.15380545
218	0x3ed17993	0.40913066
219	0x3ef2d507	0.47428152
220	0xbf7812b8	-0.9690356
221	0xbe89f62e	-0.26945633
222	0xbf39b7db	-0.72546166
223	0x3e9870f3	0.29773673
224	0xbe06ae21	-0.13152362
225	0x3df99fca	0.121886805
226	0x3db17cb1	0.08666361
227	0x3dbd9417	0.092567615
228	0x3dd7fc66	0.10546188
229	0xbd862bd8	-0.06551331
230	0xbda97249	-0.08273751
231	0xbd509491	-0.050922934
232	0xbe4a5de9	-0.19762386
233	0x3e055f97	0.13024746
234	0xbdbac3d0	-0.091193795
235	0xbe9d3c4f	-0.30710074
236	0xbe0e9ca9	-0.13926949
237	0x3d602ecd	0.054732133
238	0x3e3d709e	0.18499991
239	0x3de03459	0.109474845
240	0xbe7b479a	-0.24539033
241	0xbcb830ca	-0.022484202
242	0xbe6c7568	-0.23091662
243	0x3e89c40b	0.2690738
244	0x3e36cc33	0.17851333
245	0xbddf2ad7	-0.10896843
246	0x3e2991a3	0.16559462
247	0x3e3a71a4	0.18207413
248	0xbe0d650e	-0.1380808
249	0x3e4e0567	0.20119248
250	0xbd97e836	-0.074173376
251	0x3df294ab	0.118447624
252	0x3e9d30ab	0.30701193
253	0x3e1c5f28	0.15270674
254	0xbfc0cb68	-1.5062075
255	0xbec719cc	-0.3888687

layers.2.weight f4 [4, 16, 16]
0	0x3ee280b8	0.4423883
1	0x3f1ed276	0.6203989
2	0xbf87e3a1	-1.0616342
3	0x3cfa8c3e	0.03058445
4	0xbed3fd3f	-0.4140415
5	0x3df7168c	0.12064847
6	0x3d98a1d5	0.07452742
7	0x3f12bdc8	0.57320833
8	0x3e06392b	0.13107745
9	0x3d6c32a0	0.057665467
10	0x3e961ec5	0.2932035
11	0x3f154075	0.5830148
12	0x3de2380a	0.11045845
13	0x38f510e7	0.00011685659
14	0xbf310ea9	-0.69162995
15	0x3d1a9665	0.037741084
16	0xbced0443	-0.028932696
17	0x3dbed3ac	0.09317717
18	0xbe88a6c1	-0.26689723
19	0xbe9e4cfc	-0.3091811
20	0xbe1f5257	-0.15558754
21	0x3e1ac2c9	0.15113367
22	0xbcbb3312	-0.0228515
23	0xbde223be	-0.110419735
24	0x3e00a431	0.12562634
25	0x3d81c361	0.06336094
26	0x3d81f452	0.063454285
27	0x3e763b70	0.24046111
28	0x3db27a90	0.08714783
29	0xbe6eb8a7	-0.23312627
30	0xbfe4df65	-1.7880675
31	0x3eb7234f	0.35769126
32	0x3e596a7b	0.21232025
33	0x3c9acc23	0.018896168
34	0xbeb538c0	-0.3539486
35	0xbef0683b	-0.46954522
36	0x3e529c52	0.20567444
37	0x3f2c56cb	0.67319936
38	0xbefcf2ea	-0.4940408
39	0xbe522610	-0.20522332
40	0x3ee66fd9	0.45007208
41	0x3e9fa1ac	0.31178033
42	0x3c8b9f8d	0.017043853
43	0x3e12065c	0.14260238
44	0xbd02cc6c	-0.031933233
45	0x3e839fa6	0.2570774
46	0xbf83b1ce	-1.0288637
47	0x3ecf6bca	0.40511924
48	0x3dcbdd84	0.0995436
49	0x3d3bb819	0.045829866
50	0x3e33aa09	0.17545332
51	0xbe3e0c8a	-0.18559471
52	0x3dd8640d	0.10565958
53	0xbe8fabbf	-0.2806072
54	0xbca0b272	-0.01961634
55	0x3e58d4e3	0.2117496
56	0xbdcc5c37	-0.09978526
57	0xbe300525	-0.17189462
58	0x3e35404b	0.17700307
59	0xbe660639	-0.22463311
60	0xbe3ce78f	-0.18447708
61	0x3eb9dd59	0.36301687
62	0x3ec6f945	0.38862053
63	0xbe9de785	-0.30840698
64	0xbcf92347	-0.03041233
65	0xbdd46f97	-0.103728466
66	0x3d5bc795	0.053657133
67	0xbde6ac6f	-0.11263358
68	0xba131132	-0.0005610167
69	0x3d76c3d5	0.060245354
70	0x3e387a4b	0.18015401
71	0xbcfc3ead	-0.030791605
72	0x3e5d4187	0.21607028
73	0x3e87c8d3	0.26520404
74	0x3e547567	0.2074791
75	0xbe545b79	-0.20738019
76	0xbd8289b8	-0.06373924
77	0x3e9dc816	0.30816716
78	0xbda8920a	-0.0823098
79	0xbeba8fac	-0.36437738
80	0xbeab74bf	-0.33487508
81	0x3edf52e2	0.43617922
82	0xbe70fddd	-0.23534341
83	0xbf5e4db8	-0.8683734
84	0x3e014405	0.12623604
85	0xbdc695fa	-0.096965745
86	0xbee17aa2	-0.44038874
87	0xbe9b0ab7	-0.30281612
88	0x3d80d81e	0.06291221
89	0x3e21f752	0.15817001
90	0xbd3a392c	-0.04546468
91	0x3ee52533	0.44754943
92	0x3f36a9d9	0.71352917
93	0xbc0fd5b1	-0.008778975
94	0xbea2c0ef	-0.31787822
95	0x3eca9c0d	0.39572182
96	0xbe1fa9ac	-0.15592068
97	0xbe653531	-0.22383572
98	0x3c8e7d6e	0.017393794
99	0x3d64d84f	0.05587035
100	0x3e1507ee	0.14553806
101	0xbe39bb42	-0.1813784
102	0x3ec3e021	0.38256934
103	0xbd399899	-0.045311544
104	0xbdf2c4ab	-0.11853918
105	0xbe2d9c68	-0.16954195
106	0xbd7f25a2	-0.06229175
107	0xbe43debb	-0.19127934
108	0x3d166eb2	0.03672666
109	0xbe783454	-0.24238712
110	0x3e6fa333	0.234021
111	0xbeaf768e	-0.34270138
112	0xbe0321f3	-0.1280592
113	0x3ec1c822	0.37848002
114	0x3df2bd0e	0.118524656
115	0xbe5b787e	-0.21432683
116	0xbd15a4fa	-0.036534287
117	0xbd4f55ff	-0.05061912
118	0xbfbaafca	-1.4584897
119	0xbce5f760	-0.02807206
120	0xbe950962	-0.2910872
121	0x3dbce100	0.09222603
122	0x3e1f650a	0.15565887
123	0x3e6c3cec	0.23070115
124	0x3ecd4240	0.40089607
125	0x3de42666	0.111401364
126	0xbe96778d	-0.29388085
127	0x3ea61831	0.32440332
128	0xbf9f6bc3	-1.2454761
129	0x3fd22f4b	1.6420683
130	0x3f6f2001	0.9340821
131	0x3eeaffbe	0.4589824
132	0x400f1821	2.2358477
133	0x3f8cc1f7	1.0996693
134	0xbf72d517	-0.948564
135	0xbeb98b9d	-0.3623933
136	0x3d04f2a8	0.032457978
137	0xbf3ff033	-0.7497589
138	0xbf6a761f	-0.9158649
139	0xbfc448d6	-1.5334728
140	0x3f00b8bd	0.5028189
141	0xbf2fe8a0	-0.6871433
142	0x3fb32bc2	1.3997729
143	0xbf74236c	-0.9536655
144	0x3e868918	0.2627647
145	0x3ec9443f	0.3930988
146	0x3aeb7426	0.0017963692
147	0xbe236719	-0.15957297
148	0x3e469807	0.19393931
149	0x3efb92f3	0.4913555
150	0xbd8b1061	-0.067902334
151	0x3eb9805e	0.3623075
152	0xbda18f97	-0.07888716
153	0x3e35bd69	0.17748035
154	0x3e0d7000	0.13812256
155	0x3ee695da	0.45036203
156	0xbe408abf	-0.18802927
157	0xbe9d2c8d	-0.30698052
158	0xbe89c153	-0.26905307
159	0x3defc5d0	0.117076516
160	0x3ed5b511	0.41739705
161	0x3d3303e7	0.043704893
162	0xbefc8d79	-0.49326685
163	0x3e923f8f	0.28564116
164	0x3d54d4c0	0.051960707
165	0x3f342d70	0.7038183
166	0xbf815457	-1.0103863
167	0x3d7f54a4	0.06233658
168	0x3d8a2e85	0.06747154
169	0x3e7a15f5	0.24422438
170	0xbe884e43	-0.2662221
171	0x3ee338fd	0.44379416
172	0xbddc6e72	-0.10763253
173	0x3dbb31f5	0.09140388
174	0xbe9229c3	-0.28547487
175	0x3ea442ad	0.3208212
176	0x3ea2393b	0.31684288
177	0x3e81ac23	0.25326642
178	0xbdfa5e0a	-0.12224968
179	0xbe21b00c	-0.15789813
180	0x3e01db3f	0.12681292
181	0xbdf52eca	-0.11971815
182	0x3e358498	0.17726362
183	0x3df2bbe6	0.11852245
184	0xb9a850a7	-0.00032103548
185	0xbdb56002	-0.08856203
186	0x3ea4b6b9	0.32170656
187	0xbe78f5f1	-0.24312569
188	0x3c0563af	0.008141442
189	0x3ebfea71	0.37483552
190	0xbd5dd885	-0.054161567
191	0xbe851bc6	-0.25997752
192	0xbdfc498c	-0.123187155
193	0xbe90a47f	-0.282505
194	0x3ef955be	0.4869823
195	0x3f03af41	0.5143929
196	0xbec5f912	-0.38666588
197	0x3eb34964	0.3501693
198	0x3e938ec8	0.2881987
199	0xbe0db4d6	-0.13838515
200	0x3e80f29b	0.25185093
201	0x3e896e84	0.2684213
202	0x3e887094	0.2664839
203	0x3ea96d89	0.3309138
204	0x3dcb8ea9	0.0993932
205	0xbe8e3a6e	-0.27778953
206	0xbe3d708e	-0.18499967
207	0x3e08296c	0.13297051
208	0xbee27983	-0.4423333
209	0xbe608d09	-0.219288
210	0xbd6c6a7b	-0.057718735
211	0xbe2eddff	-0.17076872
212	0x3d4c2803	0.049842846
213	0xbf8343d4	-1.0255075
214	0x3d3eee6d	0.0466141
215	0xbd8a66ed	-0.06757913
216	0x3e464032	0.19360426
217	0xbe848ca1	-0.2588854
218	0x3e3421e1	0.17591049
219	0xbdda36f3	-0.10655012
220	0x3db4955b	0.0881755
221	0x3e14632d	0.14490958
222	0xbe50c390	-0.20387101
223	0x3e6f6b09	0.23380674
224	0x3e54bece	0.20775911
225	0x3e9bd2e3	0.3043433
226	0x3f3b01b7	0.7304949
227	0xbef2610c	-0.47339666
228	0x3ef8c412	0.4858709
229	0xbe493c57	-0.19651924
230	0xbdb3e09c	-0.08783075
231	0xbec85308	-0.39125848
232	0xbf09d78d	-0.5384453
233	0xbda28b69	-0.079367466
234	0x3f63e5cb	0.8902251
235	0xbd84fc13	-0.06493392
236	0xbf048248	-0.51761293
237	0x3a5df38f	0.0008466774
238	0x3e3e9e56	0.18615088
239	0x3ed684a2	0.41898066
240	0x3f0f857a	0.56063044
241	0xbf93afb6	-1.1537998
242	0xbf6aeae8	-0.9176469
243	0xbe95351c	-0.29142082
244	0x3ef99eb4	0.48753893
245	0xbd7be7bf	-0.061500307
246	0x3d8b9817	0.06816118
247	0x3e2b7b70	0.16746306
248	0xbe91338b	-0.28359637
249	0x3f12ead8	0.57389593
250	0x3c84ebdb	0.016225746
251	0x3d14ca03	0.036325466
252	0xbe08b325	-0.13349588
253	0xbdc1b8ac	-0.094590515
254	0x3f9dae98	1.2318907
255	0x3ee3650c	0.4441303

layers.3.weight f4 [4, 16, 16]
0	0x3ed74d22	0.42051035
1	0x3df7a62c	0.12092242
2	0xbef91b43	-0.48653612
3	0x3dec9462	0.11551739
4	0x3e2b3e22	0.1672292
5	0x3f013a9d	0.5048006
6	0x3d9539f5	0.07286445
7	0xbd47d2e0	-0.04878509
8	0xbe0ac241	-0.13550664
9	0x3e70ec62	0.23527673
10	0xbfa32d5d	-1.2748219
11	0x3e71687e	0.23575017
12	0x3ecb4085	0.39697662
13	0xbe261404	-0.16218573
14	0xbd75e2a3	-0.06003059
15	0xbeb5c908	-0.35504937
16	0xbca74f70	-0.020423621
17	0x3e88f204	0.26747143
18	0x3e908ee0	0.28234005
19	0xbf0a93f5	-0.54132015
20	0x3ebb8e45	0.3663198
21	0xbd3c8b19	-0.04603109
22	0x3f091a51	0.5355578
23	0x3e88f685	0.2675058
24	0xbe77df1c	-0.24206203
25	0x3e15390d	0.14572544
26	0xbdddcadf	-0.1082971
27	0x3ec01f8f	0.37524077
28	0xbdf7fdae	-0.121089324
29	0x3d83696b	0.06416591
30	0xbeaa074f	-0.332087
31	0x3d07bc0a	0.033138312
32	0xbe160d5f	-0.14653538
33	0x3ee15317	0.44008705
34	0x3d9d2e40	0.07674837
35	0xbe99ce12	-0.30040032
36	0x3c26c9d9	0.01017996
37	0xbeaf6897	-0.34259483
38	0xbd9a2b7c	-0.07527825
39	0x3da37df2	0.079830065
40	0xbd9a01d0	-0.07519877
41	0xbe4ad229	-0.19806732
42	0xbe271a2b	-0.16318576
43	0x3e2dd23a	0.16974726
44	0x3d28b48f	0.04118782
45	0x3f2e7fb9	0.6816364
46	0x3ddbdce0	0.10735488
47	0x3eb91d44	0.3615514
48	0x3e653e1d	0.22386976
49	0x3f1f60d3	0.6225712
50	0xbf40d804	-0.75329614
51	0xbe8a502e	-0.27014297
52	0x3e831f7f	0.25609967
53	0x3f2fe394	0.6870663
54	0xbdef05b9	-0.116710134
55	0xbf0196f2	-0.5062095
56	0x3e9fae78	0.31187797
57	0xbf0aa6c9	-0.54160744
58	0x3d9890e4	0.07449511
59	0x3ee3d5c4	0.44499028
60	0xc00a888a	-2.1645837
61	0x3e829236	0.25502175
62	0x3f616483	0.88043994
63	0xbe903599	-0.28165892
64	0xbdc8c4f1	-0.098031886
65	0xbe1968c7	-0.14981376
66	0x3e65874b	0.22414891
67	0x3e954219	0.2915199
68	0xbe2f8690	-0.17141175
69	0xbec2615f	-0.37964913
70	0xbd13b0f2	-0.03605742
71	0x3e01133d	0.12604995
72	0xbdfb0cf0	-0.12258327
73	0xbd93da49	-0.07219369
74	0x3e5525a4	0.2081514
75	0x3e3b5ae6	0.18296394
76	0xbf1299c3	-0.5726587
77	0xbea94caf	-0.33066317
78	0xbd8f1c0c	-0.069877714
79	0xbdbad807	-0.09123235
80	0xbe245d9f	-0.16051339
81	0xbe02be79	-0.12767972
82	0x3f0116c2	0.5042535
83	0x3db27c8b	0.08715161
84	0x3f310468	0.6914735
85	0x3e4a391f	0.19748352
86	0x3e727e0e	0.23680899
87	0xbdece3c8	-0.11566883
88	0x3f2fb9b2	0.68642724
89	0x3eb83d98	0.35984492
90	0xbfd48e8c	-1.6606002
91	0xbe51d550	-0.20491529
92	0x3ead7adf	0.33882806
93	0x3e2f8b3b	0.17142956
94	0xbeb8e87b	-0.3611487
95	0x3f01b121	0.506609
96	0x3ee2faeb	0.4433206
97	0xbf579943	-0.84218234
98	0x3e8d709e	0.27624983
99	0x3d9fdc16	0.0780565
100	0x3de9b22e	0.11410938
101	0xbefea494	-0.49734938
102	0xbda4252b	-0.08014902
103	0x3d5e56e2	0.054282077
104	0x3ef9417d	0.48682776
105	0x3da49e73	0.08038034
106	0xbef6d56c	-0.48209703
107	0xbea36ec4	-0.31920445
108	0x3ece9fa2	0.40356165
109	0x3ec9a9b7	0.39387295
110	0xbe2fca24	-0.17166954
111	0x3e84470d	0.25835457
112	0xbe56b774	-0.2096842
113	0xbd9cbead	-0.07653556
114	0xbd74fdd3	-0.05981238
115	0xbecd617b	-0.40113434
116	0xbee9832b	-0.45607886
117	0xbc8d0105	-0.0172124
118	0x3e440fce	0.19146654
119	0xbe313768	-0.17306292
120	0x3e5fe4b3	0.21864586
121	0x3e52ae97	0.20574413
122	0xbe8ed0e0	-0.27893734
123	0x3e81ae13	0.2532812
124	0xbe179083	-0.1480122
125	0xbf179db8	-0.59225035
126	0x3e5403bc	0.2070455
127	0xbc35c19d	-0.011093524
128	0x3e34a2c1	0.1764021
129	0x3e0afa75	0.13572104
130	0xbaea7108	-0.0017886469
131	0x3e670167	0.22559129
132	0xbd7c6e8d	-0.061628867
133	0x3f491025	0.7854026
134	0xbebf1f59	-0.37328604
135	0x3c6de60d	0.01452018
136	0xbd4fb25d	-0.05070721
137	0x3e82a3ef	0.25515696
138	0xbed028d3	-0.40656146
139	0xbf057b33	-0.5214111
140	0xbe92a47f	-0.28641126
141	0xbf4eb7a7	-0.8074898
142	0x3e3ef8e0	0.18649626
143	0xbec09c5c	-0.37619293
144	0xbe291fa4	-0.16515976
145	0x3e387b8a	0.18015876
146	0x3e1ccaf6	0.15311798
147	0x3ea1a56f	0.31571528
148	0x3e32e6d2	0.17470863
149	0x3cfb6d72	0.030691836
150	0xbe2e2dab	-0.17009608
151	0x3d9fd769	0.07804758
152	0xbeccfd63	-0.4003707
153	0xbd0a714b	-0.03379945
154	0x3f76e2dd	0.96439916
155	0xbcfb058d	-0.030642295
156	0xbe81ba90	-0.25337648
157	0xbd239910	-0.039940894
158	0xba969e2c	-0.0011491231
159	0xbeca8fb8	-0.39562774
160	0x3cb85c9d	0.022505099
161	0x3dcd87f3	0.10035696
162	0x3dad4993	0.08461299
163	0xbe21ce44	-0.1580134
164	0x3e825a8f	0.25459716
165	0xbd97828b	-0.07397946
166	0x3e081d11	0.13292338
167	0x3e67f8f7	0.22653566
168	0x3e80196d	0.25019398
169	0xbe5ba3bb	-0.21449177
170	0x3ca7b4cc	0.020471953
171	0xbe6b6233	-0.22986679
172	0xbe1cc681	-0.15310098
173	0xbf3f754b	-0.7478835
174	0x3e6c9663	0.23104243
175	0x3e4c757a	0.19966689
176	0xbd0c227d	-0.034212578
177	0x3e129d01	0.14317705
178	0x3ed87c19	0.4228218
179	0x3c17007c	0.009216424
180	0x3e69203e	0.22766206
181	0x3e642a3a	0.22281733
182	0x3e12c990	0.14334702
183	0x3d03be4f	0.032163914
184	0xbe500aee	-0.2031667
185	0x3f0ff4b4	0.5623276
186	0x3ee0e55f	0.43924996
187	0xbe724902	-0.23660663
188	0x3c27112a	0.010196963
189	0xbe8c4bcb	-0.27401575
190	0xbe87c7d2	-0.26519638
191	0x3e7544a6	0.23951969
192	0x3b747edd	0.0037307062
193	0x3ec808db	0.39069256
194	0xbd8fbc90	-0.07018387
195	0xbd0f2ffe	-0.03495788
196	0x3e69283a	0.22769251
197	0x3ceb4469	0.028719144
198	0xbead284e	-0.33819813
199	0x3e49261a	0.19643441
200	0x3dd54a85	0.10414604
201	0x3ed3371d	0.41252986
202	0xbf8aca55	-1.0842997
203	0x3ebbc35d	0.36672488
204	0xbf03f9a0	-0.5155277
205	0xbe3dcd99	-0.1853546
206	0xbf087058	-0.5329642
207	0xbdb80352	-0.08985008
208	0x3d35bffa	0.044372536
209	0x3e04757e	0.12935445
210	0x3d914ed0	0.070951104
211	0xbe585e22	-0.21129659
212	0xbe0417c6	-0.12899694
213	0x3c5bbcb9	0.013411694
214	0x3e6218cb	0.2207977
215	0x3e593ba8	0.21214163
216	0x3e1100af	0.14160417
217	0xbddfebda	-0.10933657
218	0xbe90e03a	-0.2829607
219	0xbdfd8918	-0.12379664
220	0xbea8d67d	-0.32976142
221	0xbeb35792	-0.35027748
222	0xbc882a97	-0.01662187
223	0xbd326682	-0.04355479
224	0xbfc65aa9	-1.5496417
225	0xbe30b127	-0.17255078
226	0xbecff1fd	-0.4061431
227	0x3e6aad6e	0.2291772
228	0xbe2441ce	-0.16040727
229	0x3d02d16a	0.031937994
230	0xbe8b1b47	-0.27169248
231	0xbd2ab55f	-0.041676875
232	0xbd3cccfa	-0.04609392
233	0x3eb7d42a	0.35904056
234	0x3f04db77	0.51897377
235	0x3ee5446c	0.44778764
236	0xbf5b82b0	-0.8574629
237	0xbd81a850	-0.06330931
238	0x3e9f3eae	0.31102508
239	0xbd15f98d	-0.036614943
240	0xbed77d6e	-0.42087883
241	0xbeab19f5	-0.3341824
242	0x3c389ee1	0.011268348
243	0xbe2aefa8	-0.16692984
244	0x3b858a2d	0.0040753097
245	0xbf0f8f8e	-0.5607842
246	0x3dfb2088	0.12262064
247	0xbe00ff69	-0.12597431
248	0x3e847482	0.25870138
249	0xbe6e0410	-0.23243737
250	0xc0345872	-2.8178983
251	0xbd104ec0	-0.03523135
252	0x3d33c8fa	0.043892838
253	0x3eadada8	0.33921552
254	0x3e9d518d	0.3072628
255	0xbec35f89	-0.38158825

layers.4.weight f4 [4, 16, 16]
0	0x3d4cd624	0.050008908
1	0xbb87bcd4	-0.004142383
2	0xbe62e0f8	-0.22156131
3	0xbf5f841b	-0.8731095
4	0x3e55d1aa	0.20880762
5	0xbf8f4000	-1.1191406
6	0x3e2c3dda	0.1682047
7	0xbee18ff1	-0.4405513
8	0xbf836149	-1.0264064
9	0xbe2e2741	-0.17007162
10	0xbe864288	-0.26222634
11	0xbd9793e1	-0.074012525
12	0xbf263109	-0.6491857
13	0x3f58a25f	0.8462276
14	0x3df3d379	0.119055696
15	0xbcd2ac77	-0.025717003
16	0x3bfa427e	0.007637321
17	0xbea2e7a8	-0.31817365
18	0xbecab2b5	-0.39589468
19	0xbe3e4efb	-0.18584816
20	0xbe10ef50	-0.1415379
21	0xbec6b526	-0.3881008
22	0xbf72e555	-0.9488118
23	0x3d897d5a	0.06713362
24	0xbf4e66f8	-0.8062587
25	0x3e1adf92	0.15124348
26	0x3d8ef10d	0.069795705
27	0x3e51e7b6	0.20498547
28	0xbe813c46	-0.25241297
29	0xbfdfcf19	-1.7485076
30	0xbea30aa7	-0.31844065
31	0x3f17724c	0.5915878
32	0x3f1054ca	0.5637938
33	0xbda143e5	-0.07874278
34	0x3ccd7865	0.025081823
35	0xbdf63e1d	-0.12023566
36	0x3d285809	0.041099582
37	0xbad736cf	-0.0016419532
38	0xbf1ebfb2	-0.62011254
39	0x3e3dba37	0.18528067
40	0x3e231b61	0.15928413
41	0x3ec66a8c	0.38753164
42	0x3dc5af3c	0.09652564
43	0xbe987f5c	-0.29784667
44	0xbf02e0f9	-0.5112453
45	0xbeeb7a69	-0.4599183
46	0xbebedc78	-0.3727758
47	0xbcf6c6ee	-0.030124154
48	0xbd9cec02	-0.076622024
49	0xc01c7eaf	-2.4452322
50	0xbe174f3a	-0.14776316
51	0xbf90c962	-1.1311457
52	0xbdc1540e	-0.0943986
53	0x3e56ec65	0.20988615
54	0x3e8df27e	0.2772407
55	0xbf102f82	-0.5632249
56	0xbed52250	-0.4162774
57	0xbeae35f0	-0.34025526
58	0xbd68a8b6	-0.05680152
59	0x3e9825a3	0.29716215
60	0xbe2b8058	-0.16748178
61	0x3f29cc09	0.6632696
62	0x3da6ab68	0.08138162
63	0x3ca76a0e	0.020436313
64	0x3db45b52	0.088064805
65	0x3dc9261c	0.09821722
66	0x3eaa27d4	0.3323351
67	0xbd86ea3a	-0.06587644
68	0x3d5d7745	0.054068822
69	0xc05bb461	-3.4328845
70	0xbec98340	-0.39357948
71	0x3d3479d2	0.04406149
72	0xbe37345d	-0.17891069
73	0x3e512968	0.20425951
74	0x3e2f26c7	0.17104636
75	0x3e490194	0.19629508
76	0xbe745edf	-0.23864315
77	0xbe8f02cc	-0.2793182
78	0x3ea5e85a	0.32403833
79	0xbf01159b	-0.5042359
80	0x3e3d6725	0.18496378
81	0x3dd92c78	0.10604185
82	0x3eb67f56	0.35644025
83	0xc00049d8	-2.004507
84	0x3e2ea0c2	0.17053512
85	0x3e8fa401	0.28054813
86	0xbe714ec5	-0.23565204
87	0x3e7304c7	0.23732291
88	0xbe98fa6f	-0.29878566
89	0x3dc4938f	0.09598457
90	0x3d1586d7	0.036505546
91	0x3e731371	0.23737885
92	0xbe44e2b1	-0.19227101
93	0xbf13ae96	-0.5768827
94	0xbecad13b	-0.39612755
95	0x3ea98e4f	0.33116385
96	0x3dbff904	0.09373668
97	0x3df4acfc	0.11947057
98	0x3df38234	0.11890069
99	0xbe2e4424	-0.17018181
100	0xbbf3e617	-0.0074432003
101	0x3e8381ad	0.25684872
102	0x3e09cd99	0.13457336
103	0x3e4fc312	0.20289257
104	0xbf03dd01	-0.515091
105	0xbe0c21c4	-0.13684756
106	0x3e291f2d	0.16515799
107	0xbd9a65e0	-0.07538962
108	0x3eeb41af	0.4594855
109	0xbe4acf1a	-0.19805565
110	0xbc5f5a44	-0.013632361
111	0xbda507c4	-0.08058122
112	0x3d9818a0	0.07426572
113	0xbd384177	-0.044984307
114	0xbb47b72d	-0.0030474172
115	0xbe2e7d06	-0.1703988
116	0x3dedd5f8	0.11613077
117	0xbf004432	-0.5010406
118	0xbe56267a	-0.20913115
119	0xbd8084f9	-0.062753625
120	0x3ee7cdfb	0.45274338
121	0xbe3690e3	-0.17828707
122	0xbeebee6b	-0.46080336
123	0xbe31fff3	-0.17382793
124	0xbfb30867	-1.3986939
125	0xbf953a27	-1.1658372
126	0xbe61f3b4	-0.22065622
127	0x3db30a33	0.0874218
128	0xbe363ca0	-0.17796564
129	0xbf588bbe	-0.8458823
130	0xbc8b82af	-0.017030088
131	0xbec0980a	-0.37615997
132	0xbe429fd8	-0.19006288
133	0x3dc16772	0.09443559
134	0x3dca2c2e	0.09871708
135	0x3e310832	0.17288283
136	0xbe63c108	-0.22241604
137	0x3e3c8330	0.18409419
138	0x3e64df23	0.22350745
139	0xbed3141d	-0.41226283
140	0xbf2563c4	-0.64605355
141	0xbe6aa5c7	-0.22914802
142	0x3dbc3f93	0.09191813
143	0x3e5fec8a	0.21867576
144	0x3db27f03	0.08715632
145	0x3d3d1502	0.046162613
146	0x3dbecd67	0.09316521
147	0x3bbf3ecc	0.0058363434
148	0x3f3284f9	0.6973415
149	0xbdbabee8	-0.09118444
150	0xbe908e10	-0.28233385
151	0xbd940b13	-0.07228675
152	0x3e1e6afb	0.15470497
153	0x3da8e004	0.082458526
154	0x3e0855f8	0.13314044
155	0x3eaf1ad5	0.3420016
156	0xbe910ab7	-0.28328487
157	0xbd4d670c	-0.0501471
158	0xbe4e6e4a	-0.2015926
159	0x3de4bc1c	0.111686915
160	0xbdbb0616	-0.0913202
161	0xbca826fc	-0.020526402
162	0x3fff2d51	1.9935704
163	0x3d95680a	0.072952345
164	0x3fb59757	1.418681
165	0xbeac6664	-0.33671868
166	0x3e07c259	0.13257731
167	0xbfcb5f61	-1.5888482
168	0x3e95b89b	0.29242405
169	0x3fe5922c	1.7935233
170	0xbf68fd28	-0.91011286
171	0x3d95ed48	0.073206484
172	0x3eeca182	0.4621697
173	0xbf250b6e	-0.64470565
174	0xbe27f8ba	-0.16403475
175	0x3fb59b40	1.4188004
176	0x3dc8e3f5	0.09809104
177	0x3e7df013	0.24798612
178	0x3d434f9f	0.047683354
179	0xbe4f58eb	-0.20248763
180	0xbefb0b74	-0.49032176
181	0x3d9cfc8b	0.07665356
182	0x3e5f68d2	0.2181733
183	0x3e36a8a1	0.17837764
184	0xbf29c04e	-0.6630906
185	0x3e575b7b	0.21030991
186	0xbe3443fb	-0.17604057
187	0x3db69fd0	0.089172006
188	0xbe5d8eea	-0.21636549
189	0xbe84d4f1	-0.2594371
190	0xbe1e81c0	-0.15479183
191	0x3ebcf4ca	0.3690551
192	0xbed5e5be	-0.41776842
193	0x3cdd42a5	0.027009318
194	0xbf976c7a	-1.182998
195	0xbef90c85	-0.48642364
196	0x3ef97426	0.48721427
197	0xbde572f3	-0.112035654
198	0x3d9827c7	0.07429462
199	0xbea5533c	-0.32290065
200	0xbf285e10	-0.6576853
201	0xbe4e901a	-0.20172158
202	0x3fbcde96	1.4755428
203	0x3f3e1f63	0.7426664
204	0xbf863845	-1.0485922
205	0x3e99efd2	0.3006578
206	0x3ea7841b	0.32717976
207	0xbf961f63	-1.1728328
208	0xbefc6d11	-0.4930196
209	0x3e56664b	0.20937459
210	0xbf7f1839	-0.99646336
211	0x3f88b161	1.0679132
212	0x3ec91b8b	0.39278826
213	0x3effc369	0.49953774
214	0x3e0d7888	0.1381551
215	0x3f52948f	0.8225793
216	0xbed908c4	-0.423895
217	0xbf338b97	-0.7013487
218	0xbfcda322	-1.6065409
219	0x3e01f0c8	0.12689507
220	0xbe0f288a	-0.13980308
221	0x3ee2cd2f	0.44297168
222	0xbe123ebb	-0.14281742
223	0x3ec6d4fe	0.38834375
224	0xbe14cd64	-0.14531475
225	0xbd0ee517	-0.034886446
226	0x3dc52791	0.09626687
227	0xbeb8464c	-0.35991132
228	0xbdca2ebf	-0.09872197
229	0xbcdbbc51	-0.026823195
230	0xbf839475	-1.027968
231	0xbe7d7aaf	-0.24753831
232	0xbe88f7da	-0.26751596
233	0xbda6ec31	-0.08150519
234	0xbe40e9ff	-0.18839262
235	0x3e6136d0	0.21993566
236	0xbf807e24	-1.0038495
237	0xc0558934	-3.3364992
238	0xbee399c9	-0.44453266
239	0xbe831aac	-0.25606287
240	0xbec64c7e	-0.38730234
241	0x3e92207a	0.28540403
242	0x3d602bd4	0.054729298
243	0x3f04741c	0.5173967
244	0x3e2d394a	0.16916385
245	0xbf5cddf6	-0.86276186
246	0x3f216a38	0.630527
247	0x3df55d68	0.119807065
248	0x3d2fe0a0	0.04293883
249	0xbe8a8373	-0.27053413
250	0xbdb536cc	-0.08848342
251	0xbd928c0d	-0.07155619
252	0xbf32085d	-0.6954401
253	0x3e8b6eb9	0.27232912
254	0xbdea404b	-0.11438044
255	0xbe002d9b	-0.12517397

layers.5.weight f4 [4, 16, 4]
0	0xbdf6e890	-0.120560765
1	0xbd835af7	-0.064138345
2	0xbea9d1d8	-0.3316791
3	0xbe0010ab	-0.12506358
4	0x3f117031	0.56811816
5	0x3de5f5d5	0.11228529
6	0xbe6d42f5	-0.23170073
7	0xbeba44a1	-0.36380485
8	0xbe5311f8	-0.20612323
9	0xbe532d9a	-0.20622864
10	0x3d56f5cf	0.052480515
11	0x3df0bdfb	0.11754986
12	0x3f258285	0.6465228
13	0xbe97cee3	-0.2965003
14	0xbf57e43f	-0.8433265
15	0xbec82b20	-0.39095402
16	0xbeaef69f	-0.34172532
17	0x3dde3f53	0.10851922
18	0xbcd1db94	-0.025617398
19	0x3f012512	0.5044719
20	0x3dd06a33	0.10176506
21	0xbfc8240e	-1.5636003
22	0xbf7546b4	-0.9581101
23	0xbfc08195	-1.5039545
24	0x3e5fd96b	0.21860282
25	0xbe9830af	-0.29724643
26	0xbf4d0056	-0.8007864
27	0xbf2d9c8c	-0.67816997
28	0x3e803550	0.25040674
29	0x3dea5417	0.1144182
30	0xbd8bd85e	-0.06828378
31	0x3ec240d8	0.37940097
32	0xbedf977b	-0.43670258
33	0x3ee95827	0.45575067
34	0xbd232e1a	-0.039838888
35	0x3f7d8081	0.99024206
36	0xbe231c5e	-0.1592879
37	0xbddfc0d6	-0.109254524
38	0xbdfebe36	-0.124386236
39	0x3ea13b18	0.31490397
40	0xbda425e7	-0.08015042
41	0xbe5ad483	-0.2137013
42	0xbd50d1f2	-0.05098147
43	0xbe5b5685	-0.21419723
44	0x3ea83f68	0.32860875
45	0x3c87e405	0.01658822
46	0xbd335d6e	-0.043790273
47	0xbe8f36fb	-0.27971634
48	0xbe111155	-0.14166768
49	0x3fb6ed68	1.4291201
50	0x3eab190f	0.33417556
51	0x3f1f2dcc	0.62179255
52	0xbca954d3	-0.02067033
53	0xbf3640df	-0.71192735
54	0xbf19e107	-0.6010899
55	0xbf71531a	-0.9426743
56	0x3f3b7c82	0.7323686
57	0x3dc0a5d6	0.09406631
58	0xbf1a1dea	-0.60201895
59	0xbede61e1	-0.4343405
60	0x3d5027d0	0.05081922
61	0x3d3daa78	0.04630515
62	0x3eb274dd	0.34854785
63	0xbe80f9ea	-0.2519067
64	0x3db70ff5	0.089385904
65	0x3f528fc9	0.8225065
66	0x3f2a9d97	0.66646713
67	0x3f4088d3	0.7520878
68	0x3d952e2a	0.07284196
69	0x3fa7dd34	1.3114381
70	0x3f5336fb	0.8250577
71	0x3f681c27	0.9066796
72	0x3d6da437	0.058017936
73	0x3e7a9610	0.24471307
74	0x3e992a88	0.2991526
75	0xbe828fe1	-0.25500396
76	0xbd549f26	-0.05190959
77	0x3c212315	0.009835024
78	0x3e7395f1	0.23787667
79	0xbea55575	-0.3229176
80	0x3f3e8150	0.74416065
81	0xbf0639d2	-0.52431977
82	0xbf6be35f	-0.92143816
83	0xbf20c19d	-0.6279543
84	0xc00351a4	-2.051858
85	0x3f5d16e0	0.8636303
86	0x4029b085	2.651399
87	0x3f9ffaa8	1.2498369
88	0xbe2a8cfa	-0.16655341
89	0x3e4ff71a	0.20309106
90	0x3cdae9a5	0.026722739
91	0x3ea83b14	0.32857573
92	0xbeae7ae4	-0.34078133
93	0x3caba588	0.020952955
94	0x3f02c908	0.51088
95	0xbe36fc63	-0.17869715
96	0xbf4a5a8d	-0.7904442
97	0x3ea35ad8	0.31905246
98	0x3f4e862b	0.80673474
99	0x3f1dc54b	0.6162917
100	0xbec4b6f2	-0.38420826
101	0x3e278a28	0.16361296
102	0x3ede1eb2	0.43382794
103	0x3e8693be	0.26284593
104	0x3db8e73f	0.09028482
105	0xbf90419a	-1.127002
106	0xbf6db1e4	-0.92849565
107	0xbf747799	-0.9549499
108	0xbf64b07d	-0.893318
109	0x3cc990dc	0.024605207
110	0x3f45e798	0.7730651
111	0x3f337d12	0.7011272
112	0xbd6c7297	-0.05772647
113	0x3ee42752	0.4456125
114	0xbec30177	-0.38087055
115	0xbe1cc164	-0.15308148
116	0x3f269125	0.6506522
117	0xbeb3ac34	-0.35092318
118	0xbe9355c5	-0.28776374
119	0xbecc7c26	-0.39938468
120	0x3fbfa3d0	1.4971867
121	0xbe2f6e12	-0.17131832
122	0xbf8c95a7	-1.098317
123	0xbf5a8a8b	-0.8536765
124	0x3f30a6d4	0.6900456
125	0xbf6423e5	-0.8911727
126	0xbf634199	-0.8877197
127	0xbedc0272	-0.42970616
128	0x3e6aaeb6	0.2291821
129	0xbef0c546	-0.47025508
130	0xbf03fc64	-0.5155699
131	0xbf8c894d	-1.0979401
132	0x3dedacca	0.116052225
133	0x3e32cbe4	0.1746059
134	0xbf0060f7	-0.50147957
135	0xbd59d589	-0.05318216
136	0xbc8a48ce	-0.01688042
137	0x3e0bad61	0.13640358
138	0xbe86eeae	-0.26353973
139	0xbdc28c4e	-0.09499417
140	0x3ee73496	0.45157307
141	0x3ebbe421	0.36697486
142	0xbe67755a	-0.2260336
143	0xbdd0019a	-0.101565555
144	0xbd620a5a	-0.055185653
145	0x3ea79126	0.32727927
146	0xbe364b0a	-0.17802063
147	0x3dbf6a24	0.093464166
148	0xbe845b99	-0.25851133
149	0x3f11c263	0.56937236
150	0x3ef0cf20	0.47033024
151	0x3e89eb93	0.2693754
152	0xbdbe3349	-0.092871256
153	0x3f8a1077	1.0786275
154	0x3f2ee70c	0.683213
155	0x3faa1528	1.3287706
156	0x3ea99f19	0.33129194
157	0x3ef25018	0.47326732
158	0x3df8bd78	0.12145513
159	0xbe7f7bf5	-0.2494963
160	0xbf2966ba	-0.66172373
161	0x3e7cd5b0	0.2469089
162	0x3f0ba597	0.54549545
163	0xbe8f0ad2	-0.27937943
164	0x3f694212	0.9111644
165	0x3f118d35	0.5685609
166	0x3d33d79d	0.043906797
167	0x3e9f33a1	0.31094077
168	0xbd8cfb3a	-0.06883855
169	0x3d5bbeb0	0.05364865
170	0x3f1cf898	0.61316824
171	0x3ea2f562	0.31827837
172	0x3e6105ec	0.21974915
173	0xbf1ecebe	-0.62034214
174	0xbe092416	-0.13392672
175	0xbf44f043	-0.7692911
176	0x3e6c09fc	0.23050684
177	0xbf019681	-0.50620276
178	0x3c75decf	0.015006735
179	0xbf44bac1	-0.76847464
180	0x3e099816	0.13436922
181	0x3eb18d9a	0.34678346
182	0x3d119d12	0.035550185
183	0xbe65a674	-0.22426778
184	0xbe8e1149	-0.27747563
185	0x3dfaa788	0.12238985
186	0xbd463eb5	-0.048399646
187	0x3d8d78fd	0.06907842
188	0xbf919199	-1.1372558
189	0x3ef4a84a	0.47784644
190	0x3f77cb75	0.96794826
191	0x3f810681	1.008011
192	0xbdb2c774	-0.08729449
193	0x3e3b670c	0.18301028
194	0x3d915c31	0.07097662
195	0xbead5046	-0.33850306
196	0x3f34f5c8	0.7068753
197	0xbd47523a	-0.0486624
198	0xbf59e333	-0.85112303
199	0xbf6a48b6	-0.915172
200	0x3e3aa80d	0.18228169
201	0x3e2067c6	0.15664586
202	0xbef19ea4	-0.47191346
203	0xbe8e0468	-0.27737737
204	0xbf894df7	-1.0726918
205	0x3f90b8c7	1.130639
206	0x3f7ab70d	0.97935563
207	0x3faaf403	1.3355716
208	0x3f2b75b5	0.6697648
209	0xbe8700ad	-0.26367703
210	0xbef60d4a	-0.48057014
211	0xbe2cdd91	-0.16881396
212	0x3f919e85	1.1376501
213	0x3f44f6b4	0.7693894
214	0xbfa71269	-1.3052493
215	0xbe0111f2	-0.12604502
216	0xbf58f936	-0.84755266
217	0x3f3ef171	0.7458716
218	0x3f8e6aa1	1.112629
219	0x3f58902d	0.84594995
220	0x3f10e522	0.5659963
221	0x3e820250	0.2539239
222	0xbf144379	-0.57915455
223	0x3cba7633	0.02276144
224	0xbe9cfaab	-0.30659994
225	0xbe776b4e	-0.24162027
226	0x3eead443	0.45865068
227	0xbdbc1314	-0.09183326
228	0xbec65f1a	-0.38744432
229	0xbb7347a9	-0.003712157
230	0x3e846a18	0.25862193
231	0x3ec10487	0.37698767
232	0xbead8e47	-0.33897611
233	0x3d74ff18	0.05981359
234	0x3dca8a25	0.0988963
235	0x3db588a6	0.08863954
236	0xbd260f90	-0.040542185
237	0x3cf9f3cb	0.030511757
238	0x3f191d52	0.59810364
239	0x3e8e3578	0.27775168
240	0x3e81225a	0.2522152
241	0xbeaa1393	-0.3321806
242	0xbf1e9cb1	-0.6195784
243	0xbf0d7a27	-0.55264515
244	0x3f54ab9c	0.83074355
245	0xbf71f788	-0.9451833
246	0xbf56f634	-0.83969426
247	0xbefcdda9	-0.49387863
248	0x3e6ef563	0.23335795
249	0x3c4570e2	0.012050839
250	0x3e9975b6	0.2997262
251	0x3e04352e	0.12910911
252	0x3df18a10	0.117939115
253	0x3e677a7a	0.22605315
254	0xbecef149	-0.4041846
255	0xbee1d428	-0.44107175

attn.fc.weight f4 [4, 4]
0	0xbe8d07e9	-0.27545097
1	0xbebcbe98	-0.36864161
2	0x3e69838b	0.22804086
3	0x3c1a61b1	0.0094227055
4	0x3f2eb44a	0.6824385
5	0x3da108f1	0.078630336
6	0x3de1b1b2	0.11020221
7	0x3fb1b09c	1.3882022
8	0x3e9928c2	0.29913908
9	0xbdbc8457	-0.09204929
10	0xbddfe4c9	-0.10932309
11	0x3da505a7	0.08057719
12	0xbe955c84	-0.29172146
13	0x3de287f9	0.11061091
14	0x3ed48fe4	0.4151603
15	0x3e62c0fd	0.22143932

attn.attn_fc.weight f4 [1, 8]
0	0x3e8a778d	0.27044335
1	0xc0180c95	-2.375768
2	0xbf8cb2f9	-1.0992118
3	0xbe0109ce	-0.12601396
4	0x3fcffddd	1.6249348
5	0x3fe99110	1.8247395
6	0x3f957cea	1.1678746
7	0x4022ff29	2.5468237

dense.weight f4 [1, 4]
0	0x3d7f7c13	0.062374186
1	0x3b3a7c1a	0.0028455318
2	0x3d8f3d99	0.06994171
3	0x3e8cfed6	0.27538174
