saved_model_w/logp.pth (torch_old, 21140 bytes, 7 tensors)

layers.0.weight f4 [4, 40, 16]
0	0x3ea5bb9e	0.32369703
1	0x3e62524d	0.22101708
2	0xbe60767f	-0.21920203
3	0x3e9ff830	0.3124404
4	0x3f114ece	0.5676087
5	0xbe68e864	-0.227449
6	0x3e9d8064	0.30762017
7	0xbd42800b	-0.047485393
8	0x3ea29114	0.3175131
9	0xbd901cbb	-0.0703673
10	0xbe09d8d8	-0.13461626
11	0xbd2704de	-0.040776126
12	0xbc3068fe	-0.01076722
13	0x3ebdd93b	0.37079796
14	0xbc146548	-0.00905735
15	0x3e93da31	0.28877404
16	0x3df07d84	0.1174269
17	0x3aebf580	0.0018002242
18	0x3e050d85	0.12993439
19	0xbb15d5c0	-0.0022863
20	0xbda326c8	-0.07966381
21	0xbd5bc20c	-0.053651854
22	0x3d8004d0	0.06250918
23	0xbaa06000	-0.0012235641
24	0x3df7c9ba	0.12099023
25	0x3b9d3220	0.004797235
26	0x3de1ea88	0.110310614
27	0xbd948fec	-0.072540134
28	0xbcc29104	-0.02375079
29	0xbd0e68a4	-0.03476776
30	0xbe038f32	-0.12847593
31	0x3d8e0806	0.06935124
32	0xbd93ca10	-0.07216275
33	0xbd04385a	-0.032280304
34	0xbd99baa8	-0.07506305
35	0xbdbd7100	-0.09250069
36	0x3ddc3e58	0.107540786
37	0x3de73384	0.11289123
38	0xbdf1ed60	-0.11812854
39	0xbd5a5b74	-0.053309873
40	0xbde49e97	-0.11163061
41	0xbce4c9e4	-0.0279283
42	0x3cc76b90	0.024343282
43	0x3e032e85	0.12810715
44	0xbd9ce457	-0.0766074
45	0x3dac44a4	0.0841153
46	0x3c24cb00	0.010058165
47	0xbabfa480	-0.0014621168
48	0xbd872703	-0.06599238
49	0xbdfab133	-0.12240829
50	0x3de3b6f8	0.11118883
51	0x3da27460	0.07932353
52	0xbd87edb4	-0.06637135
53	0x3dedcfbe	0.11611889
54	0xbcd932c4	-0.026513465
55	0xba5ee800	-0.00085031986
56	0x3ddb2068	0.106995404
57	0xbdd8e0d8	-0.105897605
58	0x3d6e0d04	0.05811788
59	0x3dfe51aa	0.1241792
60	0xbd677cf0	-0.056515634
61	0xbda90878	-0.082535684
62	0xbda43fa0	-0.08019948
63	0xbdf4104f	-0.11917173
64	0xbe032094	-0.12805396
65	0xbd288c84	-0.04114963
66	0x3d8fc4bc	0.07019946
67	0x3cf8ed20	0.030386508
68	0xbd096934	-0.033547595
69	0xbd683d06	-0.05669882
70	0xbdd92c70	-0.10604179
71	0xbc083028	-0.008312263
72	0xbd7064ee	-0.058690004
73	0xbda3d4d0	-0.07999575
74	0xbd93a042	-0.07208301
75	0xbe04ead8	-0.12980211
76	0xbc9464dc	-0.0181145
77	0xbdda8850	-0.10670531
78	0xbd8562df	-0.06512999
79	0x3ccefc18	0.025266692
80	0xbdc638a2	-0.096787706
81	0x3b622640	0.0034507662
82	0xbdf53892	-0.119736806
83	0x3b337b80	0.0027386844
84	0xbd137dd6	-0.03600868
85	0xbc1f1548	-0.009709664
86	0xbdd9e74f	-0.10639822
87	0x3da10314	0.07861915
88	0xbd060534	-0.032719806
89	0x3d024c0c	0.031810805
90	0xbd3007e8	-0.04297629
91	0x3c2c6ea0	0.010524422
92	0x3d5c46f8	0.05377862
93	0x3d88f678	0.06687635
94	0xbded92e6	-0.11600284
95	0xbd94b02c	-0.072601646
96	0x3bc688a0	0.0060587674
97	0xbda88c10	-0.0822984
98	0x3d9178fc	0.07103154
99	0xbd4e15b8	-0.05031368
100	0x3dbe68b6	0.09297316
101	0xbd54ba14	-0.05193527
102	0x3dd1d504	0.10245708
103	0x3d06ef5c	0.032943115
104	0x3dffb666	0.124859616
105	0x3d40ec64	0.04710044
106	0x3d5d3578	0.05400607
107	0xbc550c10	-0.013003364
108	0xbdfa62be	-0.12225865
109	0xbdc251b7	-0.09488242
110	0x3d013bd8	0.031551212
111	0xbdb59360	-0.08866
112	0xbdcaa170	-0.09894073
113	0xbdac2036	-0.08404581
114	0xbd9df672	-0.07713021
115	0x3da44cce	0.08022462
116	0xbd8ab8d6	-0.06773536
117	0x3cd58a80	0.026067019
118	0x3cb34a58	0.021886036
119	0x3d1712a4	0.03688301
120	0xbdec764c	-0.11546001
121	0x3d289a00	0.04116249
122	0x3dcecb9c	0.10097429
123	0x3de74962	0.112932935
124	0xbd015e9c	-0.031584367
125	0x3d77bdbc	0.06048368
126	0x3de5dbb6	0.11223547
127	0x3da7d6fe	0.081953034
128	0x3de7df0f	0.11321842
129	0xbe6ca210	-0.23108697
130	0xbe671de6	-0.22569999
131	0xbe1ddd57	-0.15416466
132	0xbebbf1b8	-0.36707854
133	0xbea5cbd6	-0.32382077
134	0xbe466fc5	-0.19378574
135	0x3e57d1f5	0.21076186
136	0xbb705605	-0.0036672365
137	0xbcede28d	-0.029038692
138	0x3e28eb7d	0.16496082
139	0x3e5efc88	0.2177602
140	0xbbdcfce4	-0.006744014
141	0xbc5d511a	-0.013508106
142	0xbb135bfa	-0.0022485242
143	0xbf56f7f2	-0.83972085
144	0x3d2c0114	0.041993216
145	0x3d6004e0	0.05469215
146	0x3dc01300	0.09378624
147	0xbde7a851	-0.11311401
148	0xbddfd8a1	-0.109299906
149	0x3ddd471e	0.1080458
150	0x3ceb07e0	0.028690279
151	0xbd8fdc06	-0.07024388
152	0x3df6a48e	0.12043105
153	0xbd650ad8	-0.055918545
154	0x3d0d4fc8	0.034499913
155	0x3de21098	0.11038321
156	0xbdf34886	-0.11879067
157	0xbde777b8	-0.113021314
158	0xbd72a75a	-0.05924163
159	0x3c9f88e0	0.019474447
160	0x3db43650	0.08799422
161	0x3df45576	0.11930363
162	0xbd4590f8	-0.048233956
163	0x3d95f71e	0.073225245
164	0x3be391e0	0.00694488
165	0xbd002e64	-0.03129424
166	0x3def0bd2	0.116721764
167	0xbd385ec2	-0.045012243
168	0xbdf266d4	-0.11836019
169	0x3cc95ce0	0.024580419
170	0xbdb58d09	-0.08864791
171	0xbd9c91bb	-0.076449834
172	0xbd76bba2	-0.060237534
173	0x3d9c9c28	0.07646972
174	0x3cfe4810	0.031040221
175	0xbd0f9a2a	-0.03505913
176	0xbcf57380	-0.029962301
177	0x3d28976c	0.041160032
178	0x3a327a00	0.00068083405
179	0x3bb41540	0.0054956973
180	0xbc29dc70	-0.010367498
181	0x3adc4000	0.0016803741
182	0xbdb11262	-0.08646084
183	0x3d97621c	0.0739176
184	0x3da1242c	0.07868227
185	0xbd4817f8	-0.048850983
186	0xbd8e6d34	-0.069544226
187	0xbb910a00	-0.004426241
188	0xbce4c5b8	-0.02792631
189	0xbd61184c	-0.054954812
190	0x3d9432e8	0.07236272
191	0x3d78d57c	0.06075047
192	0xbeb485c6	-0.3525831
193	0x3de616a2	0.112347856
194	0xbe5da4ee	-0.21644947
195	0x3e9af4e7	0.3026497
196	0xbae29dd3	-0.0017289467
197	0x3e97aeef	0.2962565
198	0xbea5e934	-0.32404482
199	0x3db6a355	0.08917872
200	0x3e36958c	0.17830485
201	0x3dd3dc96	0.10344808
202	0xbec691c1	-0.38783076
203	0xbdcddc19	-0.10051746
204	0x3ef62592	0.4807554
205	0x3eb0ce69	0.34532478
206	0x3e3fd0cf	0.18731998
207	0xbca4853c	-0.020083062
208	0xbdf86790	-0.12129128
209	0xbdd975dc	-0.10618183
210	0xbdcb7094	-0.09933582
211	0xbcfb37e8	-0.030666307
212	0x3e0457ad	0.1292407
213	0xbdc6ef96	-0.09713666
214	0xbd80b9d8	-0.06285447
215	0x3d7aebfc	0.06126021
216	0x3dfd5b0a	0.1237088
217	0x3dd1b924	0.10240391
218	0x3ba3d420	0.0049996525
219	0xbdd7258f	-0.105052106
220	0x3d8fef4c	0.07028064
221	0xbd9bdcdc	-0.07610485
222	0xbbb96a40	-0.005658418
223	0xbd59cfca	-0.05317668
224	0xbda8a394	-0.08234325
225	0x3c43e090	0.011955395
226	0x3d86fb32	0.065908805
227	0xbde338ed	-0.11094842
228	0xbd1c123c	-0.038103327
229	0xbca75a84	-0.020428903
230	0x3df57de6	0.11986904
231	0x3d4fd5b8	0.050740927
232	0xbd750dd6	-0.059827648
233	0x3dbe4cfc	0.09292027
234	0xbd793efe	-0.06085109
235	0xbdd4f74b	-0.1039873
236	0x3dec6e5c	0.11544487
237	0x3cc91208	0.02454473
238	0x3d98247a	0.07428832
239	0x3dd0d77a	0.10197349
240	0xbce1bde8	-0.027556375
241	0xbd9192a6	-0.07108049
242	0x3e029349	0.12751497
243	0xbd25459a	-0.04034958
244	0xbda6478b	-0.081191145
245	0x3b1b71c0	0.0023718923
246	0x3d0ab05c	0.033859596
247	0xbd3a8656	-0.04553827
248	0xbdd0c92a	-0.10194619
249	0xbd8d3664	-0.0689514
250	0x3c467d60	0.012114853
251	0xbd030e24	-0.031995907
252	0x3cb583b8	0.022157535
253	0xbd3bfc84	-0.045895115
254	0xbcffbb08	-0.031217113
255	0x3dee8ca4	0.11647919

layers.1.weight f4 [4, 16, 16]
0	0xbcf883d2	-0.030336294
1	0x3eb4438a	0.35207778
2	0x3dbc1790	0.09184182
3	0x3df3f165	0.11911277
4	0xbd1509ba	-0.03638623
5	0x3ea876c7	0.3290312
6	0x3e51a09b	0.20471422
7	0xb9e6153b	-0.00043884836
8	0x3e672c1a	0.22575417
9	0xbee7d191	-0.45277074
10	0xbcaed95e	-0.021343883
11	0x3e586798	0.21133268
12	0x3e44e5d8	0.19228303
13	0x3bda524d	0.006662643
14	0x3d90c85b	0.07069465
15	0xb9c15b6c	-0.00036879943
16	0xbe9fcb79	-0.31209925
17	0xbf4f1e79	-0.8090587
18	0xbf8d02be	-1.1016462
19	0x3dd53d10	0.104120374
20	0x3f21be2a	0.6318079
21	0xbf0c639b	-0.54839486
22	0x3bbe8792	0.005814501
23	0x3e903346	0.2816412
24	0xbe8182eb	-0.25295195
25	0x3ecbf6d7	0.3983676
26	0x3e28ac29	0.16471924
27	0xbe12aceb	-0.14323775
28	0xbd9f2183	-0.07770064
29	0x3eee236c	0.465114
30	0xbd960b44	-0.073263675
31	0xbf9402cf	-1.1563357
32	0xbea62ad0	-0.32454538
33	0xbf2c5202	-0.67312634
34	0x3e500025	0.20312555
35	0xbe0048db	-0.12527792
36	0x3e904c9a	0.28183442
37	0x3d743ada	0.059626438
38	0x3e27f759	0.1640295
39	0x3e5e3bef	0.2170255
40	0xbfae39b5	-1.3611361
41	0x3e97115f	0.2950544
42	0xbf0cccdd	-0.55000097
43	0x3e31fb2f	0.17380975
44	0xbe8c93c1	-0.27456477
45	0x3ea6f17e	0.3260612
46	0x3e386f1f	0.1801114
47	0xbfafb015	-1.3725611
48	0x3e2144d7	0.15748917
49	0x3e0d2cee	0.1378667
50	0x3ea674b1	0.32510903
51	0xbde56080	-0.112000465
52	0xbf049332	-0.517871
53	0xbdace3b3	-0.08441868
54	0x3dbda45e	0.09259866
55	0xbe97bdc9	-0.29636982
56	0xbe3f0e9c	-0.18657917
57	0x3e5653c0	0.20930386
58	0x3e833528	0.25626493
59	0xbe15542c	-0.1458289
60	0xbed8e82d	-0.42364636
61	0xbd6d59e1	-0.057947043
62	0xbea2fd45	-0.31833854
63	0xbd9a1118	-0.075227916
64	0x3b6f39fd	0.003650307
65	0xbfb5598e	-1.4167955
66	0xbe355dd5	-0.17711575
67	0x3f283e53	0.657201
68	0x3e57fbe3	0.21092181
69	0x3ddff712	0.10935797
70	0x3ecab7d4	0.39593375
71	0xbe2c046d	-0.16798563
72	0xbe7d246f	-0.2472093
73	0x3decc0ea	0.11560233
74	0xbe4eb690	-0.2018683
75	0x3e469aeb	0.19395034
76	0xbe1f6d77	-0.15569101
77	0x3f07111c	0.5276048
78	0xbf81eff0	-1.0151348
79	0xbe8bf9e7	-0.27339098
80	0x3e85a718	0.26104045
81	0xbf519bbb	-0.8187825
82	0x3f88e3b8	1.0694494
83	0x3e95726c	0.2918886
84	0x3cf66db9	0.030081617
85	0xbea34d01	-0.31894687
86	0xbc308150	-0.010773018
87	0x3d8cabf8	0.06868738
88	0xbe2afae0	-0.16697264
89	0x3cc28c45	0.023748526
90	0xbf06d9d5	-0.52676135
91	0xbebbad4a	-0.36655647
92	0x3e57f05b	0.21087782
93	0xbe6707e7	-0.22561608
94	0xbe9e8c67	-0.30966493
95	0x3e8cf256	0.27528638
96	0xbc474b48	-0.012163945
97	0x3d80d453	0.06290498
98	0x3ed13206	0.40858477
99	0xbef2f90f	-0.47455642
100	0x3e86908c	0.26282156
101	0x3ebb6815	0.36602846
102	0xbb5e7552	-0.003394444
103	0xbd8ebde2	-0.06969811
104	0xc08899c5	-4.2687707
105	0x3e87214b	0.26392588
106	0x3c1ca5b5	0.009560992
107	0x3e2aa602	0.1666489
108	0x3ea082d6	0.3134982
109	0x3ec5fdce	0.386702
110	0x3e80e89b	0.25177464
111	0x3e5bf83e	0.21481416
112	0x3e7105a0	0.23537302
113	0xbe927343	-0.28603563
114	0x3e2f8c70	0.17143416
115	0xbdc47279	-0.095921464
116	0x3ebaf22e	0.36512893
117	0x3d3a2ff8	0.045455903
118	0xbd5a2e55	-0.053266842
119	0x3e8dc6d6	0.27690762
120	0xbd9bc337	-0.07605594
121	0xbe244d80	-0.16045189
122	0x3e1f5429	0.15559448
123	0xbacfa819	-0.0015842944
124	0x3e072385	0.13197143
125	0x3e85488e	0.26031917
126	0x3dc1cc52	0.09462799
127	0xbdd8dc20	-0.105888605
128	0xbd9a4281	-0.07532216
129	0xbe02022e	-0.12696144
130	0xbf06d22d	-0.5266445
131	0xbda17345	-0.07883314
132	0xbf0999d0	-0.53750324
133	0xbac7e52a	-0.0015250791
134	0x3e7272a3	0.23676543
135	0xbe56ba47	-0.20969497
136	0xbf071321	-0.52763563
137	0x3e606808	0.21914685
138	0x3e288c33	0.16459732
139	0x3cc1c276	0.023652297
140	0x3d06a397	0.032870855
141	0xbe8b9573	-0.27262458
142	0x3f01ec06	0.5075077
143	0x3f0e35ad	0.5555065
144	0xbde8c107	-0.11364942
145	0x3e5b66fb	0.21426003
146	0xbebf2f88	-0.3734095
147	0xbe6dec5a	-0.23234692
148	0xbed92c1c	-0.42416465
149	0x3e79f389	0.24409308
150	0x3d3fe70b	0.0468512
151	0x3e6d576e	0.23177883
152	0xbe285c7d	-0.16441531
153	0x3d22087d	0.039558876
154	0x3cb6c0e5	0.022308776
155	0x3e211ff4	0.15734845
156	0x3e334dcd	0.17510147
157	0xbea0d51b	-0.31412587
158	0x3cbf836f	0.023378102
159	0x3f042df2	0.51632607
160	0xbd5dc40c	-0.054142043
161	0xbe176c35	-0.14787371
162	0x3e0f71d4	0.14008266
163	0xbdf1b204	-0.11801532
164	0xbdd706cd	-0.10499344
165	0x3e15a123	0.1461225
166	0x3e98a015	0.29809633
167	0xbdfa8f92	-0.12234415
168	0x3ef351ce	0.4752335
169	0x3eaf8330	0.34279776
170	0x3e15cabf	0.14628123
171	0xbec05b2d	-0.37569562
172	0xbd13135b	-0.03590713
173	0xbfa35cbb	-1.2762674
174	0xbde96965	-0.113970555
175	0x3d89e1fb	0.067325555
176	0x3ddba9ce	0.10725747
177	0xbf1d3819	-0.61413723
178	0xbbb6d2c0	-0.0055793226
179	0xbe9c940a	-0.30581695
180	0x3df66ecc	0.120328516
181	0x3d48201c	0.048858747
182	0x3e9a99ad	0.3019537
183	0x3ed42f95	0.41442552
184	0x39d848ad	0.00041252878
185	0xbe49ab17	-0.19694172
186	0xbcc33779	-0.023830162
187	0x3c700f87	0.0146521395
188	0x3e36325a	0.17792645
189	0xbecc91f7	-0.39955112
190	0x3e9a9c5d	0.3019742
191	0x3e391deb	0.18077819
192	0xbe4e1ca7	-0.20128118
193	0xbe74e449	-0.23915209
194	0xbea35be1	-0.31906036
195	0x3e896fb4	0.26843035
196	0xbe25938f	-0.1616957
197	0xbda82371	-0.08209885
198	0x3de6bf15	0.11266915
199	0xbef26d00	-0.47348785
200	0x3e9121ae	0.28346008
201	0x3d7075dd	0.058706153
202	0x3eabef6b	0.335811
203	0x3e84e142	0.25953108
204	0xbded758d	-0.11594687
205	0x3c71d8cf	0.014761164
206	0x3eef70f6	0.4676587
207	0xbd0e83d1	-0.03479368
208	0xbd1c55cc	-0.03816776
209	0x3d9ffab3	0.07811489
210	0xbf9306fd	-1.1486508
211	0xbc1a00fd	-0.00939965
212	0xbcf2e520	-0.029650271
213	0x3dbd084c	0.09230098
214	0x3c94863c	0.018130414
215	0xbdf220f2	-0.1182269
216	0x3da78b01	0.0818081
217	0x3e6b6866	0.22989044
218	0x3ed85a7f	0.42256543
219	0x3e75fef4	0.24023038
220	0xbd87e2fe	-0.06635092
221	0x3da4459e	0.08021091
222	0x3e957d00	0.2919693
223	0xbf23a497	-0.6392302
224	0x3df3ca5f	0.119038336
225	0xbe954857	-0.29156753
226	0xbef6329c	-0.48085487
227	0x3e32a294	0.17444831
228	0x3eda9833	0.42694244
229	0xbe4c739a	-0.19965973
230	0xbce8b38d	-0.028405929
231	0xbea9ebe3	-0.3318778
232	0xbe40acfd	-0.1881599
233	0x3ed7b666	0.42131346
234	0x3e72e82c	0.23721379
235	0xbc715566	-0.014729833
236	0xbc798130	-0.015228555
237	0x3dd4986c	0.10380635
238	0x3ea0a481	0.31375507
239	0x3def176d	0.1167439
240	0xbe4a1291	-0.19733645
241	0x3dfd24fb	0.12360569
242	0x3f90bd3b	1.1307749
243	0x3ea88faa	0.32922107
244	0x3e920f89	0.28527477
245	0x3e846722	0.25859934
246	0x3f24b1b1	0.64333636
247	0xbe275dd7	-0.16344391
248	0x3d523589	0.051320586
249	0xbe62029f	-0.22071312
250	0xbf61bdc4	-0.88180184
251	0xbcebd176	-0.028786402
252	0xbe28b45a	-0.16475049
253	0x3f00475e	0.501089
254	0xbf899ff3	-1.0751938
255	0x3f850ea9	1.0395099

layers.2.weight f4 [4, 16, 16]
0	0xbe29b5f4	-0.16573316
1	0xbf018832	-0.5059844
2	0xbf6925d2	-0.91073334
3	0x3d5d1b33	0.053981017
4	0xbd0a7bec	-0.033809587
5	0xbd5ed3b3	-0.05440111
6	0xbd3c4c7f	-0.04597139
7	0xbe9833bf	-0.2972698
8	0xbcc52a51	-0.02406803
9	0xbf54744d	-0.8298996
10	0xbf163b33	-0.5868408
11	0x3e43324e	0.19062158
12	0xbd3ae254	-0.045626
13	0x3db8c495	0.0902187
14	0x3cd1ad3b	0.025595298
15	0xbc5a6212	-0.013329046
16	0x3f650157	0.8945517
17	0xbd8d396c	-0.06895718
18	0xbf95a73c	-1.1691661
19	0xbedb4379	-0.42824915
20	0x3f0b7c74	0.54486775
21	0xbe186132	-0.14880827
22	0xbe886133	-0.26636657
23	0xbf86b70a	-1.0524609
24	0xbf0eda87	-0.55802196
25	0xc003470b	-2.051211
26	0xbf3e57ee	-0.7435292
27	0xbf6a878b	-0.9161307
28	0xbed15b44	-0.40889943
29	0xbedb3956	-0.4281718
30	0xbeb0a3d7	-0.345
31	0x3ed133ef	0.40859935
32	0x3f8751f0	1.057188
33	0xbe79c787	-0.2439252
34	0x3f4cf2fd	0.8005827
35	0xbe2a4aaa	-0.16630045
36	0xbf224872	-0.6339179
37	0xbdbec0f4	-0.09314147
38	0xbe1c9cb1	-0.15294148
39	0x3ece1a21	0.4025431
40	0x3e7b3a1a	0.24533883
41	0x3e34df23	0.17663245
42	0x3eda138d	0.4259304
43	0x3d43ca00	0.047800064
44	0x3e1ca419	0.15296973
45	0x3d668983	0.056283485
46	0x3ebc408c	0.36767995
47	0xbef1ffcd	-0.47265473
48	0xbf32c915	-0.69838077
49	0x3eaca2b7	0.33717892
50	0xbe919f0e	-0.28441662
51	0xbeb2a068	-0.34888005
52	0xbed796a9	-0.42107132
53	0x3dd88a9d	0.105733134
54	0x3e771581	0.24129297
55	0xbec5950b	-0.38590273
56	0xbd27528e	-0.040850215
57	0x3d5df570	0.054189146
58	0xbe89ca3d	-0.26912108
59	0xbeccbdf3	-0.3998867
60	0x3e26074e	0.16213724
61	0xbe8e165f	-0.27751443
62	0x3e94da6f	0.29072902
63	0xbb774f1a	-0.0037736357
64	0xbdce85b9	-0.10084099
65	0xbe327ee2	-0.17431214
66	0xbf211c50	-0.62933826
67	0x3d52e499	0.05148754
68	0x3dfd0b65	0.12355689
69	0x3d968e30	0.07351339
70	0x3e04429f	0.12916039
71	0x3dd743de	0.105109915
72	0x3e434589	0.19069494
73	0xbb2ab181	-0.0026045742
74	0x3da1ca11	0.07899869
75	0xbda48ff5	-0.0803527
76	0xbe347f37	-0.17626654
77	0x3f3254a4	0.696604
78	0x3d8152ff	0.063146584
79	0x3f02b242	0.5105325
80	0xbf1e82b8	-0.6191821
81	0xbdfa26e7	-0.12214451
82	0xbf7fa3df	-0.9985942
83	0x3e843690	0.25822878
84	0xbcf03f8f	-0.029327182
85	0xbe2751da	-0.16339818
86	0x3db70e9e	0.08938335
87	0xbea25785	-0.31707397
88	0xbf87fbac	-1.0623679
89	0xbc14c5f1	-0.009080396
90	0xbe80085f	-0.25006387
91	0x3ee3e137	0.44507763
92	0x3e34a987	0.17642795
93	0xbeb50eba	-0.35362798
94	0xbd6d7f4d	-0.05798273
95	0x3d189704	0.037253395
96	0xbd298ce0	-0.041394114
97	0x3e8c1b67	0.27364656
98	0xbca600c1	-0.020264031
99	0x3e24a8f6	0.16080078
100	0xbe39608d	-0.18103237
101	0x3e155e1d	0.14586683
102	0xbe6bc134	-0.2302292
103	0xbea12378	-0.31472373
104	0xbe153408	-0.1457063
105	0x3e2db839	0.16964807
106	0x3e5b7b49	0.21433748
107	0xbe41a16f	-0.18909238
108	0x3e3e68f1	0.1859472
109	0xbe243f5c	-0.16039795
110	0x3e66da57	0.22544228
111	0x3d7b2ce2	0.0613221
112	0x3e5d313c	0.21600813
113	0x3ce69794	0.02814845
114	0x3eec8931	0.4619842
115	0x3d8d8167	0.06909447
116	0x3e852470	0.26004362
117	0xbda53a37	-0.08067744
118	0x3d928ce6	0.071557805
119	0xbf9a64f9	-1.2062064
120	0xbf4f9e8d	-0.81101304
121	0x3e116eb4	0.14202386
122	0xbe8c42ae	-0.27394623
123	0xbe639abf	-0.22227
124	0x3e16f842	0.1474314
125	0x3eb1bd0c	0.34714544
126	0xbd9d77a1	-0.07688833
127	0xbe5cc5f1	-0.21559884
128	0xbd9788ea	-0.07399161
129	0xbf1617ad	-0.58629876
130	0x3e338c05	0.17533882
131	0x3e0f9de2	0.14025071
132	0xbd85a96a	-0.06526454
133	0x3e2934fb	0.16524117
134	0xbd7c830d	-0.061648417
135	0xbe0b1e8b	-0.1358587
136	0xbe74f468	-0.23921359
137	0xbdc8d64d	-0.098065
138	0xbc90cc7b	-0.017675629
139	0x3e872662	0.2639647
140	0xbe817cea	-0.25290614
141	0xc0e7ca33	-7.2434325
142	0x3dc1a2d0	0.09454882
143	0x3dc96c6b	0.09835132
144	0x3f197cf4	0.5995629
145	0xbc4e8d69	-0.012606957
146	0x3c26f825	0.010190998
147	0x3d34917a	0.04408405
148	0x3ea09a14	0.31367552
149	0x3e02a6c5	0.1275893
150	0xbebc1465	-0.3673431
151	0x3e06fb3a	0.13181773
152	0x3e4640a7	0.193606
153	0x3c525031	0.012836502
154	0xbdf53f65	-0.11974982
155	0xbf351f18	-0.7075057
156	0xbd71906e	-0.05897563
157	0xbebf1a6c	-0.37324846
158	0xbe124a32	-0.14286116
159	0x3e94fb30	0.2909789
160	0x3eee535c	0.46547973
161	0xbcc6520f	-0.02420905
162	0x3e638f9b	0.2222275
163	0xbdcfc7d9	-0.1014554
164	0xbcc2f469	-0.023798184
165	0x3dbcfdc0	0.092280865
166	0xbc2d44fe	-0.010575531
167	0x3e5848b3	0.21121483
168	0x3e5a1bc6	0.21299657
169	0x3d6f417b	0.058412056
170	0x3ea5a6c6	0.323538
171	0xbdbda859	-0.092606254
172	0xbe577d3f	-0.21043871
173	0xbfe616b0	-1.7975674
174	0xbe81fed1	-0.25389722
175	0xbe3f3120	-0.18671083
176	0x3ea5bc68	0.32370305
177	0xbf43931b	-0.7639634
178	0x3b522321	0.0032064395
179	0xbf35512d	-0.7082699
180	0xbd9f4fa4	-0.07778862
181	0xbd4c0804	-0.04981233
182	0xbd4c088d	-0.049812842
183	0xbeaed031	-0.34143212
184	0xbf25d3eb	-0.64776486
185	0xbe19fd0a	-0.15037933
186	0x3e1ae310	0.1512568
187	0x3e9f3ae6	0.31099623
188	0xbc131d9d	-0.008979228
189	0xbe3073b7	-0.17231642
190	0xbf44972b	-0.76793164
191	0xbebcc0f0	-0.3686595
192	0x3e4ae14d	0.19812508
193	0xbf07c0d4	-0.5302861
194	0xbf623b09	-0.8837133
195	0x3dc8e65d	0.09809563
196	0x3e6b2f4e	0.22967264
197	0xbe7d94bc	-0.24763769
198	0x3e02a9ee	0.12760136
199	0xbd11560d	-0.035482455
200	0xbf006186	-0.5014881
201	0xbf916f21	-1.1362039
202	0xbef7fdff	-0.4843597
203	0xbd8d0bf0	-0.068870425
204	0x3e3facc6	0.18718252
205	0xbae1633c	-0.0017195712
206	0xbe04b0b2	-0.12958029
207	0x3dd919c0	0.106006145
208	0xbf1411bf	-0.5783958
209	0xbed34843	-0.4126607
210	0xbfa2211b	-1.2666353
211	0xbe5fa4c9	-0.21840204
212	0x3e839359	0.25698355
213	0xbd7833ff	-0.060596462
214	0x3f3c9429	0.73663574
215	0xbf1ff304	-0.6248019
216	0x3ea47af8	0.32125068
217	0x3e908f92	0.28234535
218	0xbeeb6c61	-0.45981124
219	0x3ee18091	0.440434
220	0xbdbfc60a	-0.09363945
221	0xbe4f8fe4	-0.20269734
222	0x3dcdf0a5	0.10055665
223	0x3f764dce	0.9621247
224	0xbbe1f820	-0.006896034
225	0xbf026112	-0.5092937
226	0x3e9bc92d	0.30426922
227	0x3ea10bc7	0.31454298
228	0x3e764d89	0.24053015
229	0x3e069dae	0.13146088
230	0x3e0b5cd1	0.13609625
231	0xbed6e60b	-0.41972384
232	0xbe9bb894	-0.3041426
233	0x3d87e064	0.06634596
234	0x3c3b868c	0.011445653
235	0x3e3c2c06	0.18376169
236	0xbe943497	-0.28946373
237	0xbf806093	-1.0029472
238	0xbeb8ef0d	-0.3611988
239	0xbdf6fc4b	-0.1205984
240	0xbeeb3578	-0.4593923
241	0x3e95bae7	0.29244158
242	0x3d1d990d	0.03847604
243	0x3e4afe8d	0.19823666
244	0xbde391ca	-0.111117914
245	0x3e89a87a	0.2688635
246	0xbe8d295e	-0.27570623
247	0xbea72292	-0.32643563
248	0x3f031f0c	0.5121925
249	0x3e1e47a2	0.15457013
250	0xbedfd4c8	-0.43717027
251	0x3e947271	0.28993562
252	0x3ecfc11c	0.40577018
253	0x3f1185bf	0.56844705
254	0x3f0f411f	0.5595874
255	0xbcef0977	-0.029179318

layers.3.weight f4 [4, 16, 4]
0	0x3d472838	0.04862234
1	0x3eb91dc2	0.36155516
2	0x3d308ba3	0.043101918
3	0xbe34fb8e	-0.17674085
4	0xbea2d989	-0.3180659
5	0xbf25b766	-0.6473297
6	0xbdb0ba43	-0.086292766
7	0x3d2dd315	0.04243763
8	0xbf1ce403	-0.6128542
9	0xbf2136a5	-0.62974006
10	0x3df2097a	0.11818214
11	0xbf33bf13	-0.7021343
12	0xbe1d9ac4	-0.1539107
13	0xbe31067f	-0.17287634
14	0xbea80acc	-0.32820737
15	0xbdff9734	-0.124800116
16	0x3d687e30	0.056760967
17	0xbeccbbd1	-0.39987043
18	0xbc9a6371	-0.018846245
19	0x3eb333d6	0.35000485
20	0x3ed792ef	0.4210429
21	0x3e9347c6	0.28765696
22	0xbdb6fc12	-0.08934797
23	0x3d90c9f0	0.070697665
24	0x3f084558	0.5323081
25	0x3e3a4a86	0.18192491
26	0x3efb2724	0.490533
27	0xbe9a1bb1	-0.30099252
28	0xbf8681fb	-1.0508417
29	0xbf6f551a	-0.9348923
30	0xbf90c2af	-1.1309413
31	0x3fdafb9d	1.7108036
32	0xbe0e1c15	-0.138779
33	0xbec53be7	-0.38522264
34	0xbf0aa94a	-0.54164565
35	0x3f0112c0	0.50419235
36	0xbecaa3c0	-0.39578056
37	0xbe8f7f03	-0.2802659
38	0xbe064bb6	-0.13114819
39	0x3d935a48	0.07194954
40	0xbf0ed031	-0.55786425
41	0xbef9ae7c	-0.48765934
42	0x3eb5fc09	0.3554385
43	0x3dd784b4	0.10523358
44	0x3ea2b986	0.31782168
45	0x3f5a0ed8	0.851789
46	0xbe869722	-0.2628718
47	0xbed16128	-0.40894437
48	0x3f0dd348	0.55400515
49	0x3edefeda	0.4355381
50	0x3eef045f	0.46683022
51	0xbecffac2	-0.40621
52	0xbf924569	-1.1427432
53	0xbe1519c6	-0.14560613
54	0xbf88574b	-1.065164
55	0xbf363d77	-0.7118754
56	0x3e9da9d8	0.30793643
57	0xbe46e6d2	-0.19423988
58	0x3d8d5541	0.069010265
59	0xbebe2147	-0.37134764
60	0x3c8bdfb6	0.017074447
61	0x3d261f38	0.040557116
62	0x3e8b6a32	0.27229458
63	0xbe94959b	-0.2902039
64	0x3f00f617	0.50375503
65	0xbd2e9a37	-0.04262754
66	0x3f3144db	0.6924569
67	0x3e8703a3	0.26369962
68	0xbea5fb6f	-0.3241839
69	0xbd92e515	-0.071726
70	0xbde40287	-0.111332946
71	0x3dbb9b75	0.091605105
72	0x3e556b3e	0.20841691
73	0xbefb020a	-0.49024993
74	0xbdac6a49	-0.0841871
75	0x3f2296fb	0.6351163
76	0xbfc5400a	-1.5410168
77	0xbf8f4559	-1.1193038
78	0xbfc77d5e	-1.5585134
79	0x3f82c8f6	1.0217578
80	0xbfa68876	-1.3010395
81	0xbee10e30	-0.43956137
82	0xbf6d362a	-0.9266077
83	0x3ee90d53	0.45517978
84	0xbcbf2b01	-0.023335936
85	0xbeed9bbb	-0.46407875
86	0xbe260279	-0.1621188
87	0x3eb55cc3	0.35422334
88	0x4036202b	2.8457134
89	0x3fbacb1e	1.4593236
90	0x402a8c4b	2.6648128
91	0xbf0b9d70	-0.54537106
92	0xbeed864d	-0.46391526
93	0xbe851ea1	-0.2599993
94	0xbcf577eb	-0.029964408
95	0xbe7d6f1b	-0.24749415
96	0xbf0e3e38	-0.5556369
97	0xbe1946c7	-0.14968406
98	0x3d57bbea	0.052669443
99	0x3e97cebe	0.2964992
100	0xbe28afab	-0.16473262
101	0xbfdf3297	-1.7437314
102	0x3f926a16	1.1438625
103	0x3fd3ce93	1.6547416
104	0xbe5d5a6f	-0.21616529
105	0xbe99e83e	-0.3006
106	0xbe372994	-0.17886955
107	0x3f0ad2c9	0.5422788
108	0x3f461dd1	0.77389246
109	0x3f0131d1	0.5046664
110	0x3f6803a3	0.9063055
111	0xbf0b4497	-0.54401535
112	0x3e6ce9e9	0.23136105
113	0xbed56f01	-0.41686252
114	0x3de6250d	0.112375356
115	0xbe8c09db	-0.2735127
116	0xbf16957f	-0.5882186
117	0xbbf534be	-0.007483094
118	0xbe90e774	-0.28301585
119	0x3eb7a7a6	0.35870093
120	0x3f25d39c	0.64776015
121	0x3f08d96d	0.53456765
122	0x3ecc2ece	0.3987946
123	0xbebc5e47	-0.36790678
124	0xbf3966e8	-0.7242265
125	0xbed978ab	-0.42474875
126	0xbf70f87f	-0.94129175
127	0x3f0ce1ce	0.5503205
128	0xbe3f171e	-0.18661162
129	0xbf06f1cb	-0.52712697
130	0xbda40240	-0.08008242
131	0x3f0f5b62	0.55998814
132	0xbe50f419	-0.20405616
133	0x3e4893aa	0.1958758
134	0x3dfc815d	0.123293616
135	0x3c1c13e8	0.00952623
136	0xbf0202f9	-0.50785786
137	0xbf100185	-0.5625232
138	0x3d5a801c	0.05334483
139	0x3e8f3ab6	0.2797448
140	0x3f07cdc9	0.5304838
141	0xbea8394d	-0.32856217
142	0x3d37eee6	0.044905566
143	0x3e2c460b	0.16823594
144	0x3eec0657	0.46098587
145	0x3e87f08b	0.26550707
146	0x3f05c42a	0.5225245
147	0xbe421aaf	-0.18955491
148	0x3ddc42d0	0.10754931
149	0x3ea5abe4	0.32357705
150	0xbd14fa10	-0.03637129
151	0xbdffd3fb	-0.12491604
152	0x3e20917b	0.15680496
153	0x3c8901c3	0.016724473
154	0x3f1f098d	0.6212395
155	0x3e9843da	0.29739267
156	0xbdf43afe	-0.11925314
157	0xbf0c7362	-0.5486356
158	0xbd155cbb	-0.036465388
159	0x3e8e6f87	0.27819464
160	0xbd180abd	-0.037119616
161	0xbf1e38b8	-0.61805296
162	0x3f0f7555	0.5603841
163	0x3f8f3df6	1.1190784
164	0xbed482ff	-0.41506192
165	0xbe87d467	-0.26529238
166	0xba8b0d98	-0.001060891
167	0x3e81fe5a	0.25389367
168	0x3e19c8df	0.15018032
169	0x3e67f6b9	0.22652711
170	0xbdaa8e50	-0.08327925
171	0xbe2af732	-0.1669586
172	0x3f1c04cf	0.6094484
173	0xbdc3f1b4	-0.095675856
174	0x3ec8d415	0.39224306
175	0x3ed15e43	0.40892228
176	0x3fa9e849	1.3274013
177	0x3efff717	0.49993202
178	0x3f691049	0.91040474
179	0xbe0f2d3c	-0.139821
180	0x3cbde5f8	0.023180947
181	0x3e35e103	0.17761616
182	0x3dc8338c	0.09775457
183	0xbe849ef9	-0.25902537
184	0xbe8220e3	-0.25415716
185	0xbf6b58d0	-0.9193239
186	0xbea60c7b	-0.32431397
187	0x3f2b177a	0.668327
188	0x3e1230bc	0.14276403
189	0xbed28f16	-0.4112479
190	0xbee1998f	-0.44062468
191	0x3ee613b8	0.4493692
192	0xbf14dfd1	-0.58154017
193	0xbe20a0f7	-0.15686403
194	0xbe104553	-0.14088945
195	0x3eccb679	0.39982966
196	0xbe8ecd58	-0.2789104
197	0xbe7cfc22	-0.24705556
198	0xbdd9192c	-0.10600504
199	0x3deb356d	0.114847995
200	0xbe7641d8	-0.24048555
201	0xbe6e5b71	-0.2327707
202	0xbe72b4b1	-0.23701741
203	0x3e0af5f2	0.13570383
204	0xbf21168d	-0.62925035
205	0xbefdfa77	-0.49605152
206	0xbe8b27eb	-0.27178892
207	0x3f0cb43a	0.54962504
208	0x3e7dac6b	0.24772803
209	0xbdfafce0	-0.12255263
210	0x3e8162ac	0.25270593
211	0x3dab67ec	0.08369431
212	0xbe2630a3	-0.16229491
213	0xbe971e8d	-0.29515496
214	0xbe754bef	-0.23954748
215	0xbdeb5db4	-0.11492482
216	0x3d1f8ec5	0.038954515
217	0x3d636f5e	0.05552613
218	0xbce5f9f2	-0.028073285
219	0xbe751185	-0.23932464
220	0xbe7d5ff0	-0.24743629
221	0x3e462445	0.19349773
222	0xbe854e38	-0.2603624
223	0xbeb82f02	-0.35973364
224	0x3ebc4a30	0.3677535
225	0xbdc5e4da	-0.096627906
226	0x3e2f1cbe	0.17100808
227	0x3ec8d67b	0.39226136
228	0xbe51fcfc	-0.20506662
229	0x3e2f47b3	0.17117195
230	0x3e82589a	0.25458223
231	0xbe9956ce	-0.2994904
232	0xbf1e70e9	-0.6189104
233	0xbe138845	-0.14407451
234	0xbcdf8355	-0.027284304
235	0xbd796ffb	-0.06089781
236	0x3e07654e	0.13222238
237	0xbd80db84	-0.06291869
238	0xbe946f86	-0.28991336
239	0xbd6d9692	-0.058004923
240	0x3ebed624	0.3727275
241	0xbbb563d0	-0.00553558
242	0x3e391637	0.1807488
243	0x3dce04da	0.10059519
244	0xbf69f7f7	-0.9139399
245	0xbf07c083	-0.53028125
246	0xbf4c1a3e	-0.7972754
247	0x3f53d1d2	0.82742035
248	0x3f2a921b	0.6662919
249	0x3f9716c9	1.1803828
250	0x3eb7bf56	0.35888165
251	0xbffbdc68	-1.9676638
252	0x3eb4473a	0.35210592
253	0x3ebcd1cb	0.3687881
254	0xbd985caf	-0.07439553
255	0x3e862aee	0.26204628

attn.fc.weight f4 [4, 4]
0	0x3ed69b07	0.4191515
1	0x3e18e567	0.1493126
2	0x3dfa6f58	0.122282684
3	0x3eba3dff	0.36375424
4	0x3e83a9fc	0.25715625
5	0xbcec5cc8	-0.028852835
6	0xbdcc9c6b	-0.09990772
7	0x3f0eb299	0.5574127
8	0xbea778e9	-0.32709435
9	0xbe2feaa1	-0.17179348
10	0xbe6138f1	-0.21994378
11	0x3e91cd9c	0.2847718
12	0xbe34bec5	-0.17650898
13	0x3f6a95a4	0.91634583
14	0xbed2427a	-0.41066343
15	0xbeadce21	-0.33946326

attn.attn_fc.weight f4 [1, 8]
0	0x3f1893a5	0.5960029
1	0x3f8f14f6	1.1178272
2	0x3da3cb4b	0.079977594
3	0xbf68fa2e	-0.91006744
4	0x3f199d7c	0.6000593
5	0x3e4ab719	0.19796409
6	0xbeffa0f6	-0.4992749
7	0x401493ec	2.3215284

dense.weight f4 [1, 4]
0	0x3e9103f7	0.28323337
1	0xbe14f771	-0.14547516
2	0xbe75e7e6	-0.24014243
3	0x3d9724e6	0.07380085
