saved_model_w/logp_lowd.pth (torch_old, 15637 bytes, 12 tensors)

layers.0.weight f4 [4, 14, 16]
0	0xbdb484c9	-0.08814389
1	0xbd3ce014	-0.046112135
2	0xbc557fef	-0.01303099
3	0x3cec1d44	0.028822549
4	0x3d9bef3d	0.076139905
5	0xbd6b21da	-0.05740533
6	0x3d72485d	0.059151042
7	0x3d84b05d	0.06478951
8	0x3e1c3c03	0.15257268
9	0xbe3511ac	-0.17682523
10	0xbcdb5f13	-0.026778733
11	0x3e1ae717	0.15127216
12	0xbcccf2a7	-0.02501805
13	0xbe0e35f3	-0.13887767
14	0x3e30c491	0.17262484
15	0xbef57fe6	-0.4794914
16	0xbd647284	-0.055773273
17	0xbd85f8ba	-0.065415815
18	0xbc8a2520	-0.016863406
19	0x3defba98	0.11705512
20	0x3e249230	0.16071391
21	0x3e10c32a	0.14136949
22	0xbe484782	-0.19558528
23	0xbcadad98	-0.02120094
24	0xbdbe1083	-0.09280493
25	0xbe08f928	-0.13376296
26	0x3e41f12c	0.18939656
27	0xbe1e8dd7	-0.15483795
28	0xbca579a0	-0.020199597
29	0x3e329b54	0.17442065
30	0x3d8aa4f4	0.067697436
31	0x3e37c50e	0.17946264
32	0xbe0d30cc	-0.13788146
33	0xbda66625	-0.08124951
34	0xbdd0b6af	-0.10191094
35	0xbe506358	-0.20350397
36	0xbcc19688	-0.02363135
37	0xbe0e6c5e	-0.13908526
38	0x3e2b74fa	0.16743842
39	0x3e1df348	0.15424836
40	0xbe0d519a	-0.1380066
41	0x3cdff148	0.027336732
42	0xbd9a5ae6	-0.07536869
43	0x3da0d604	0.0785332
44	0x3d1bbcc4	0.038021818
45	0xbe121851	-0.14267088
46	0x3e32e1a2	0.17468885
47	0x3e235d5e	0.15953586
48	0xbd8a9c4a	-0.06768091
49	0x3e068f76	0.13140664
50	0x3de2ee4c	0.11080608
51	0xbddf69e1	-0.10908867
52	0xbdb519ea	-0.08842833
53	0xbd59a46c	-0.05313532
54	0xbddf7045	-0.109100856
55	0xbe3757e1	-0.17904617
56	0x3d03f32c	0.03221433
57	0x3c7bcb70	0.0153683275
58	0x3d59ded8	0.053191036
59	0xbe4a6a27	-0.19767056
60	0x3d36efec	0.0446624
61	0xbd366a38	-0.04453489
62	0xbc408c70	-0.011752233
63	0x3d8dd54c	0.06925449
64	0xbe3307e9	-0.17483486
65	0xbe91d3d5	-0.28481928
66	0xbe887d7b	-0.26658234
67	0x3f5bb9a4	0.8583014
68	0xbeae002d	-0.3398451
69	0xbee347b9	-0.44390658
70	0x3dfe82b6	0.12427275
71	0x3f552e15	0.8327344
72	0x3e272bda	0.16325322
73	0x3d8804c0	0.06641531
74	0x3d1ed42b	0.038776558
75	0xbf281ba5	-0.6566718
76	0xbec7b8ef	-0.3900828
77	0xbeb93ff9	-0.3618162
78	0x3deb86bf	0.1150031
79	0x3e5f7431	0.21821667
80	0x3e428898	0.18997419
81	0x3e09ccf4	0.1345709
82	0xbd5f0e00	-0.05445671
83	0x3e13a5e2	0.14418748
84	0x3e473eb4	0.19457513
85	0xbd935696	-0.07194249
86	0xbc0d6e30	-0.008632228
87	0x3db597cc	0.088668436
88	0x3dd4a3dc	0.10382816
89	0x3acdb500	0.0015694201
90	0xbe4228ae	-0.1896083
91	0xbd7e4b20	-0.062083364
92	0xbd9cac90	-0.07650101
93	0xbd2b58c0	-0.041832685
94	0x3d8424f8	0.06452364
95	0xbd047304	-0.03233625
96	0x3e11a1a1	0.14221813
97	0x3e027fdf	0.12744091
98	0x3beafe7c	0.00717145
99	0x3d84acc5	0.06478266
100	0x3db18805	0.08668522
101	0x3e356176	0.1771296
102	0xbe23aedb	-0.15984671
103	0xbbb94a4e	-0.0056546098
104	0xbe2c8f22	-0.16851476
105	0xbf2a8420	-0.66607857
106	0xbda8f72c	-0.08250269
107	0xbe6a06e0	-0.22854185
108	0x3dd72985	0.10505966
109	0x3dc5b273	0.09653177
110	0x3d1cefc9	0.038314614
111	0xbdfdc7c7	-0.1239162
112	0x3ebb6af9	0.3660505
113	0x3ed9c72d	0.42534772
114	0x3e11a77e	0.1422405
115	0x3e22b974	0.15891057
116	0xbe3048bc	-0.17215246
117	0xbf03eb8f	-0.5153131
118	0x3e219d7a	0.15782729
119	0xbe563411	-0.209183
120	0x3e7cf7f5	0.24703963
121	0x3e9e76df	0.30950066
122	0xbeb78d2e	-0.358499
123	0x3d0090e2	0.03138817
124	0xbe1d06a0	-0.15334558
125	0xbca145b3	-0.019686555
126	0xbe1c0be2	-0.15238908
127	0xbe1ab531	-0.15108182
128	0xbdb872eb	-0.09006294
129	0xbe1786e1	-0.14797546
130	0x3ebe323d	0.37147704
131	0xbe0832f9	-0.13300695
132	0xbde11f69	-0.10992319
133	0xbe87ffdd	-0.26562396
134	0xbe408703	-0.18801503
135	0xbcc588d5	-0.024113098
136	0x3e688a95	0.22709115
137	0x3e0246cb	0.12722318
138	0xbecd1624	-0.40055954
139	0x3e2b7934	0.16745454
140	0x3f0b1362	0.5432645
141	0x3cebfbfa	0.028806675
142	0xbcdbd326	-0.026834082
143	0xbd8eae2a	-0.06966813
144	0x3e876a8f	0.26448485
145	0xbed22b73	-0.41048774
146	0xbe3468d6	-0.17618117
147	0xbea19ac6	-0.31563395
148	0xbe782e10	-0.24236321
149	0xbdc046c0	-0.093884945
150	0xbeadb814	-0.33929503
151	0xbea7abf9	-0.32748392
152	0x3d3a9412	0.045551367
153	0x3dc24a83	0.09486868
154	0xbb702d09	-0.0036647937
155	0x3e77d1c0	0.24201107
156	0x3c7f0aaf	0.015566512
157	0xbc92ae33	-0.01790533
158	0xbcac239a	-0.02101307
159	0xbd494704	-0.04913999
160	0x3d8b3f98	0.06799239
161	0x3e29ba64	0.16575009
162	0xbc747180	-0.014919639
163	0xbde21070	-0.110382915
164	0x3e167e8c	0.14696711
165	0x3d1408ac	0.036141083
166	0x3c0d2900	0.008615732
167	0xbcf2cdd8	-0.02963917
168	0xba423100	-0.0007407814
169	0x3d109c78	0.03530547
170	0x3e3365ce	0.17519304
171	0xbc230280	-0.0099493265
172	0x3ce43518	0.027857348
173	0x3c54f100	0.012996912
174	0x3e2d6314	0.16932327
175	0xbdb4eaca	-0.08833845
176	0x3d525902	0.051354416
177	0xbf35efc7	-0.71068996
178	0xbd7d991c	-0.061913595
179	0xbe1d1aa8	-0.153422
180	0x3d989aef	0.07451426
181	0xbe70ea73	-0.23526935
182	0x3d9faeec	0.077970356
183	0x3e62f75d	0.22164674
184	0x3e20496e	0.15653011
185	0xbe956f0c	-0.29186285
186	0xbca535e7	-0.020167304
187	0x3de22035	0.11041299
188	0x3d4dfb3e	0.05028843
189	0xbeb3ddb3	-0.3513008
190	0xbdee0635	-0.11622278
191	0xbd719b69	-0.0589861
192	0xbece49b0	-0.40290594
193	0x3d1ad44b	0.037800115
194	0xbe2e5afc	-0.17026895
195	0x3f1d6b48	0.61491823
196	0xbe3b44d7	-0.18287979
197	0xbde91927	-0.113817506
198	0x3c591894	0.013250489
199	0x3ea7d8f0	0.32782698
200	0x3cbfd4dc	0.023416929
201	0xbdb2a125	-0.08722142
202	0x3aa6f389	0.0012737374
203	0xbe62c77d	-0.22146411
204	0xbf0b1f8d	-0.5434502
205	0xbeb1cd89	-0.34727123
206	0x3c60283e	0.0136814695
207	0xbd99a4cc	-0.07502136
208	0x3d0c0554	0.03418477
209	0x3e00c9a8	0.12576926
210	0xbdcff005	-0.10153202
211	0xbc6416a0	-0.01392141
212	0x3dbe46c0	0.09290838
213	0xbde196be	-0.1101508
214	0xbcc978b8	-0.024593696
215	0xbe4378fa	-0.19089118
216	0xbd268860	-0.0406574
217	0x3de3124c	0.11087474
218	0x3dac1d84	0.08404067
219	0xbdb7599f	-0.08952641
220	0xbdefa722	-0.117018
221	0x3dda8704	0.106702834
222	0x3dc96cc8	0.098352015
223	0xbe2a72fc	-0.16645426
224	0xbda16e1a	-0.07882328
225	0xbd170792	-0.036872454
226	0xbcfc5b3a	-0.030805219
227	0x3e588f5f	0.21148442
228	0xbe09ff49	-0.1347629
229	0xbdb702d7	-0.089360885
230	0xbee6d1c0	-0.45081902
231	0xbcb011a1	-0.021492781
232	0xbe297b9e	-0.16551062
233	0x3d9f21e0	0.07770133
234	0xbda811e4	-0.08206537
235	0x3d1abfd1	0.037780587
236	0x3ddeaa09	0.108722754
237	0xbe4330ae	-0.19061539
238	0xbdf82ef3	-0.1211833
239	0x3e32a1bf	0.17444514
240	0xbdcadbed	-0.09905229
241	0x3d86a8d0	0.06575167
242	0xbe247120	-0.16058779
243	0xbcf66dd8	-0.030081674
244	0x3e15b840	0.14621067
245	0xbe1906b4	-0.14943963
246	0xbd1e43e4	-0.038638964
247	0x3de19524	0.110147744
248	0x3e1b9a5a	0.15195599
249	0x3e4402c0	0.19141674
250	0xbe3537a2	-0.17697003
251	0xbde05ca2	-0.10955168
252	0x3c49e970	0.012323722
253	0x3e288ba4	0.16459519
254	0x3dd87d14	0.10570732
255	0x3b8b01c0	0.004242152

layers.0.h_bias f4 [16]
0	0xbc39d793	-0.011342901
1	0xbc1a7a0f	-0.009428515
2	0xbad4f76e	-0.0016248056
3	0xbe4f3888	-0.20236409
4	0x3e51d863	0.20492701
5	0x3cec0e48	0.028815404
6	0x3e99c8c8	0.30035996
7	0xbd91f983	-0.07127669
8	0x3c435342	0.011921706
9	0xbd5fc7fe	-0.054634087
10	0x3ec29d97	0.38010857
11	0xbcb500a1	-0.022095026
12	0x3c4ceea3	0.012508067
13	0x3d90a7e9	0.07063276
14	0xbc5c4525	-0.01344422
15	0x3d1499c9	0.036279473

layers.1.weight f4 [4, 16, 16]
0	0xbeb78caf	-0.3584952
1	0xbf19e1ca	-0.6011015
2	0xbf1c49e5	-0.61050254
3	0xbd66683f	-0.05625176
4	0x3e7c0844	0.24612528
5	0xbd0d3810	-0.034477293
6	0x3d82a5ef	0.063793056
7	0x3dba737a	0.09104057
8	0x3d64f871	0.055900995
9	0xbdebfd95	-0.11522976
10	0x3d347393	0.044055533
11	0xbd995262	-0.074864164
12	0xbf0b3e41	-0.54391867
13	0x3e83fbe8	0.25778127
14	0x3d65b6ca	0.056082524
15	0xbe5c0afb	-0.21488564
16	0xbd55d3c8	-0.052203923
17	0xbe801ac5	-0.25020424
18	0xbdf95a40	-0.12175417
19	0xbbd33ae9	-0.0064462316
20	0xbd01e777	-0.031714883
21	0xbe43bfcb	-0.19116132
22	0x3e3b4224	0.1828695
23	0xbdf38466	-0.118904874
24	0x3e80de28	0.25169492
25	0xbceee3e6	-0.029161405
26	0xbcbdbf5e	-0.02316254
27	0x3e8b7d61	0.27244094
28	0xbd031711	-0.03200442
29	0x3e9322fe	0.28737634
30	0xbe487a74	-0.19577962
31	0x3bdd88c1	0.006760687
32	0xbd57335f	-0.052539226
33	0x3ec188e6	0.37799758
34	0x3d553991	0.052056853
35	0xbe99a2ff	-0.3000717
36	0xbdc6fbe6	-0.097160146
37	0x3c8bf179	0.017082917
38	0x3eadc394	0.33938277
39	0xbdc06e1b	-0.09396001
40	0x3e899427	0.26870844
41	0xbec87ed7	-0.3915927
42	0x3eeb53fb	0.4596251
43	0x3e8b82ae	0.27248138
44	0xbe027a8d	-0.12742062
45	0x3d8abdca	0.06774481
46	0xbdaf6a76	-0.08565228
47	0xbe2e7af5	-0.17039092
48	0x3e2c5c69	0.16832127
49	0xbe172346	-0.1475955
50	0xbd915a8f	-0.07097351
51	0xbcafbc8e	-0.021452215
52	0x3c365bf5	0.011130323
53	0x3e2133d2	0.15742424
54	0x3e2c4581	0.16823389
55	0x3dc345e7	0.09534817
56	0xbed01d6e	-0.40647453
57	0xbe86700e	-0.26257366
58	0xbcbd2852	-0.023090515
59	0xbddec4c9	-0.108773775
60	0xbe600d1a	-0.21879998
61	0x3e779c37	0.24180685
62	0x3dfa349c	0.12217066
63	0xbdd132a7	-0.10214739
64	0x3df92626	0.12165479
65	0xbca44fda	-0.020057607
66	0x3db03e92	0.08605684
67	0xbe0dcaf5	-0.13846953
68	0x3da8dc79	0.08245177
69	0x3dd38aef	0.10329234
70	0xbdb92371	-0.09039963
71	0xbe8ae58d	-0.27128258
72	0xbe250ce0	-0.16118193
73	0x3adbe068	0.0016775252
74	0x3d8b7912	0.06810202
75	0xbd3182a3	-0.043337476
76	0xbd9ef7c0	-0.07762098
77	0xbd3bf813	-0.04589088
78	0xbd83ccfb	-0.06435581
79	0xbe177026	-0.14788875
80	0x3e889cb8	0.26682067
81	0xbf3b965f	-0.73276323
82	0xbdf63bfa	-0.12023158
83	0x3ddf94b5	0.109170355
84	0x3e12976a	0.14315572
85	0xbdfeb156	-0.12436168
86	0x3cc7de47	0.024397982
87	0xbd085d34	-0.03329201
88	0xbf03ce69	-0.5148683
89	0xbbebb113	-0.0071927398
90	0xbf3891fd	-0.7209776
91	0x3cdfce25	0.027319977
92	0xbc26dd2b	-0.0101845665
93	0xbfc4b991	-1.536913
94	0xbcbe258a	-0.02321126
95	0xbe373e52	-0.17894867
96	0xbeb2eb0a	-0.34944946
97	0xbe576268	-0.21033633
98	0xbe731213	-0.23737364
99	0xbe0ef8d7	-0.13962112
100	0x3e9c988f	0.30585143
101	0x3d02caf8	0.031931847
102	0xbd71feb8	-0.05908081
103	0xbccfc9d4	-0.025364794
104	0x3d6f6587	0.058446433
105	0xbe1f5ab3	-0.15561943
106	0xbd638c66	-0.055553816
107	0x3e456df3	0.19280224
108	0x3b750a7f	0.003739029
109	0xbd1855fb	-0.037191372
110	0xbc1ab74e	-0.009443117
111	0x3d3fae76	0.04679724
112	0x3e0340f2	0.12817743
113	0x3e23a8fa	0.15982428
114	0xbd33c730	-0.043891132
115	0x3d15e716	0.036597334
116	0xbe28aca1	-0.16472103
117	0x3cde57aa	0.02714141
118	0x3d84b606	0.06480031
119	0xbde83313	-0.11337867
120	0xbe8562c8	-0.26051927
121	0xbe03aaf5	-0.12858184
122	0xbea98f50	-0.3311715
123	0xbde6d056	-0.11270206
124	0xbeab5fe2	-0.3347159
125	0xbb9239ca	-0.0044624554
126	0x3d261e7a	0.04055641
127	0xbd1229b9	-0.03568432
128	0x3e958b7b	0.29207978
129	0xba574c72	-0.00082129904
130	0xba9509b5	-0.0011370691
131	0x3d5965e8	0.0530757
132	0xbe234d28	-0.15947402
133	0xbe6cdd51	-0.231313
134	0x3e82d338	0.25551772
135	0x3c7950d4	0.015217025
136	0x3e40178d	0.18758984
137	0x3ea06055	0.31323496
138	0xbd951b90	-0.07280648
139	0x3e2de40c	0.16981524
140	0xbeab9206	-0.33509845
141	0x3e827a6f	0.25484034
142	0xbe64866c	-0.22316903
143	0xbe5f6bbc	-0.21818441
144	0x3e78bc6f	0.24290632
145	0x3eb94261	0.36183456
146	0x3eceab0e	0.4036488
147	0xbe1e8a26	-0.15482387
148	0x3e2941ce	0.16529009
149	0x3eeda62f	0.4641585
150	0xbe34a241	-0.1764002
151	0xbc9d63ac	-0.019212566
152	0xbeaf912b	-0.34290442
153	0xbeb26256	-0.3484065
154	0x3d77e41b	0.060520273
155	0xbd947d88	-0.07250506
156	0x3f694bac	0.9113109
157	0xbecc835a	-0.39943963
158	0x3db9a953	0.09065499
159	0x3eb6946a	0.35660106
160	0xbeed076e	-0.4629473
161	0x3e828601	0.25492862
162	0xbd1d2235	-0.0383627
163	0xbd57581b	-0.05257426
164	0x3ee463f9	0.44607523
165	0x3edf8214	0.4365393
166	0xbf1b73f6	-0.6072382
167	0xbf09fd69	-0.539023
168	0x3ecc9d1f	0.39963624
169	0xbe52b731	-0.20577694
170	0xbe01da28	-0.12680876
171	0x3d1443ce	0.036197476
172	0xbe1a6d86	-0.15080842
173	0xbcf880c2	-0.030334834
174	0x3eb84a00	0.35993958
175	0xbe42a536	-0.19008335
176	0xbe24af7f	-0.16082571
177	0x3caffd1d	0.021482999
178	0xbe7973b1	-0.24360539
179	0xbe70f99c	-0.23532718
180	0xbb474e8d	-0.003041181
181	0x3e303257	0.17206703
182	0x3e8c7ad2	0.27437454
183	0xbd92a1fa	-0.07159801
184	0x3de872d5	0.113500275
185	0xbecbaf65	-0.39782253
186	0x3e989380	0.29800034
187	0x3d3990c9	0.045304094
188	0xbedde7bb	-0.4334086
189	0x3e7becb6	0.24602017
190	0x3e0d1e72	0.13781145
191	0xbe87395d	-0.26410952
192	0x3d88d32b	0.06680902
193	0xbebcebf2	-0.36898762
194	0x3d87c4e1	0.066293485
195	0xbe73b1fe	-0.23798367
196	0x3e0e9b31	0.13926388
197	0xbdc5e12d	-0.096620895
198	0xbe05b636	-0.13057789
199	0xbdd18414	-0.1023027
200	0xbf51e986	-0.81996953
201	0xbca2bf90	-0.019866735
202	0xbc9f078a	-0.019412775
203	0x3cd69952	0.026196156
204	0xbdee3e58	-0.11632985
205	0xbef97f6f	-0.48730037
206	0xbe9f9745	-0.31170097
207	0xbcf99455	-0.030466238
208	0xbd860e1a	-0.065456584
209	0xbcb53913	-0.022121942
210	0x3e419699	0.18905105
211	0xbe2adfbd	-0.16686912
212	0x3e488487	0.19581805
213	0xbe03e4f1	-0.12880303
214	0x3c9f6984	0.019459493
215	0xbd534e3a	-0.051588275
216	0x3ed15327	0.40883753
217	0xbf92874c	-1.1447539
218	0x3e9899cb	0.29804835
219	0x3e809ccd	0.2511963
220	0xbbba984f	-0.005694426
221	0x3e651816	0.2237247
222	0xbe2a06c0	-0.16604137
223	0xbf5860ff	-0.84523004
224	0xbe25cddd	-0.16191812
225	0xbea7e16b	-0.32789168
226	0x3e401ed1	0.18761756
227	0xbdbe8b73	-0.093039416
228	0xbe6a8620	-0.22902727
229	0x3e4e0bca	0.20121685
230	0xbda863f2	-0.08222188
231	0xbe413636	-0.18868336
232	0xbee0451a	-0.4380272
233	0x3bea4187	0.0071489247
234	0xbc6464c9	-0.013940045
235	0x3e2dafe0	0.16961622
236	0xbd9d9db0	-0.07696092
237	0x3bae7423	0.005323903
238	0x3e080433	0.13282852
239	0x3d8e6ad4	0.069539696
240	0xbd88697f	-0.06660747
241	0x3ef273f3	0.47354087
242	0x3e61fb32	0.2206848
243	0x3f21ab34	0.6315186
244	0x3e4cca5d	0.1999907
245	0x3e888a95	0.2666823
246	0x3e61befa	0.22045508
247	0xbe87441d	-0.26419154
248	0xbeda8171	-0.4267688
249	0xbe465e6c	-0.19371957
250	0x3e213eae	0.15746567
251	0xbef6faed	-0.48238316
252	0xbe9a9ac9	-0.30196217
253	0xbda69469	-0.08133776
254	0xbccc2156	-0.02491824
255	0x3d107887	0.035271194

layers.1.h_bias f4 [16]
0	0xbe422f88	-0.18963444
1	0xbd88f8aa	-0.06688054
2	0x3daddd73	0.08489504
3	0x3eb0c02d	0.34521618
4	0x3cd022a2	0.02540714
5	0x38e893fe	0.00011090188
6	0x3e158b05	0.14603813
7	0x3f11bfd7	0.5693335
8	0xbe8b347d	-0.27188483
9	0x3d0416a2	0.032248147
10	0xbdc8143b	-0.09769484
11	0xbceb2bbd	-0.02870738
12	0x3d7367b0	0.059425056
13	0xbea3a2da	-0.31960183
14	0x3e8613db	0.26187024
15	0x3ef70250	0.48243952

layers.2.weight f4 [4, 16, 16]
0	0xbecde128	-0.40210843
1	0xbe965939	-0.29364946
2	0x3e6e7580	0.2328701
3	0x3ee2a09d	0.44263163
4	0x3e3606bd	0.17776008
5	0x3f10d6a7	0.56577533
6	0xbceb24ee	-0.028704133
7	0xbdde0872	-0.108414546
8	0x3e9916e1	0.29900268
9	0xbe3253fb	-0.17414849
10	0x3dbabe3a	0.09118314
11	0x3d28d147	0.041215207
12	0xbf22ce2d	-0.6359585
13	0x3f88b94a	1.0681546
14	0xbdfaf492	-0.12253679
15	0xbde05de1	-0.10955406
16	0xbd4d26c2	-0.05008579
17	0xbe94c9c5	-0.29060188
18	0xbf34e30e	-0.7065896
19	0xbe21a180	-0.15784264
20	0xbee179cc	-0.44038236
21	0x3eddc463	0.43313894
22	0x3f29001c	0.6601579
23	0xbc99275c	-0.018695526
24	0xc02e21e1	-2.7208178
25	0x3ef43124	0.4769374
26	0xbdd08a3a	-0.101826146
27	0xc0196fb0	-2.3974419
28	0xbf50132f	-0.8127927
29	0x3e13131e	0.14362761
30	0x3f3ff7b1	0.7498732
31	0xbec386a5	-0.38188663
32	0xbe39d5c3	-0.1814795
33	0x3ec75a13	0.3893591
34	0x3d8e8e79	0.06960768
35	0xbe488c7b	-0.19584839
36	0xbd8dfe37	-0.06933253
37	0x3da8fc50	0.0825125
38	0xbe0bc9e7	-0.13651238
39	0xbbd679e5	-0.0065452927
40	0xbcc657e2	-0.024211828
41	0x3d22d6ff	0.039755818
42	0x3a048a99	0.0005056053
43	0xbda53e9a	-0.08068581
44	0xbe0ec8b6	-0.13943753
45	0xbd4a99a4	-0.04946293
46	0xbe306755	-0.17226918
47	0xbeea14d9	-0.4571903
48	0xbf5a397c	-0.85243964
49	0xbf8fa058	-1.1220808
50	0xbe982147	-0.2971289
51	0xbed2dd3f	-0.41184422
52	0xbf54e37a	-0.831596
53	0xbee05178	-0.43812156
54	0xbfb665ff	-1.4249877
55	0x3ce608e5	0.028080413
56	0x3e893daa	0.26804858
57	0x3e2c6337	0.16834722
58	0x3f07bfdc	0.5302713
59	0xbef17446	-0.47159022
60	0x3f3ae749	0.73009163
61	0xbfe03f0b	-1.7519239
62	0x3e7b3b81	0.24534418
63	0x3e6e6bd2	0.23283318
64	0xbe62f982	-0.22165492
65	0xbe9e16e9	-0.30876854
66	0xbe91f037	-0.28503582
67	0xbe93f99a	-0.28901368
68	0x3e62cb4f	0.22147869
69	0x3e333ce5	0.17503698
70	0xbe1fc52f	-0.15602563
71	0xbd65c1cc	-0.056093022
72	0x3e7f988d	0.24960537
73	0xbcd9d316	-0.026589911
74	0x3e73fea9	0.23827614
75	0xbf0576a2	-0.52134144
76	0xbdec8c36	-0.115501806
77	0xbed92b8f	-0.42416045
78	0xbce753e9	-0.028238254
79	0xbd2be747	-0.04196861
80	0xbdcc051c	-0.09961912
81	0xbe005ce9	-0.12535442
82	0x3d89ecbf	0.06734609
83	0xbd3727e2	-0.04471577
84	0x3def262a	0.11677201
85	0xbde98998	-0.11403197
86	0x3cfb80fb	0.030701151
87	0x3e20dd6d	0.15709467
88	0x3e3c08d4	0.18362743
89	0xbe57fa83	-0.21091656
90	0x3e408235	0.1879967
91	0xbe248e70	-0.1606996
92	0x3d82e339	0.063909955
93	0x3cda0423	0.0266133
94	0x3dd0674d	0.10175953
95	0xbe27a269	-0.16370548
96	0x3e112ec5	0.14177997
97	0xbd6dabd8	-0.05802521
98	0x3cdb6f20	0.026786387
99	0xba63f045	-0.0008695166
100	0x3e04278b	0.1290571
101	0xbd9eb0c1	-0.07748557
102	0xbe83563b	-0.25651726
103	0xbbf0f75d	-0.0073537068
104	0x3dd2c3ef	0.102912776
105	0xbe10d967	-0.14145432
106	0xbd2280e0	-0.039673686
107	0x3e147d47	0.14500915
108	0x3da9c4fc	0.08289525
109	0xbe24c389	-0.16090216
110	0xbe58f14e	-0.211858
111	0xbc8a0d6a	-0.0168521
112	0x3efc2a36	0.49250954
113	0x3f2cdebf	0.67527384
114	0x3e7fb462	0.24971154
115	0x3f242055	0.64111835
116	0xbe834fbd	-0.25646773
117	0x3f059347	0.5217785
118	0x3f52ef3d	0.823963
119	0x3cd21846	0.02564634
120	0xbe41ecd2	-0.18937996
121	0x3efa0f9e	0.4884004
122	0xbe9ba9b1	-0.30402902
123	0x3f2b0621	0.66806227
124	0x3e3e2447	0.18568526
125	0x3f8e5f58	1.1122847
126	0x3e603ef0	0.21899009
127	0x3ebf4e32	0.37364346
128	0xbe36a978	-0.17838085
129	0x3e1a73bc	0.15083212
130	0x3ee314c7	0.4435179
131	0x3cd6c060	0.026214778
132	0xbf2fe8e4	-0.6871474
133	0xbfbbe00f	-1.4677752
134	0xbe032f52	-0.1281102
135	0xbe88353f	-0.26603124
136	0x3e1d624f	0.15369533
137	0xbee18291	-0.44044927
138	0x3bbb966e	0.0057247197
139	0xbe83def6	-0.25756043
140	0x3e675700	0.22591782
141	0xbf2b90b4	-0.67017674
142	0xbee1b06b	-0.4407991
143	0xbf12145c	-0.57062316
144	0xbe22e998	-0.15909421
145	0xbf1059ad	-0.56386834
146	0xbe5a4dce	-0.21318743
147	0xbef5135b	-0.4786633
148	0x3eb1f65e	0.34758276
149	0xbf771773	-0.96520156
150	0xbf7d3656	-0.98911035
151	0xbc140284	-0.009033803
152	0x3d9e2f28	0.07723838
153	0xbfa2af3e	-1.270973
154	0x3cbc74ef	0.023004977
155	0xbf69573a	-0.9114872
156	0x3dec86d8	0.11549157
157	0xbba6de88	-0.0050924458
158	0x3e636b37	0.22208868
159	0xbe0fb01e	-0.14032027
160	0xbe37839b	-0.17921297
161	0x3eb1eaec	0.34749544
162	0xbdfaa669	-0.122387715
163	0xbeaa94e2	-0.33316714
164	0x3e62916d	0.22125788
165	0x3f235d83	0.6381456
166	0xbe17321b	-0.14765207
167	0x3c83a248	0.016068593
168	0xbe2770c6	-0.16351613
169	0xbe89875b	-0.2686108
170	0xbe2b2173	-0.16711979
171	0xbf68e133	-0.90968627
172	0xbea6f01b	-0.3260506
173	0xbed37f98	-0.41308284
174	0xbe3c281d	-0.18374677
175	0xbc8c238f	-0.0171068
176	0x3e8527ef	0.2600703
177	0xbeb2a6e4	-0.34892952
178	0x3e1f98f8	0.15585697
179	0x3d194847	0.037422445
180	0x3d6eac1e	0.058269612
181	0xbeb41dd6	-0.35179013
182	0x3e1b5200	0.15168
183	0xbd98edc8	-0.07467228
184	0xbde78827	-0.11305266
185	0xbd821ceb	-0.06353172
186	0x3e55c1df	0.20874737
187	0xbd0d1bb9	-0.034450267
188	0xbdcf8ac9	-0.10133893
189	0xba9b1838	-0.0011832779
190	0xbecdc393	-0.40188274
191	0xbee26fc6	-0.442259
192	0x3e8d60ed	0.2761301
193	0xbefe29f8	-0.49641395
194	0xbe9d824a	-0.30763465
195	0x3c4f893d	0.0126669975
196	0x3dad4bd3	0.08461728
197	0x3e8ecca8	0.27890515
198	0xbee98de9	-0.4561608
199	0xbeac3f34	-0.3364197
200	0x3e7b5ea3	0.2454782
201	0x3d6a7d63	0.057248484
202	0xbddd924b	-0.10818919
203	0xbe8289b6	-0.2549569
204	0x3e476b34	0.19474488
205	0x3d3127c3	0.04325081
206	0xbe86137e	-0.26186746
207	0xbe1061fe	-0.14099881
208	0xbf1aa358	-0.6040549
209	0xbf3532a6	-0.7078041
210	0xbd0f99b6	-0.0350587
211	0xbe446081	-0.19177438
212	0xbdf36923	-0.118852876
213	0xbf7be8b6	-0.98401964
214	0x3e4db572	0.20088747
215	0x3e128c12	0.14311245
216	0x3eb60dcd	0.35557404
217	0xbe7ff38e	-0.24995252
218	0x3cf7004b	0.030151507
219	0xbf62c8f1	-0.8858786
220	0x3e773e5a	0.24144879
221	0xbf2abc59	-0.66693646
222	0x3ead14fa	0.33805066
223	0x3ec4db5f	0.38448617
224	0x3bd2e7a5	0.0064363056
225	0x3e94706f	0.2899203
226	0xbed4ca8c	-0.4156078
227	0xbf2a463e	-0.6651343
228	0xbd96a53d	-0.073557355
229	0xbe0e99b6	-0.13925824
230	0xbe39409d	-0.18091054
231	0x3e31903e	0.1734018
232	0x3e0ecd10	0.13945413
233	0xbe67891e	-0.226109
234	0x3d4ceaac	0.050028488
235	0xbdf31419	-0.11869068
236	0x3e7c1754	0.24618274
237	0xbeb61bbb	-0.35568032
238	0x3de92011	0.11383069
239	0xbe6454d1	-0.2229798
240	0xbe7e4ce7	-0.24834023
241	0x3e80e938	0.25177932
242	0xbeaa3aba	-0.3324793
243	0x3ea27ec8	0.3173735
244	0xbea566d3	-0.3230501
245	0x3f8fb90d	1.1228348
246	0x3e9ee142	0.31031233
247	0x3f130e31	0.5744353
248	0x3e16cd8d	0.14726849
249	0xbc30545b	-0.010762299
250	0x3d1cae6e	0.038252287
251	0xbdc28bc7	-0.09499317
252	0x3c9a6221	0.01884562
253	0x3f5dec80	0.86688995
254	0x3ec022c4	0.37526524
255	0x3f156492	0.58356583

layers.2.h_bias f4 [16]
0	0x3bab7dd1	0.0052335043
1	0xbe23340a	-0.1593782
2	0x3e3d19d7	0.18466888
3	0x3debf253	0.11520829
4	0xbd7911b9	-0.060807917
5	0x3d892430	0.06696355
6	0xbd089217	-0.033342447
7	0x3e4ad5ba	0.19808093
8	0xbd66da1f	-0.05636036
9	0x3d760a24	0.060068265
10	0x3d84a3b4	0.064765364
11	0x3ddf4038	0.10900921
12	0x3d6f0f4b	0.058364194
13	0x3d303b5c	0.04302536
14	0x3e46988a	0.19394127
15	0x3e307e67	0.17235719

layers.3.weight f4 [4, 16, 4]
0	0xbec0ffce	-0.37695163
1	0x3e1a3cb6	0.15062222
2	0xbe80a550	-0.25126123
3	0xbdab0408	-0.08350378
4	0x3f1f0263	0.62113017
5	0xbf792dc8	-0.9733548
6	0x3f88d2c0	1.0689316
7	0xbfef05f4	-1.8673692
8	0xbe839e92	-0.25706917
9	0x3e64b16f	0.2233331
10	0xbe16e1c5	-0.14734562
11	0x3d844054	0.06457582
12	0xbdee502b	-0.116363846
13	0x3e9011be	0.28138536
14	0xbc123b18	-0.008925222
15	0x3e20da23	0.15708213
16	0xbe5f648f	-0.21815704
17	0x3d87a8a4	0.066239625
18	0x3e477b03	0.19480519
19	0x3e2643fb	0.1623687
20	0x3f03fa0d	0.5155342
21	0x3e96318d	0.2933468
22	0x3e1a9cee	0.15098926
23	0xbf42b7db	-0.7606179
24	0x3e2e5a57	0.1702665
25	0x3ebb675f	0.36602303
26	0xbfdf8683	-1.7462925
27	0xbea38805	-0.31939712
28	0x3e46e691	0.19423892
29	0x3e0ffdfc	0.14061731
30	0x3e62afa2	0.22137311
31	0xbda51532	-0.08060683
32	0x3e72ef57	0.23724113
33	0x3ecd6ece	0.401236
34	0xbe334260	-0.17505789
35	0xbcb76550	-0.022387177
36	0xbf73f95e	-0.9530238
37	0x3ec71f9c	0.38891304
38	0xbf3569bd	-0.7086447
39	0xbd701fb2	-0.058623977
40	0x3de82f52	0.11337151
41	0xbeb97d7c	-0.3622855
42	0xbdb076b6	-0.08616392
43	0xbe3c53e5	-0.18391378
44	0xc039addb	-2.9012363
45	0x3f800316	1.0000942
46	0xbfa8885d	-1.3166615
47	0xbf1bd2e2	-0.60868657
48	0x3e23ebea	0.16007963
49	0xbea8d39d	-0.32973948
50	0xbef61846	-0.48065394
51	0xbe0cd793	-0.1375411
52	0x3ef2d1ec	0.47425783
53	0x3f1dd699	0.61655575
54	0x3e82227c	0.25416934
55	0x3ec3792f	0.38178393
56	0x3ece27ad	0.40264645
57	0xbef2eb4e	-0.47445148
58	0x3e711100	0.23541641
59	0xbf360b74	-0.71111226
60	0x3f556705	0.8336032
61	0x3e1551e6	0.14582023
62	0x3f2e4179	0.68068653
63	0x3ee5b544	0.44864857
64	0x3db4865e	0.08814691
65	0xbf3d565c	-0.739599
66	0xbe50bb51	-0.20383956
67	0x3f208720	0.62706184
68	0x3dd212cd	0.10257492
69	0x3f1ff000	0.62475586
70	0xbde6b0a2	-0.11264159
71	0xbeb6158c	-0.35563314
72	0x3eed0a13	0.4629675
73	0xbc2dfe0d	-0.010619652
74	0x3d9414d9	0.07230539
75	0x3f5f49cb	0.87221974
76	0xbf406dff	-0.7516784
77	0x3d6a1c32	0.057155795
78	0xbed8abb1	-0.4231849
79	0x3ee7f4f4	0.45304072
80	0xbeee4ef6	-0.46544617
81	0xbe8f8e54	-0.28038275
82	0xbeaf00ac	-0.341802
83	0x3fc6a1d2	1.5518134
84	0xbc261282	-0.010136249
85	0x3e75be89	0.23998465
86	0x3dcb8c6c	0.09938893
87	0xbefb8a6b	-0.49129042
88	0xbeb3575a	-0.3502758
89	0xbec686b8	-0.38774657
90	0xc022504d	-2.5361512
91	0x3f8dff84	1.1093602
92	0xbd4a33ca	-0.049365796
93	0xbe7a2d40	-0.24431324
94	0xbe1ecec0	-0.15508556
95	0x3d494ab0	0.049143493
96	0xbf5db704	-0.86607385
97	0x3d22e7a3	0.039771687
98	0xbf1a4685	-0.60263854
99	0xbe897f18	-0.26854777
100	0xbff69d33	-1.9266723
101	0xbdee04bc	-0.11621997
102	0xbf937b84	-1.1522069
103	0x3cd6a9b5	0.02620397
104	0x3b4a2c5c	0.0030849194
105	0x3deea6dc	0.1165292
106	0x3edc82f5	0.43068662
107	0x3f54ee08	0.83175707
108	0xbf11a69d	-0.56894857
109	0x40058759	2.086386
110	0xbe7c43b0	-0.24635196
111	0xbdbce370	-0.09223068
112	0xbd547aea	-0.051875032
113	0xbdbe807e	-0.09301852
114	0xbefe12e6	-0.49623793
115	0xbc7b9cd5	-0.015357216
116	0x3fa704fc	1.3048396
117	0x3c4933c0	0.012280405
118	0x3f84d344	1.0376973
119	0x3eeded09	0.46469906
120	0x3f8babe8	1.0911837
121	0x3d8709be	0.06593655
122	0x3f2a8a83	0.666176
123	0xbf139a09	-0.57656914
124	0x3d3e409f	0.046448346
125	0xbef39879	-0.47577265
126	0x3f99d5a6	1.2018325
127	0xbf8bb0c0	-1.0913315
128	0x3e8bee4b	0.2733024
129	0xbee25840	-0.44207954
130	0xbf26bc94	-0.651315
131	0xbf0fc509	-0.56160027
132	0xbe2abff2	-0.16674784
133	0xbdcae40e	-0.09906779
134	0xbe6a1700	-0.22860336
135	0x3e6e06d8	0.23244798
136	0xbf2da32e	-0.6782712
137	0x3e860613	0.2617651
138	0x3e3f4905	0.18680198
139	0x3f73f89d	0.9530123
140	0xbea58801	-0.32330325
141	0xbe447b8a	-0.19187751
142	0x3e892e5d	0.26793185
143	0xbe95f597	-0.29288933
144	0x3aa09fd7	0.0012254667
145	0x3e803348	0.25039124
146	0xbeadbc4f	-0.3393273
147	0x3ead7324	0.33876908
148	0x3f8fb85b	1.1228136
149	0x3dfb7de8	0.12279874
150	0x3f8c884f	1.0979098
151	0x3e772d3b	0.24138348
152	0x3f090ac7	0.5353207
153	0x3ee3d021	0.44494727
154	0xbee7e11a	-0.45288926
155	0xbf9bb66d	-1.2165047
156	0x3e4eec0e	0.20207235
157	0x3e15520b	0.14582078
158	0x3e689c48	0.22715867
159	0x3ecc9384	0.39956295
160	0xbf76413f	-0.9619331
161	0x3f0d82e9	0.5527788
162	0x3ed3b252	0.41346985
163	0xbd6e1df0	-0.05813402
164	0x3eb07373	0.3446308
165	0xbe39baea	-0.18137708
166	0x3faa9a63	1.3328365
167	0x3f1e133b	0.61748093
168	0x3e4bf41c	0.19917339
169	0x3ec48bc0	0.3838787
170	0x3d360b89	0.044444595
171	0x3ee2b916	0.44281834
172	0xbf1e22be	-0.6177176
173	0xbebf8605	-0.37406936
174	0xbd8410dd	-0.06448529
175	0xbf2afa14	-0.6678784
176	0x3e21b7ab	0.1579272
177	0x3e3a9b34	0.18223268
178	0x3d5c7570	0.053822935
179	0x3d177d2d	0.03698461
180	0x3ed0f715	0.4081351
181	0xbe8b34b7	-0.27188656
182	0x3d9fdc61	0.07805706
183	0xbf270115	-0.65236026
184	0x3f00deb4	0.5033982
185	0x3e272e89	0.16326346
186	0x3e314edc	0.17315239
187	0xbeed3a75	-0.46333662
188	0x3e15f924	0.14645821
189	0xbf0f41a2	-0.5595952
190	0xbe51870c	-0.20461673
191	0x3da061e7	0.078311734
192	0x3d6fecad	0.05857532
193	0x3e14e2b4	0.14539605
194	0xbe8563a1	-0.26052573
195	0x3ccd5854	0.025066532
196	0xbf2b6542	-0.6695138
197	0x3ed6c7da	0.4194935
198	0xbf3420d4	-0.7036259
199	0x3c123539	0.008923822
200	0x3e6476f3	0.22311
201	0xbea2639f	-0.3171663
202	0x3dc6a0c1	0.0969863
203	0x3e29184e	0.16513178
204	0xbd8b7926	-0.068102166
205	0x3bf5ed30	0.0075050816
206	0x3ea5bb0d	0.3236927
207	0xbe24a914	-0.16080123
208	0xbe4ecf4b	-0.20196263
209	0x3df2956f	0.118449084
210	0xbe1471a4	-0.14496475
211	0xbdc5cf6e	-0.09658705
212	0x3e5c4aef	0.2151296
213	0x3e26ff61	0.16308357
214	0xbe9928ab	-0.2991384
215	0x3d18bfff	0.037292477
216	0xc00416e4	-2.0638971
217	0x4047b4f6	3.12042
218	0xbf336a1d	-0.7008379
219	0xbe583c8b	-0.21116845
220	0x3ea589b2	0.32331616
221	0x3e4e15b1	0.20125462
222	0x3d7f438d	0.06232028
223	0xbf16d6ec	-0.58921695
224	0x3f8abbad	1.0838524
225	0x3f13e39e	0.5776919
226	0x3f3dbb72	0.74114144
227	0xbf464c42	-0.7746011
228	0xbcc0e490	-0.023546487
229	0x3e896980	0.26838303
230	0xbe37b804	-0.1794129
231	0x3f1fddf1	0.6244803
232	0xbe989a21	-0.2980509
233	0xbdd1aec5	-0.10238413
234	0x3e9a37fd	0.3012084
235	0xbb49e53b	-0.0030806798
236	0xbe590e54	-0.21196872
237	0x3e73c8b3	0.2380703
238	0x3e1dab98	0.15397489
239	0x3ec854d9	0.39127234
240	0x3f7a5350	0.97783375
241	0xbe5a7aea	-0.2133595
242	0x3eb12fc8	0.34606767
243	0x3cf3e69f	0.029773055
244	0x3e9ed878	0.31024528
245	0x3ef3041c	0.47464073
246	0x3f543947	0.828999
247	0x3de87e23	0.11352184
248	0xbf0e76ec	-0.5565021
249	0x3f0bb5c1	0.5457421
250	0xbd765e04	-0.060148254
251	0xbde35f0f	-0.11102115
252	0x3dec811b	0.115480624
253	0xbedeefec	-0.4354242
254	0x3e35f436	0.1776894
255	0x3eb9f471	0.36319306

layers.3.h_bias f4 [4]
0	0x3e07fa19	0.13278998
1	0x3e09a4bb	0.13441746
2	0x3ea0a1fa	0.31373578
3	0x3de97267	0.11398774

attn.attn_l f4 [1, 1, 4]
0	0xbedad671	-0.4274173
1	0x3dad0f1c	0.084501475
2	0xbff74746	-1.9318626
3	0xbfb16e77	-1.3861836

attn.attn_r f4 [1, 1, 4]
0	0xbf64215d	-0.8911341
1	0xbe311a99	-0.17295302
2	0x3f5d8bd7	0.86541504
3	0x3ecaaaeb	0.39583525

attn.fc.weight f4 [4, 4]
0	0xbe5106a9	-0.20412697
1	0x3f1eb5c5	0.6199611
2	0x3efc8395	0.4931914
3	0x3fbc0961	1.4690362
4	0x3eb3172b	0.34978613
5	0xbf8bcfb7	-1.0922765
6	0xbeb76ec8	-0.35826707
7	0xbdafe1aa	-0.08587964
8	0xbd96722f	-0.073459975
9	0xbe27d635	-0.16390307
10	0xbeba61fd	-0.36402884
11	0xbe244471	-0.16041733
12	0x3e115673	0.14193134
13	0xbe991bf8	-0.2990415
14	0x3f5d0c54	0.86346936
15	0xbe97a84a	-0.29620582

dense.weight f4 [1, 4]
0	0xbe3eaaef	-0.18619893
1	0x3e7bb0b6	0.24579129
2	0xbdcb92c4	-0.09940103
3	0x3f159989	0.584374
