saved_model_w/logp_lowd.pth (torch_old, 15611 bytes, 12 tensors)

layers.0.weight f4 [4, 14, 16]
0	0x3e47380c	0.19454974
1	0xbe1c2e74	-0.15252095
2	0x3dd5632c	0.10419306
3	0xbe2e1509	-0.17000212
4	0x3db072cf	0.08615648
5	0xbd0941fe	-0.0335102
6	0x3d953f64	0.072874814
7	0xbde05938	-0.10954517
8	0x3ddbcb3a	0.10732122
9	0x3e342a3f	0.1759424
10	0x3d94124b	0.072300516
11	0xbe23914f	-0.159734
12	0x3e5cfd60	0.2158103
13	0xbe1db0d5	-0.15399487
14	0xbe5e41a3	-0.21704726
15	0x3de24d73	0.110499285
16	0x3d0e6190	0.03476101
17	0xbd9194ae	-0.071084365
18	0xbe36b3b2	-0.17841986
19	0x3d56f3f8	0.05247876
20	0xbdb4b56f	-0.08823668
21	0xbe25bdb0	-0.16185641
22	0xbcd1df10	-0.02561906
23	0xbe32013a	-0.1738328
24	0x3dcdf200	0.100559235
25	0xbe09b9ec	-0.1344983
26	0xbd8e4baa	-0.069480255
27	0xbe4ec842	-0.2019358
28	0xbce896a8	-0.028392151
29	0xbd811572	-0.063029185
30	0x3de6acd8	0.11263436
31	0xbd3d3210	-0.04619032
32	0x3e0cb616	0.13741335
33	0x3e367d3c	0.1782121
34	0x3d2a8a2c	0.041635677
35	0xbd8f4810	-0.06996167
36	0xbe2c33b3	-0.16816597
37	0xbe123e82	-0.14281657
38	0xbd8cd5cc	-0.06876716
39	0xbe02fe3c	-0.12792295
40	0x3ddd5914	0.10808006
41	0xbd86f7ba	-0.06590219
42	0xbbf4d760	-0.0074719638
43	0x3c0b2900	0.008493662
44	0xbe349cbb	-0.17637913
45	0x3e2e4b80	0.17020988
46	0xbd9fc684	-0.07801536
47	0xbe2930af	-0.16522478
48	0xbb538880	-0.0032277405
49	0xbe37b98e	-0.17941877
50	0x3cd0a428	0.0254689
51	0xbe0741e3	-0.13208728
52	0xbd375c10	-0.044765532
53	0xbd75e96c	-0.06003706
54	0x3e17435c	0.1477179
55	0x3e214f76	0.15752968
56	0x3e4f35e0	0.20235395
57	0x3cb83428	0.022485808
58	0x3e0553d2	0.13020256
59	0xbe2b8943	-0.1675158
60	0xbe0c36ea	-0.13692823
61	0x3de0fb50	0.10985434
62	0x3d37a9f0	0.0448398
63	0x3d676938	0.05649683
64	0xbe45a562	-0.1930137
65	0x3dc39b09	0.09551055
66	0xbe47d569	-0.19515003
67	0xbd9add28	-0.075617135
68	0x3e9d496e	0.30720085
69	0x3e56c1e1	0.20972396
70	0x3b7fc28e	0.0039025876
71	0xbc7d6aa0	-0.015467316
72	0xbd78e014	-0.060760573
73	0x3edf8284	0.43654263
74	0x3e067637	0.13131033
75	0x3ebe3197	0.3714721
76	0xbd773dd8	-0.060361713
77	0xbe6d7f8c	-0.23193187
78	0x3c4d77f0	0.012540802
79	0x3d8025c0	0.062572
80	0xbe1974e0	-0.1498599
81	0xbe1b2fe1	-0.15154983
82	0xbe50f825	-0.2040716
83	0x3e2352b2	0.15949515
84	0x3e43f2e6	0.19135627
85	0x3e4edcee	0.20201465
86	0x3e3a9b1a	0.18223229
87	0xbcb04aa0	-0.021519959
88	0x3db9f06c	0.0907906
89	0x3df7705c	0.12081978
90	0xbd5f5854	-0.054527596
91	0xbdf0da6e	-0.11760412
92	0x3e2dfe20	0.16991472
93	0xbcaf3b18	-0.021390483
94	0x3d9a2724	0.07526997
95	0xbdc37e65	-0.09545592
96	0xbd8d574b	-0.069014154
97	0xbe36ef4b	-0.1786472
98	0x3daa4a2c	0.083149284
99	0x3e2cb654	0.16866428
100	0x3dddc6ba	0.1082892
101	0xba930280	-0.0011215955
102	0x3e60174f	0.21883892
103	0xbe467aca	-0.19382778
104	0x3c414d06	0.011798149
105	0xbe06f48a	-0.13179222
106	0xbc70120e	-0.014652742
107	0x3e230d20	0.15922976
108	0xbde22f3d	-0.11044166
109	0x3d2ee885	0.042702217
110	0xbe401937	-0.18759619
111	0xbd2774bb	-0.040882807
112	0xbd81a2b3	-0.063298605
113	0x3e538825	0.20657404
114	0x3cb9aa13	0.022664106
115	0x3cb102d3	0.021607792
116	0xbd9c95e7	-0.07645779
117	0x3e04490a	0.12918487
118	0xbe036736	-0.1283234
119	0x3e46e501	0.19423296
120	0x3e8dd021	0.27697852
121	0x3d861df1	0.065486796
122	0xbe15b4a0	-0.14619684
123	0xbdf413b8	-0.119178236
124	0x3d418636	0.047247134
125	0xbc8ae175	-0.01695321
126	0xba68b787	-0.00088774454
127	0xbd6a99d1	-0.057275597
128	0x3e18b2a5	0.14911897
129	0x3e0c6c85	0.13713272
130	0x3d4b4371	0.049624864
131	0x3d12fd6b	0.03588621
132	0x3e41be3d	0.18920226
133	0x3d89303a	0.066986516
134	0xbc4bab0c	-0.0124309175
135	0x3e4789e9	0.19486202
136	0xbea20bd1	-0.3164964
137	0x3ae3af17	0.0017370906
138	0xbe3390b5	-0.1753567
139	0xbe3a7bca	-0.18211284
140	0x3da85e93	0.082211636
141	0x3dfeac8e	0.12435256
142	0xbe3eac77	-0.18620478
143	0xbec4c2b6	-0.38429803
144	0xbe92d3e9	-0.286773
145	0xbdda1f11	-0.10650457
146	0x3e638ade	0.22220942
147	0x3e18b308	0.14912045
148	0x3d4d9a44	0.050195947
149	0xbc280e46	-0.010257309
150	0xbd8fa62b	-0.07014116
151	0x3e5b444d	0.21412773
152	0xbdb72f93	-0.08944621
153	0xbd0a720c	-0.03380017
154	0x3cee5b32	0.02909622
155	0x3c53decd	0.012931538
156	0x3e16a863	0.14712672
157	0xbe6e84aa	-0.23292795
158	0xbd8cdd32	-0.06878127
159	0xbbd544da	-0.006508452
160	0x3e105bb6	0.14097485
161	0xbded840e	-0.11597453
162	0xbba00360	-0.004883215
163	0x3e39c9ba	0.18143359
164	0x3e1e6e2a	0.15471712
165	0xbe16633b	-0.14686291
166	0xbe2e5e8c	-0.17028254
167	0x3e256fe4	0.16155964
168	0x3d709f88	0.05874589
169	0xbe20410f	-0.15649818
170	0x3e34bbfc	0.17649835
171	0xbe16e668	-0.1473633
172	0x3e34f258	0.17670572
173	0x3e15f56c	0.14644402
174	0x3e14f33a	0.14545909
175	0xbd2068cc	-0.039162442
176	0xbe355e56	-0.17711768
177	0xbecbdf59	-0.39818838
178	0xbd9cd8fd	-0.07658575
179	0x3c40d560	0.011769623
180	0x3d3a2ed5	0.04545482
181	0xbd2ecb72	-0.04267449
182	0x3e8096c6	0.2511503
183	0x3e45b4ab	0.193072
184	0xbdd278fd	-0.10276983
185	0x3d0e99d8	0.034814686
186	0xbe35fadb	-0.17771475
187	0x3dc253ad	0.09488616
188	0xbe8f1b1a	-0.27950364
189	0xbe68db83	-0.22739987
190	0x3d687348	0.056750566
191	0xbd55da0b	-0.052209895
192	0xbe66b592	-0.22530201
193	0x3dba9703	0.091108344
194	0xbe45d3ee	-0.19319126
195	0xbdcbbea5	-0.09948472
196	0x3e3418f8	0.1758765
197	0x3e4ad5b9	0.19808091
198	0x3d6b9005	0.057510395
199	0x3bc85f8a	0.006114905
200	0x3dd8ca1d	0.10585425
201	0x3de4a7c4	0.11164811
202	0x3e5a22bf	0.21302317
203	0x3ee6a4fa	0.45047742
204	0xbe7f4ea4	-0.24932343
205	0xbe6876d6	-0.22701582
206	0xbcb9e770	-0.022693366
207	0x3e28a22a	0.1646811
208	0xbe32b32d	-0.17451163
209	0x3e170828	0.14749205
210	0xbe0a80ae	-0.1352565
211	0xbba0db00	-0.0049089193
212	0xbe2a7d42	-0.16649345
213	0x3e1f05ba	0.15529528
214	0x3c414ec0	0.011798561
215	0x3dbc43e0	0.09192634
216	0xbe244abc	-0.16044134
217	0x3c8e2af0	0.017354459
218	0x3dab4554	0.08362833
219	0x3e139c76	0.14415154
220	0x3e199db6	0.15001568
221	0xbd1545f4	-0.036443666
222	0xbca9d740	-0.020732522
223	0x3d8ae5b8	0.067820966
224	0xbd355b73	-0.044276666
225	0x3df95923	0.121752046
226	0xbe688936	-0.22708592
227	0xbe6a8f7c	-0.22906297
228	0xbd976fbd	-0.07394359
229	0xbcf4ca9b	-0.029881766
230	0x3cdfd082	0.027321104
231	0x3dfe7384	0.124243766
232	0xbd26af2c	-0.0406944
233	0xbc62cde0	-0.01384303
234	0xbe61d206	-0.22052774
235	0x3e2bc6b2	0.16775015
236	0xbdca7d1a	-0.098871425
237	0x3ddea289	0.10870845
238	0x3d90dd74	0.07073489
239	0x3db07c97	0.086175136
240	0xbdb59284	-0.08865836
241	0xbe35a4e4	-0.17738682
242	0x3e275cae	0.16343948
243	0x3bbe9b80	0.005816877
244	0x3e3ea148	0.18616211
245	0x3dc30ae4	0.095235616
246	0x3db296f0	0.08720195
247	0x3d34ea94	0.044169024
248	0xbd3c91a8	-0.046037346
249	0xbdf50208	-0.11963278
250	0x3ccb1178	0.024788603
251	0x3e48dbca	0.19615093
252	0x3dfa9edc	0.12237331
253	0x3e3de5fe	0.18544766
254	0x3e44064e	0.1914303
255	0x3e235290	0.15949464

layers.0.h_bias f4 [16]
0	0xbcd701f5	-0.02624605
1	0x3d8a152f	0.06742322
2	0x3d5a5231	0.05330104
3	0x3de35984	0.11101058
4	0xbd0098b4	-0.03139563
5	0x3cdd2f2f	0.027000038
6	0x3d161bd9	0.03664765
7	0xbc358ba6	-0.011080658
8	0x3d928f8f	0.07156288
9	0xbd00ea33	-0.03147335
10	0xbd819122	-0.0632651
11	0x3d070c0c	0.032970473
12	0xbc90ed29	-0.017691212
13	0xbd0db9e1	-0.034601096
14	0xb85e294e	-5.2967393e-05
15	0x3d8f1bf5	0.06987754

layers.1.weight f4 [4, 16, 16]
0	0xbe4c54c3	-0.19954209
1	0xbcd80070	-0.026367396
2	0xbc8c025a	-0.017090965
3	0xbd86ea5d	-0.0658767
4	0xbdf7b3b2	-0.12094821
5	0x3de8f6c4	0.11375192
6	0x3e1386dd	0.14406915
7	0x3dfe2e5d	0.12411187
8	0x3dcd2104	0.10016063
9	0x3e5cb3bd	0.2155294
10	0xbd24077b	-0.040046196
11	0xbb7eb4aa	-0.0038865008
12	0xbe1bd298	-0.15217054
13	0xbe301ac6	-0.17197713
14	0xbc6df617	-0.014524004
15	0x3c2065b0	0.009789869
16	0xbe82b676	-0.25529832
17	0x3e3554a5	0.1770807
18	0x3e30186a	0.17196813
19	0x3d9fcf08	0.0780316
20	0x3e9aa483	0.30203637
21	0x3e672704	0.22573477
22	0xbcf827c2	-0.030292396
23	0xbcde3846	-0.027126443
24	0x3e35279c	0.17690891
25	0x3c5f9dd8	0.013648473
26	0xbe84d28a	-0.2594188
27	0x3e907dee	0.28221077
28	0x3cb8ef3b	0.022575011
29	0x3e2f338a	0.17109504
30	0xbe9e7350	-0.3094735
31	0x3d0191cb	0.03163318
32	0xbda82327	-0.0820983
33	0xbdee4229	-0.11633713
34	0x3cf018f6	0.029308777
35	0x3d88b9c9	0.06676061
36	0x3cf90d12	0.03040174
37	0x3da85159	0.08218641
38	0xbd8966d9	-0.0670907
39	0x3e2e0175	0.16992743
40	0xbe2dae68	-0.16961062
41	0x3bd5d8de	0.0065260967
42	0x3e13fcb9	0.14451875
43	0xbccc8132	-0.024963949
44	0xbe40550e	-0.18782446
45	0xbd979f8b	-0.07403477
46	0xbd5c8fea	-0.053848185
47	0xbdeba14e	-0.11505376
48	0x3d9136cc	0.0709053
49	0xbe3fbd5f	-0.18724583
50	0x3e3adf60	0.18249273
51	0xbdaa53e3	-0.08316781
52	0xbda70944	-0.08156064
53	0x3db154ed	0.086587764
54	0xbea26698	-0.31718898
55	0xbec9450e	-0.39310497
56	0x3e54a2a7	0.20765172
57	0xbd568553	-0.05237324
58	0x3b9bac96	0.0047507985
59	0x3de3c08a	0.11120708
60	0x3e50a569	0.20375599
61	0x3e9c061f	0.3047342
62	0xbe3645c7	-0.17800055
63	0x3d6c29b0	0.057656944
64	0xbdcfcde2	-0.10146691
65	0xbe4d1ee0	-0.20031309
66	0xbdd4a643	-0.103832744
67	0xbe0ec149	-0.1394092
68	0xbe9583d1	-0.2920213
69	0x3e3b170f	0.18270515
70	0x3df14d51	0.11782325
71	0x3e228ba4	0.15873581
72	0xbd9fa762	-0.077955976
73	0x3d8a7ab6	0.067616865
74	0xbdfee074	-0.12445155
75	0xbd96b737	-0.07359164
76	0xbc83deb2	-0.0160974
77	0x3df06674	0.117382914
78	0xbdc334cc	-0.095315546
79	0x3d85d61b	0.06534978
80	0x3d72dde8	0.059293658
81	0x3e03d008	0.12872326
82	0xbe59fcf0	-0.21287894
83	0xbb8e4652	-0.004341879
84	0xbbcbe8c2	-0.0062228153
85	0x3e53e226	0.20691738
86	0x3e511fd6	0.204223
87	0xbdd7d21b	-0.10538121
88	0xbdb2db7b	-0.08733269
89	0x3e19a9ea	0.15006223
90	0x3ddd6279	0.10809798
91	0xbd173189	-0.036912475
92	0xbe6b96a9	-0.23006691
93	0x3e0d0da5	0.13774736
94	0xbe2a9832	-0.1665962
95	0x3e21158c	0.15730876
96	0xbd4e09ba	-0.050302245
97	0xbe05e277	-0.1307467
98	0x3c4f7c51	0.012663917
99	0x3e37cafc	0.17948526
100	0xbe3dbed8	-0.18529832
101	0x3de56588	0.11201006
102	0xbd07544b	-0.033039372
103	0x3c29ccb4	0.010363746
104	0x3e2a3f87	0.16625796
105	0xbd645313	-0.05574329
106	0xbdb82034	-0.08990517
107	0x3dd99503	0.10624125
108	0x3d6d70f2	0.05796904
109	0x3e20e9a5	0.15714128
110	0xbe52f685	-0.20601852
111	0x3e1fcbc0	0.15605068
112	0xbd9fbc1b	-0.0779955
113	0x3e20d4f6	0.15706238
114	0x3d609d9b	0.054837804
115	0x3e8e015e	0.27735418
116	0xbe00c317	-0.12574421
117	0x3c22c162	0.009933801
118	0xbe50886f	-0.20364545
119	0x3d24a056	0.04019197
120	0x3dff1b38	0.124563634
121	0xbe85ddc8	-0.26145768
122	0xbe177043	-0.14788918
123	0x3f1dadff	0.6159362
124	0xbf0d125d	-0.55106145
125	0x3e85ac3a	0.2610796
126	0xbe16b51c	-0.14717525
127	0x3dd5724c	0.10422191
128	0xbde6e3a4	-0.11273888
129	0x3cf79245	0.030221114
130	0x3de0e7ce	0.10981713
131	0xbd3a6616	-0.045507513
132	0x3bd3ced8	0.0064638667
133	0xbdc76a3b	-0.09737059
134	0xbd318380	-0.0433383
135	0x3d098511	0.033574168
136	0x3e050d80	0.12993431
137	0xbce085a5	-0.027407477
138	0x3e42f206	0.19037637
139	0x3e2af1e3	0.16693835
140	0x3d0f0c18	0.034923643
141	0xbe057d03	-0.1303597
142	0x3d920cc5	0.07131342
143	0x3e11cbc4	0.14237887
144	0x3daf094e	0.085466966
145	0xbcd5704b	-0.026054522
146	0xbe143727	-0.14474164
147	0xbe43bec1	-0.19115736
148	0x3d918cd4	0.07106939
149	0xbdf9c4f7	-0.12195771
150	0x3cadaba9	0.021200018
151	0x3c1dc6d9	0.0096299285
152	0xbe2a9f47	-0.16662322
153	0x3ddd12a9	0.10794575
154	0x3b3a36d8	0.0028414037
155	0xbddcfa1f	-0.10789894
156	0xbe425c49	-0.18980516
157	0xbe22d7e7	-0.15902673
158	0xbd71535e	-0.058917396
159	0xbc9d9fb0	-0.019241184
160	0x3d8e0542	0.069345966
161	0xbb2f007e	-0.0026703174
162	0xbe347ead	-0.17626448
163	0xbe08dbc5	-0.13365085
164	0xbe85d10d	-0.26136056
165	0x3e3385c1	0.17531492
166	0xbdb87928	-0.09007484
167	0xbe120a32	-0.14261702
168	0xbdd150aa	-0.102204636
169	0xbda6c7a2	-0.08143546
170	0xbcd9b582	-0.026575807
171	0x3d64d629	0.0558683
172	0xbd6fba69	-0.058527384
173	0x3e07b071	0.13250901
174	0x3ed202b8	0.410177
175	0x3d3c21b6	0.045930587
176	0xbdb16142	-0.086611286
177	0x3c21f382	0.009884717
178	0xbe537aff	-0.20652388
179	0x3bb94d58	0.005654972
180	0xbccbb167	-0.024864865
181	0xbdb6d1bd	-0.08926723
182	0xbdd1d1bb	-0.10245081
183	0xbc6ed216	-0.014576456
184	0xbd8be1fd	-0.06830213
185	0xbe1a50b6	-0.15069851
186	0x3bd48711	0.0064858277
187	0x3dcc67ab	0.099807106
188	0xbdcd562c	-0.100262016
189	0x3cdcce26	0.026953768
190	0xbf31a0d4	-0.6938603
191	0xbc2fb9c7	-0.010725445
192	0xbe5b77bb	-0.21432392
193	0x3cdaf038	0.026725873
194	0x3e855b64	0.26046288
195	0xbe10f809	-0.14157118
196	0xbc8890dd	-0.016670639
197	0x3d9dd9a2	0.07707526
198	0x3e563aef	0.20920919
199	0x3e8d67d5	0.2761828
200	0xbd97b077	-0.07406705
201	0x3e05db8b	0.1307203
202	0x3cc4bd53	0.024016058
203	0x3e6dc22b	0.232186
204	0x3e0db93a	0.1384019
205	0x3da225b4	0.079173476
206	0x3e7f777d	0.24947925
207	0xbe908755	-0.2822825
208	0x3caa5a3a	0.020794977
209	0xbe353cd1	-0.17698981
210	0x3e58b899	0.21164168
211	0xbc31e28f	-0.010857238
212	0xbef43625	-0.4769756
213	0xbdfcc1c7	-0.123416476
214	0xbd5a6a2c	-0.05332391
215	0x3cd110ad	0.025520647
216	0x3da315d0	0.07963145
217	0x3dae8029	0.08520538
218	0xbd508b56	-0.05091413
219	0x3caf94bf	0.021433232
220	0xbdd9e9d1	-0.106403
221	0x3bb69bc1	0.0055727665
222	0xbebe0bc9	-0.37118366
223	0x3df38a85	0.11891655
224	0x3dcd4d34	0.10024491
225	0xbc010211	-0.007874028
226	0xbd137c4a	-0.036007203
227	0xbcf79818	-0.030223891
228	0x3d3843a4	0.044986382
229	0xbd4ba572	-0.049718328
230	0xbb8207ba	-0.0039682062
231	0xbded1cdb	-0.11577769
232	0x3e0bcfa5	0.13653429
233	0x3dc78482	0.09742071
234	0xbdcd6cb0	-0.10030496
235	0x3d52827c	0.05139397
236	0xbde91e54	-0.11382738
237	0xbd1fe908	-0.039040595
238	0xbe2fde4c	-0.17174643
239	0xbd34a03c	-0.044098124
240	0xbdcfb68e	-0.101422414
241	0xbe7eada4	-0.24870926
242	0x3e68a721	0.22720005
243	0x3dbcd18e	0.09219657
244	0x3e8129bc	0.25227153
245	0x3d91e73a	0.07124181
246	0xbcc08185	-0.02349926
247	0xbe0cf061	-0.13763572
248	0x3df591f0	0.11990726
249	0x3d9a04b1	0.07520426
250	0xbc257587	-0.0100988215
251	0x3d60a74a	0.05484704
252	0x3e086534	0.13319856
253	0xbc80a53a	-0.015703786
254	0xbd041abd	-0.032252062
255	0x3e11e812	0.14248684

layers.1.h_bias f4 [16]
0	0xbc7b4ba8	-0.015337862
1	0x3bd37638	0.0064533018
2	0x3d1146ff	0.035468098
3	0x3d718724	0.05896677
4	0x3d12493c	0.035714373
5	0x3cec6ebd	0.028861398
6	0x3c81a9bd	0.015828008
7	0x3dbac722	0.09120013
8	0x3c2c10ef	0.010502084
9	0xbdbd89c9	-0.09254796
10	0x3d32f671	0.043692056
11	0x3d9436cd	0.07237015
12	0xbb46cc71	-0.003033426
13	0x3cdc873d	0.026919955
14	0xbda49e45	-0.08038
15	0x3b53d45a	0.0032322616

layers.2.weight f4 [4, 16, 16]
0	0x3d6ffc61	0.058590297
1	0xbe1dd4b7	-0.15413176
2	0x3bcf1ef3	0.006320828
3	0xbe0177ce	-0.12643358
4	0xbe025dab	-0.12731044
5	0x3e3993af	0.18122743
6	0xbd8c7b84	-0.06859496
7	0xbdd2ce5a	-0.10293265
8	0xbe32c41c	-0.17457622
9	0x3e2a48ef	0.16629384
10	0x3db7f1d6	0.089816734
11	0xbe1373dd	-0.14399667
12	0xbd6a6a83	-0.057230484
13	0x3e14b767	0.14523087
14	0xbe53ab70	-0.20670867
15	0x3b8ce844	0.004300149
16	0xbdbab6e6	-0.09116916
17	0xbd21b961	-0.03948343
18	0xbd32ccfa	-0.043652512
19	0x3da5ca82	0.08095266
20	0xbea33024	-0.31872666
21	0xbdbd125e	-0.09232019
22	0xbe238928	-0.1597029
23	0x3db28799	0.087172695
24	0xbd2b2361	-0.041781787
25	0x3e75701e	0.2396855
26	0x3c9ff050	0.01952377
27	0x3dc67d2b	0.09691843
28	0xbe594aa7	-0.21219884
29	0x3da0545f	0.078285925
30	0xbe8277f1	-0.25482133
31	0xbe847007	-0.2586672
32	0x3e16f2b6	0.14741024
33	0xbe9bbbbb	-0.30416664
34	0x3c476bf7	0.012171737
35	0xbe20ee89	-0.15715994
36	0x3d36bfdd	0.04461657
37	0x3e6209a3	0.22073989
38	0xbd819f46	-0.06329207
39	0x3d62bbd4	0.055354908
40	0xbd37115b	-0.044694286
41	0xbe01889b	-0.12649767
42	0xbd6701e0	-0.056398273
43	0x3e2dfaea	0.16990247
44	0xbd4ae9c3	-0.04953934
45	0xbdd3cd45	-0.103418864
46	0xbd97c0b1	-0.074098
47	0xbdc0d435	-0.09415475
48	0x3d881224	0.06644085
49	0xbe14779e	-0.14498755
50	0xbd34f23e	-0.044176333
51	0xbe087014	-0.13324004
52	0x3d83a060	0.064270735
53	0x3da4b77d	0.0804281
54	0xbc4c831b	-0.01248243
55	0xbe82db26	-0.25557822
56	0x3e52a279	0.20569791
57	0x3dd25a09	0.10271079
58	0x3e24140b	0.16023271
59	0x3db02d2e	0.08602367
60	0xbd9c6d15	-0.07637993
61	0x3ce5b180	0.02803874
62	0x3d05a7bd	0.03263067
63	0x3d5ee055	0.05441316
64	0xbe455114	-0.1926921
65	0x3c3bf657	0.011472306
66	0x3c8131f1	0.015770884
67	0x3bf08a69	0.0073407185
68	0xbe4c73c7	-0.1996604
69	0xbebd1a76	-0.3693425
70	0xbdc42601	-0.09577561
71	0x3e8b25c6	0.27177256
72	0xbe170f69	-0.14751972
73	0x3e364a73	0.17801838
74	0xbe5c0b0e	-0.21488592
75	0x3e15f78d	0.14645214
76	0x3e3536db	0.17696707
77	0x3d9fd7e8	0.07804853
78	0xbd87ae44	-0.066250354
79	0xbd867bb9	-0.06566567
80	0x3dd73fda	0.105102256
81	0x3dbc18b3	0.091843985
82	0xbd3c6a19	-0.04599962
83	0x3d06fb6a	0.03295461
84	0xbd9a85c3	-0.07545044
85	0xbb90f91e	-0.0044242283
86	0x3dd14b2c	0.10219416
87	0x3e1d774c	0.1537754
88	0x3e3b27dd	0.18276925
89	0xbe2b4d9b	-0.16728823
90	0x3c4f5fd8	0.012657128
91	0x3dc6bd65	0.09704093
92	0x3de8f980	0.11375713
93	0xbdc29a1f	-0.095020525
94	0xbe4ba118	-0.19885671
95	0x3d44314a	0.04789857
96	0xbe7d2347	-0.24720488
97	0x3ea181dc	0.31544387
98	0xbe3e3982	-0.18576625
99	0x3e2457c9	0.16049112
100	0xbe505a38	-0.20346916
101	0xbe97dac9	-0.29659107
102	0xbe5d5c78	-0.21617305
103	0x3e408e77	0.18804346
104	0xbe499a01	-0.19687654
105	0xbd765796	-0.060142122
106	0x3df5e1f5	0.120059885
107	0x3d3c5a22	0.045984395
108	0x3e37c826	0.17947444
109	0x3c5d6639	0.013513141
110	0x3d7f5526	0.062337063
111	0xbd9586b4	-0.07301083
112	0xbd80b925	-0.062853135
113	0x3dcdffb8	0.1005854
114	0xbd850e84	-0.06496909
115	0xbe12abbb	-0.14323322
116	0xbd5f2e37	-0.054487433
117	0xbd365062	-0.044510253
118	0xbe25b2c0	-0.16181469
119	0xbcde979e	-0.027171906
120	0xbdbed115	-0.09317223
121	0xbd5a7ff0	-0.053344667
122	0xbd2a943e	-0.04164528
123	0x3db0d886	0.086350486
124	0xbcd720be	-0.02626073
125	0xbd5e5e6d	-0.05428927
126	0xbc0c792e	-0.008573813
127	0xbdbc665d	-0.09199212
128	0x3e4b5bc1	0.1985922
129	0xbd84b779	-0.06480307
130	0xbe3b5ba0	-0.18296671
131	0x3e0e0616	0.13869509
132	0xbdb17671	-0.08665169
133	0x3e18c023	0.14917044
134	0x3df88352	0.12134422
135	0xbd99341e	-0.07480644
136	0xbd81e90c	-0.06343278
137	0x3d4d6611	0.050146166
138	0x3de20eff	0.110380165
139	0x3e28e92a	0.16495195
140	0x3d24839f	0.040164586
141	0x3b360430	0.0027773492
142	0x3e0373ee	0.12837192
143	0x3cd0a033	0.025467014
144	0xbe2d3c8d	-0.1691763
145	0x3c9fde54	0.019515194
146	0xbd013e33	-0.03155346
147	0x3d8aefae	0.067839965
148	0xbe809b34	-0.2511841
149	0xbe7ba5b2	-0.24574926
150	0xbe068c42	-0.13139442
151	0x3b9d4082	0.0047989497
152	0x3de0b351	0.10971702
153	0xbe11df20	-0.14245272
154	0x3ddc1ad9	0.10747308
155	0xbc398a31	-0.011324451
156	0x3e1fdcc0	0.15611553
157	0xbe1fc239	-0.15601434
158	0xbd9bb347	-0.07602554
159	0x3d4c87d7	0.049934234
160	0xbd7858c4	-0.06063153
161	0x3eab3d31	0.33445123
162	0xbe4f20df	-0.20227383
163	0x3e47368a	0.19454399
164	0xbe9632c5	-0.2933561
165	0x3e291118	0.16510427
166	0x3d0cd32a	0.03438107
167	0xbd368bb5	-0.04456683
168	0xbde6cec1	-0.11269904
169	0xbdc5232a	-0.09625848
170	0x3d0cf5a9	0.034413967
171	0xbe2b952e	-0.16756126
172	0x395e0db3	0.00021176673
173	0x3ec7a0c0	0.3898983
174	0x3d905e1b	0.07049199
175	0xbe1d2d6f	-0.15349363
176	0x3ba53fc9	0.005043004
177	0x3d11a7a7	0.035560276
178	0xbe7fe666	-0.24990234
179	0xbe8dd830	-0.27704
180	0x3e042427	0.12904416
181	0x3e6c3e87	0.23070727
182	0xbe15b164	-0.1461845
183	0xbc029136	-0.007969191
184	0xbba8b393	-0.00514836
185	0x3e1eb675	0.1549929
186	0xb9ebca82	-0.00044973573
187	0x3d62a2f6	0.055331193
188	0x3be757d4	0.0070600305
189	0xbe955243	-0.29164323
190	0x3dc36ad9	0.09541864
191	0xbe815733	-0.2526184
192	0xbd5e1242	-0.05421663
193	0x3d3cc201	0.046083454
194	0xbddee924	-0.10884312
195	0xbe2e75ce	-0.17037126
196	0x3db959ca	0.09050329
197	0xbe354317	-0.17701374
198	0x3e18b5eb	0.14913146
199	0x3c51effb	0.012813563
200	0xbdba441b	-0.09095021
201	0x3d7228a5	0.059120793
202	0x3cbbc637	0.022921665
203	0xbdb8612e	-0.090029106
204	0x3df6b8d2	0.120469704
205	0xbdf18d41	-0.1179452
206	0xbe3ebe87	-0.18627368
207	0x3df23282	0.1182604
208	0x3dcec439	0.1009602
209	0xbba69d2c	-0.0050846543
210	0x3d36837a	0.04455898
211	0x3d9dc20b	0.077030264
212	0xbc3349d6	-0.010942897
213	0x3d3496b3	0.04408903
214	0x3da21dc8	0.079158366
215	0x3dd31d12	0.10308279
216	0xba8f6c85	-0.0010942376
217	0xbdb73d02	-0.08947183
218	0x3d39a9d0	0.04532796
219	0x3e4c6fc6	0.19964513
220	0xbd175348	-0.036944658
221	0x3e5e65d7	0.21718536
222	0xbdf149df	-0.11781668
223	0x3ce23efc	0.027617924
224	0xbec90041	-0.39258006
225	0x3d661331	0.056170646
226	0x3df39e6b	0.1189545
227	0xbc7c4be6	-0.015398955
228	0x3e361ab2	0.17783621
229	0xbdbc3021	-0.09188867
230	0x3d273b1d	0.04082786
231	0x3e53a207	0.20667277
232	0xbd4f0846	-0.050545
233	0x3d609291	0.054827277
234	0xbe46d869	-0.19418491
235	0x3ad7b6f2	0.001645772
236	0x3c0f2b81	0.0087383995
237	0x3eb246ec	0.34819734
238	0x3e8c7d05	0.27439132
239	0x3e42e0f8	0.19031131
240	0x3d9eea11	0.077594884
241	0xbe37a8ae	-0.1793544
242	0x3d644b3f	0.055735823
243	0xbdb5d86c	-0.0887917
244	0xbcf19640	-0.02949059
245	0xbc13b5fe	-0.009015558
246	0xbe08442f	-0.1330726
247	0xbd7232da	-0.059130527
248	0x3e1d8727	0.15383588
249	0x3d92d4cd	0.07169495
250	0xbde2318e	-0.11044608
251	0x3e07c892	0.13260105
252	0x3cf10a57	0.029423876
253	0x3d2560a5	0.04037537
254	0xbaa54867	-0.0012610079
255	0xbde701da	-0.1127965

layers.2.h_bias f4 [16]
0	0x3d1f04e6	0.03882303
1	0xbd509ddc	-0.050931796
2	0xbcf513f2	-0.029916737
3	0x3d51acfe	0.05119037
4	0x3c6901af	0.014221593
5	0x3d8e590d	0.06950579
6	0xbcce0808	-0.025150314
7	0xbd1b9593	-0.037984442
8	0x3d16934f	0.03676158
9	0xbd20f87b	-0.03929947
10	0x3d98e5a6	0.07465677
11	0x3d04f199	0.032456968
12	0xbcd0ad14	-0.025473155
13	0x3c7f65e8	0.015588261
14	0x3c693d3e	0.014235793
15	0xbc5fba2a	-0.013655225

layers.3.weight f4 [4, 16, 4]
0	0xbececff2	-0.40393025
1	0x3e567d63	0.20946269
2	0x3df706e9	0.12061865
3	0x3d7da73f	0.061927076
4	0x3daae8cf	0.08345186
5	0xbe88fb72	-0.26754338
6	0x3ed857da	0.42254525
7	0x3e14be1d	0.14525647
8	0x3de196a0	0.110150576
9	0xbd64ba71	-0.055841867
10	0xbeb4d205	-0.35316482
11	0x3d8b3d21	0.06798769
12	0xbcdf364b	-0.027247569
13	0x3dd22137	0.102602415
14	0x3e745f57	0.23864494
15	0xbe42c4d8	-0.19020402
16	0x3eed83b5	0.46389547
17	0x3d979744	0.074018985
18	0xbf01b3fb	-0.50665253
19	0xbe43251c	-0.19057125
20	0x3d16ed08	0.036847144
21	0x3ebf5679	0.3737066
22	0xbe3a58e9	-0.18197979
23	0xbe893e26	-0.26805228
24	0xbd0d1f7a	-0.034453847
25	0xbeb1e599	-0.34745482
26	0xbe1a3b49	-0.15061678
27	0xbe83cacd	-0.25740662
28	0x3ea7364f	0.32658622
29	0xbe7db851	-0.24777342
30	0xbd653c36	-0.055965625
31	0x3e7be722	0.24599889
32	0xbdc86d7b	-0.09786507
33	0x3eaf81aa	0.34278613
34	0xbe4f773c	-0.20260328
35	0xbda9767d	-0.08274553
36	0x3d08ccbf	0.033398386
37	0xbe73a04f	-0.23791622
38	0x3e8032ab	0.25038657
39	0xbde714eb	-0.11283287
40	0xbedd7194	-0.43250716
41	0x3e5c37ee	0.2150571
42	0xbe3e4654	-0.18581516
43	0xbe9df3be	-0.30850023
44	0x3e27a8a9	0.16372932
45	0x3df65ce1	0.12029434
46	0xbe8a88bd	-0.27057448
47	0x3d710e71	0.058851663
48	0x3d4c139d	0.049823392
49	0xbe0d9289	-0.1382543
50	0x3e7ab74e	0.24483988
51	0xbcfb7974	-0.030697562
52	0x3dc5acd6	0.096521065
53	0xbd52d5ae	-0.051473312
54	0x3e368119	0.17822684
55	0x3e333fa2	0.17504743
56	0x3e93fab5	0.28902212
57	0xbec020c3	-0.37524995
58	0xbdb43b5c	-0.088003844
59	0x3e47cdc4	0.19512087
60	0xbe494126	-0.19653758
61	0xbe839fd5	-0.2570788
62	0x3e722dc4	0.2365027
63	0x3e3cd8d0	0.18442082
64	0x3ed44b38	0.41463637
65	0x3e2db2ff	0.16962813
66	0xbdba5b6c	-0.090994686
67	0xbe68cee1	-0.22735168
68	0xbd8bf0c1	-0.068330295
69	0x3d4dd961	0.050256137
70	0x3d97f3d7	0.07419556
71	0x3eb1ef35	0.34752813
72	0x3e7fd3cd	0.2498314
73	0x3d225144	0.039628282
74	0x3ebb4bff	0.36581418
75	0x3d0cb67f	0.03435373
76	0x3e6408c5	0.2226897
77	0x3ea37d58	0.31931567
78	0x3d714f3e	0.058913462
79	0x3da0081e	0.07814048
80	0x3e14db98	0.14536893
81	0x3ec32f0b	0.38121828
82	0x3e8908c5	0.26764503
83	0xbe4c62c2	-0.19959548
84	0xbeb36de0	-0.35044765
85	0x3d7ce2eb	0.061739843
86	0x3d811793	0.063033246
87	0x3e1574cb	0.14595334
88	0x3e1b8dd1	0.15190817
89	0xbea7fb49	-0.32808903
90	0xbea8de0c	-0.32981908
91	0xbdfdac2a	-0.12386353
92	0xbefd4d1a	-0.49472886
93	0xbcd7d8f9	-0.026348578
94	0x3e4f6e27	0.20256864
95	0x3f1ba76e	0.6080235
96	0x3dc0e05b	0.094177924
97	0xbec2f527	-0.3807766
98	0x3e8ea7a7	0.27862284
99	0xbe0d309c	-0.13788074
100	0x3ee912ae	0.45522064
101	0xbe4c26e6	-0.19936714
102	0xbde98a27	-0.114033036
103	0x3e8e5199	0.2779663
104	0x3e97f780	0.29681015
105	0xbe88ddc1	-0.26731685
106	0x3e8c0606	0.27348346
107	0xbe604a73	-0.219034
108	0xbd28101c	-0.041030988
109	0xbe8e7f12	-0.27831322
110	0xbeb01be9	-0.34396294
111	0xbebcced1	-0.36876538
112	0xbeb293ed	-0.34878483
113	0x3e4b70a2	0.19867185
114	0xbea27194	-0.31727278
115	0x3eb118a5	0.34589115
116	0xbd26001b	-0.040527444
117	0x3db1e0d0	0.08685458
118	0x3e91538d	0.28384057
119	0x3e432e69	0.19060673
120	0xbea029e7	-0.3128197
121	0xbbc44582	-0.0059897313
122	0xbe5cea1b	-0.21573679
123	0xbe40f89d	-0.18844838
124	0x3e8422bb	0.25807747
125	0xbef253d8	-0.47329593
126	0x3e199bad	0.15000792
127	0xbeab93cc	-0.33511198
128	0x3eb72056	0.35766858
129	0xbce803d3	-0.028322136
130	0xbe9615d0	-0.29313517
131	0xbd6e116e	-0.05812209
132	0xbeaff91f	-0.34369752
133	0x3dcca3f5	0.0999221
134	0x3cadfdd0	0.021239191
135	0xbe1cde43	-0.15319161
136	0xbe46dd8a	-0.19420448
137	0xbe931cd8	-0.28732944
138	0xbe6d90b8	-0.23199737
139	0xbe1a518e	-0.15070173
140	0xbe8f6acd	-0.2801117
141	0x3e04a0ea	0.12952009
142	0x3e52f4ba	0.20601168
143	0xbd3ecf2a	-0.046584286
144	0x3ac10f46	0.0014729283
145	0xbd9dff8b	-0.077147566
146	0xbdb67f69	-0.0891102
147	0x3cb3c1fa	0.021943081
148	0xbd21e3ae	-0.039523773
149	0x3eb1f9e4	0.34760964
150	0x3d1c2f19	0.038130853
151	0x3eb9fc17	0.36325142
152	0x3eadde46	0.33958644
153	0x3cf51335	0.029916385
154	0x3c679f5c	0.014137115
155	0x3e02e713	0.1278346
156	0x3ea9f0e0	0.33191586
157	0xbe9753c8	-0.29556108
158	0x3d6570bd	0.05601572
159	0x3dc2d211	0.09512723
160	0x3e452e58	0.1925596
161	0x3d02d75e	0.03194367
162	0x3ea5ea54	0.3240534
163	0x3ee36546	0.44413203
164	0xbe8f6473	-0.28006324
165	0xbea7ce4d	-0.32774583
166	0x3e934764	0.28765404
167	0x3e8b8819	0.27252272
168	0x3e6dc0f6	0.2321814
169	0x3eac5013	0.33654842
170	0x3eb04d6e	0.34434074
171	0x3e745998	0.23862302
172	0x3de4c998	0.111712635
173	0x3ec25ffa	0.3796385
174	0xbd87107c	-0.06594941
175	0x3e5a38ac	0.21310681
176	0xbec60cb7	-0.38681576
177	0x3ef18708	0.47173333
178	0xbe7e073a	-0.24807444
179	0x3ddcb44a	0.10776575
180	0x3ed38932	0.4131561
181	0xbe6f9287	-0.2339574
182	0x3e5b6bd9	0.2142786
183	0x3d909909	0.07060439
184	0x3e12830c	0.14307803
185	0x3e9365a2	0.28788477
186	0x3e952c29	0.29135254
187	0x3e83626b	0.25661024
188	0xbc9c0966	-0.01904745
189	0xbe127181	-0.14301111
190	0x3e6df1a4	0.2323671
191	0x3e3f7576	0.18697152
192	0xbcedc5e1	-0.02902502
193	0x3dd17fe3	0.102294706
194	0x3de6844a	0.11255701
195	0xbe98e43f	-0.29861638
196	0xbe62aa7f	-0.22135352
197	0xbeb2544c	-0.34829938
198	0x3c0c5c6e	0.008566959
199	0xbe90bee0	-0.28270626
200	0x3d109161	0.035294894
201	0xbea257e7	-0.3170769
202	0x3e823dcd	0.25437775
203	0x3e6a24b2	0.2286556
204	0xbe087c84	-0.13328749
205	0x3dee7ab1	0.11644495
206	0xbd4b14db	-0.049580436
207	0xbdcce168	-0.1000393
208	0x3e7e2223	0.2481771
209	0x3ec8326b	0.39100966
210	0x3e869770	0.26287413
211	0xbea85b14	-0.32881987
212	0x3e72139e	0.23640296
213	0x3e8fcd05	0.28086105
214	0xbdc91e06	-0.0982018
215	0x3e1c8343	0.15284447
216	0xbcbc0742	-0.02295268
217	0xbe4b5a60	-0.19858694
218	0xbe8b7ddf	-0.2724447
219	0xbde2d770	-0.11076248
220	0x3e7343ef	0.23756383
221	0x3c5ab48b	0.013348709
222	0xbe3ed45f	-0.186357
223	0x3ead22c1	0.33815578
224	0x3e759916	0.23984179
225	0x3e368f63	0.17828135
226	0xbebeb010	-0.372437
227	0x3e07cbd7	0.13261352
228	0x3f04e676	0.51914155
229	0xbe26f20a	-0.16303268
230	0xbe685f1d	-0.22692533
231	0xbd4abc53	-0.049496006
232	0xbe2f0975	-0.17093451
233	0x3ec752b5	0.38930288
234	0x3eb9ea37	0.36311504
235	0x3e96cc78	0.29452872
236	0xbe38bf81	-0.18041803
237	0xbe804eb1	-0.25060037
238	0x3af5744d	0.0018726677
239	0xbea12dc3	-0.31480226
240	0xbc64c973	-0.013964045
241	0xbe4c190a	-0.19931427
242	0x3e28791c	0.1645245
243	0x3eaf9d43	0.3429967
244	0x3e24973f	0.16073321
245	0x3ee8a83f	0.45440862
246	0x3e5d41fa	0.216072
247	0xbec6ef60	-0.38854504
248	0x3d67d7a2	0.056602128
249	0x3ea92bb4	0.33041155
250	0x3e49b420	0.19697618
251	0xbea46c1b	-0.32113728
252	0xbeca5e0b	-0.39524874
253	0x3cb5a5de	0.022173818
254	0x3eb844bd	0.35989943
255	0xbcae1510	-0.021250278

layers.3.h_bias f4 [4]
0	0xbd3ca3f1	-0.046054784
1	0x3d859496	0.06522481
2	0xbca2d626	-0.019877505
3	0xbcd617b4	-0.02613435

attn.attn_l f4 [1, 1, 4]
0	0x3fa466b0	1.2843838
1	0xbf254342	-0.6455575
2	0x3fb51775	1.4147784
3	0x3d9d153b	0.07670065

attn.attn_r f4 [1, 1, 4]
0	0x3f24cf97	0.64379257
1	0xbde28715	-0.11060921
2	0xbfa175d7	-1.2614087
3	0xbfc9f7aa	-1.5778706

attn.fc.weight f4 [4, 4]
0	0x3ea62931	0.32453302
1	0xbe154e41	-0.14580633
2	0xbe14fb80	-0.14549065
3	0x3e4ef123	0.20209174
4	0x3d7a5537	0.061116423
5	0x3ecac888	0.39606118
6	0x3f142f7c	0.57884955
7	0xbe9335de	-0.28752035
8	0x3d14fff4	0.03637691
9	0x3f486384	0.7827685
10	0xbf4442b1	-0.76664263
11	0xbe9f6818	-0.31134105
12	0xbd712eb8	-0.058882445
13	0x3e8889cc	0.2666763
14	0xbfef6474	-1.8702531
15	0x4003174c	2.048297

dense.weight f4 [1, 4]
0	0xbed91dda	-0.42405587
1	0xbeb66ee4	-0.35631478
2	0x3edfaf6c	0.43688524
3	0x3dc2273a	0.09480138
