saved_model_w/logp_lowd.pth (torch_old, 15637 bytes, 12 tensors)

layers.0.weight f4 [4, 14, 16]
00000000: c19b b5bd 598d 12bd c2bd 0abc 55af 2d3d
00000010: 9c02 983d a3eb 78bd 82b4 273d 9e03 953d
00000020: 941d 253e 36c8 2ebe fc21 22bd 7bd1 123e
00000030: 9ce0 7dbc 264f 12be 5d28 333e e67f f5be
00000040: 8472 64bd baf8 85bd 2025 8abc 98ba ef3d
00000050: 3092 243e 2ac3 103e 8247 48be 98ad adbc
00000060: 8310 bebd 28f9 08be 2cf1 413e d78d 1ebe
00000070: a079 a5bc 549b 323e f4a4 8a3d 0ec5 373e
00000080: cc30 0dbe 2566 a6bd afb6 d0bd 5863 50be
00000090: 8896 c1bc 5e6c 0ebe fa74 2b3e 48f3 1d3e
000000a0: 9a51 0dbe 48f1 df3c e65a 9abd 04d6 a03d
000000b0: c4bc 1b3d 5118 12be a2e1 323e 5e5d 233e
000000c0: 4a9c 8abd 768f 063e 4cee e23d e169 dfbd
000000d0: ea19 b5bd 6ca4 59bd 4570 dfbd e157 37be
000000e0: 2cf3 033d 70cb 7b3c d8de 593d 276a 4abe
000000f0: ecef 363d 386a 36bd 708c 40bc 4cd5 8d3d
00000100: 7152 cdbe fe50 82be db9b 35be 9bbc 343f
00000110: 64ad d8be 1081 08bf f484 013d b6d4 513f
00000120: 0265 963e c004 883d 0cfa 63be 88da 44bf
00000130: 70b5 81be f93f b9be f323 c33d 3174 5f3e
00000140: 9888 423e f4cc 093e 000e 5fbd e2a5 133e
00000150: b43e 473e 9656 93bd 306e 0dbc cc97 b53d
00000160: dca3 d43d 00b5 cd3a ae28 42be 204b 7ebd
00000170: 90ac 9cbd c058 2bbd f824 843d 0473 04bd
00000180: dda9 0a3e 7ecb 123e 7785 493a 2140 d13d
00000190: 8c6c c53d 4ca0 413e 8d9e 2abe f0a7 afbc
000001a0: 42a2 39be 7eed 42bf d6ef b3bd 565e 68be
000001b0: dcc0 e73d 0fa8 c23d 3423 373d c7c7 fdbd
000001c0: d885 d23e 3399 bc3e aee7 113e 5d50 283e
000001d0: 3c69 3fbe 570d 0cbf 1041 053e 9436 28be
000001e0: 118a 963e 8d6b a53e 7656 d3be 0dd5 3a3d
000001f0: 0bc1 10be f68d 18bd 860e 1dbe 31b5 1abe
00000200: 6f1d 0dbe 8dc2 81be ac07 df3e 00a2 f1bd
00000210: 9323 05be 6713 a0be cf97 52be 882b adbc
00000220: db54 793e b4ab 243e 746e d2be 719f ed3d
00000230: 2216 133f 037f 863d 79c9 9dbc 2aae 8ebd
00000240: 8be4 713e 737e d9be ef89 1abe 44f8 a4be
00000250: e1cc 02be deeb 00be 66fd 10bf 18e3 b9be
00000260: 7aa6 3d3c e6be 663c 7c3f 19bd cb0c 833e
00000270: 2846 d6bc e73b 92bc 0d1e 5dbc 0447 49bd
00000280: 983f 8b3d 64ba 293e 8071 74bc 7010 e2bd
00000290: 8c7e 163e ac08 143d 0029 0d3c d8cd f2bc
000002a0: 0031 42ba 789c 103d ce65 333e 8002 23bc
000002b0: 1835 e43c 00f1 543c 1463 2d3e caea b4bd
000002c0: fa9a 603d c7ef 35bf b03f 4abd 2dc0 f03d
000002d0: 8cdf 7c3d 80f9 a5be 584d 063e 31ec e93e
000002e0: 4d07 603e 6e85 a0be 93fa 0fbd 0fe0 6a3c
000002f0: d544 073e 0f18 b7be ce19 61be 699b 71bd
00000300: b049 cebe 2db4 053e 2be2 4ebe 4f7b ca3e
00000310: 8d44 5abe a1f6 e4bc 15a9 50bd b6e2 e63e
00000320: bea6 143c 25a1 b2bd 49f8 75bd b8bc 58be
00000330: 8d1f 0bbf 1b11 c2be 6410 1b3d cca4 99bd
00000340: 5405 0c3d a8c9 003e 05f0 cfbd a016 64bc
00000350: c046 be3d be96 e1bd b878 c9bc fa78 43be
00000360: 6088 26bd 4c12 e33d 841d ac3d 9f59 b7bd
00000370: 22a7 efbd 0487 da3d c86c c93d fc72 2abe
00000380: eb65 aebd e333 58bc c340 debc e5c5 633e
00000390: 191f 07be 6f5f f8bd db06 dfbe ee4e f4bb
000003a0: 611e 4cbe f408 ae3d 86a8 acbd a076 0a3d
000003b0: 4ac9 dd3d 09fb 48be b55f 10be 2092 343e
000003c0: eddb cabd d0a8 863d 2071 24be d86d f6bc
000003d0: 40b8 153e b406 19be e443 1ebd 2495 e13d
000003e0: 5a9a 1b3e c002 443e a237 35be a25c e0bd
000003f0: 70e9 493c a48b 283e 147d d83d c001 8b3b
-0.08867598 -0.03577933 -0.008468093 0.042403538 0.07422373 -0.060771596 0.04094363 0.072760805
0.16124564 -0.17068562 -0.03958319 0.14337723 -0.015495446 -0.14288005 0.17495866 -0.4794914
-0.055773273 -0.065415815 -0.016863406 0.11705512 0.16071391 0.14136949 -0.19558528 -0.02120094
-0.09280493 -0.13376296 0.18939656 -0.15483795 -0.020199597 0.17442065 0.067697436 0.17946264
-0.13788146 -0.08124951 -0.10191094 -0.20350397 -0.02363135 -0.13908526 0.16743842 0.15424836
-0.1380066 0.027336732 -0.07536869 0.0785332 0.038021818 -0.14267088 0.17468885 0.15953586
-0.06768091 0.13140664 0.11080608 -0.10908867 -0.08842833 -0.05313532 -0.109100856 -0.17904617
0.03221433 0.0153683275 0.053191036 -0.19767056 0.0446624 -0.04453489 -0.011752233 0.06925449
-0.4010196 -0.25452417 -0.17735235 0.7060029 -0.42319787 -0.53321934 0.031620935 0.81965196
0.29373938 0.06641531 -0.22263354 -0.7689595 -0.25333738 -0.3618162 0.09528341 0.21821667
0.18997419 0.1345709 -0.05445671 0.14418748 0.19457513 -0.07194249 -0.008632228 0.088668436
0.10382816 0.0015694201 -0.1896083 -0.062083364 -0.07650101 -0.041832685 0.06452364 -0.03233625
0.1354136 0.14335439 0.00076874293 0.1021731 0.09639844 0.18908805 -0.16662045 -0.021442384
-0.18128303 -0.76143634 -0.087859794 -0.22692236 0.11316082 0.09504711 0.044711307 -0.1239162
0.4111774 0.36835632 0.14248535 0.16436906 -0.18692487 -0.54707855 0.130131 -0.1642707
0.2940221 0.32308617 -0.41276902 0.045613337 -0.1413614 -0.03724476 -0.15337572 -0.15108182
-0.1378076 -0.25343743 0.4356054 -0.11798477 -0.13001852 -0.31264803 -0.20565723 -0.021138921
0.24348776 0.16081125 -0.41099894 0.11602677 0.57455647 0.06567194 -0.019261109 -0.06966813
0.23622338 -0.42479286 -0.1509168 -0.32220662 -0.12773468 -0.12589976 -0.56636655 -0.3630607
0.011575336 0.0140836 -0.03741406 0.25595698 -0.0261565 -0.01785083 -0.013495934 -0.04913999
0.06799239 0.16575009 -0.014919639 -0.110382915 0.14696711 0.036141083 0.008615732 -0.02963917
-0.0007407814 0.03530547 0.17519304 -0.0099493265 0.027857348 0.012996912 0.16932327 -0.08833845
0.054835297 -0.71068996 -0.049377143 0.117554046 0.06173663 -0.32416916 0.13115442 0.45688012
0.21877785 -0.313518 -0.035151076 0.014335646 0.13209851 -0.35760543 -0.219825 -0.0589861
-0.40290594 0.13057013 -0.20203464 0.39547202 -0.21315213 -0.027949633 -0.0509425 0.45094842
0.009072958 -0.08722142 -0.060051236 -0.2116574 -0.5434502 -0.37903675 0.03785743 -0.07502136
0.03418477 0.12576926 -0.10153202 -0.01392141 0.09290838 -0.1101508 -0.024593696 -0.19089118
-0.0406574 0.11087474 0.08404067 -0.08952641 -0.117018 0.106702834 0.098352015 -0.16645426
-0.08515533 -0.0131959645 -0.02713049 0.2224346 -0.13195457 -0.121275775 -0.43559918 -0.007455698
-0.19933464 0.084978014 -0.08430581 0.033804536 0.108294085 -0.19627012 -0.1409901 0.17633867
-0.09905229 0.06575167 -0.16058779 -0.030081674 0.14621067 -0.14943963 -0.038638964 0.110147744
0.15195599 0.19141674 -0.17697003 -0.10955168 0.012323722 0.16459519 0.10570732 0.004242152

layers.0.h_bias f4 [16]
00000000: 866e 16bc f494 54bb 7a87 c33b 73fd 9dbe
00000010: bd48 783e ff4b af3d b3f0 b63e 3808 efbd
00000020: cdea 3f3c 2279 ebbd 18ce e13e 447e 1f3b
00000030: 9041 38bd 073e 9c3d 4de0 d8bc 1543 95bb
-0.009181624 -0.0032437416 0.005967078 -0.3085743 0.24246497 0.08559417 0.35730514 -0.116714895
0.011713696 -0.114977136 0.4410255 0.0024336735 -0.0449844 0.07629018 -0.026474142 -0.004555116

layers.1.weight f4 [4, 16, 16]
00000000: a070 dcbe c908 28bf 715a 41bf c5ed b2bd
00000010: 7d7a 7e3e 59e0 23bd 78bb 6f3d 631c 903d
00000020: 5295 083d f1ea ffbd dc6c 843d 4060 babd
00000030: 3a54 1fbf 8226 8a3e 3276 513d 422a 49be
00000040: 5c4e e4bd aab8 86be 7f7d 9dbd bf2e 0ebb
00000050: d62d b1bc 5706 64be 9f32 793e cf22 efbd
00000060: b85f 653e 63a8 3ebe 941e 8fbc e0e9 843e
00000070: 95af 8fbd c8b3 b03e 4483 5cbe 2f23 ce3b
00000080: 4ecb 703d afd5 c93e 69aa a93d 3f55 9bbe
00000090: 9682 aabd 6640 a33c 691b 9b3e 4c16 abbd
000000a0: abc5 943e ab35 d9be ad6c f43e 7e9b 923e
000000b0: 2c48 1fbd 98ab 853d d472 8bbd 0f94 47be
000000c0: 95fe 8c3e 21a5 32be 0c57 373b e3d0 0cbd
000000d0: e608 e63b 69b8 363e f351 a1bd c0f9 d73d
000000e0: 9b55 93be 361a a43d 147d 05bd a41f c3bd
000000f0: c64e 80ba cba3 263e 4d30 593e a6f5 cabd
00000100: 9384 183e b2d1 cdbb 147c ab3d a1bb 2bbe
00000110: 432a ad3d 8393 d53d 9b90 adbd 13bd 93be
00000120: e38f 46be 89b7 3abd 432b cb3d 96c6 febc
00000130: 99d8 45bd fff6 9abc 0da7 80bd e683 1cbe
00000140: 8648 8b3e a0d4 2abf 7310 12be 3b39 f13d
00000150: b4fb 223e 03de eabd 7f1a 653d 985e c43a
00000160: b747 b2be 9b0a d83d 6649 66bf 1d51 04bc
00000170: 3b21 92bd 8828 b0bf 9822 09bc ca9d 29be
00000180: 04fb a8be da09 81be 9a1e 02be e615 1abe
00000190: 173d a43e 6822 c13d ebc7 bebd 41d0 33bc
000001a0: cd6a b63d 9a6c 8ebe cb8c 9abd 2cd2 743e
000001b0: 3fc4 a43d d346 bfbd 5190 ea3c 5e5e bc3d
000001c0: 6131 2a3e b089 4a3e b4e1 0fbe add1 8f3c
000001d0: 7c58 84be b68e 863d ccb3 a83d 2d92 13be
000001e0: be61 ccbe 5526 47bd af30 82be 2e41 27be
000001f0: ac90 87be 0f59 fd3d fd50 ee3d 8f47 87bd
00000200: dfcb 883e 9c2c 19bd 0a6e e2bb e2bf 943d
00000210: a00c ecbd 41e6 98be 419c 823e 8890 c03c
00000220: b02b 813e 296c d03e ed80 42bd 6c32 5d3e
00000230: e4e0 9ebe c3a8 833e 167c 7fbe c2c0 6abe
00000240: 76de 023e 7743 8b3e 54cf 9f3e 0dd3 79be
00000250: 3d59 053e d54f 113f d561 b1bd 04a8 c2bc
00000260: 30ac d6be 47e9 83be e2c5 9e3c ab15 bcbd
00000270: a85e 7c3f 1def d1be e5b5 aa3d a5bc be3e
00000280: eb09 17bf 8a91 8f3e d852 76bc 8ce9 dcbd
00000290: 096b f43e 0819 df3e 8f28 1fbf 8afe 09bf
000002a0: 971b 993e 21d8 77be 797d febe d5bc 033c
000002b0: 8aa0 42bd 7675 84be d092 ad3e e643 40be
000002c0: 1858 37be 18a5 39bc 68c9 9dbe bb42 80be
000002d0: 5bdc 583c 5439 463e a2b2 5f3e 1e28 bcbd
000002e0: 0ee1 2d3e de20 38be 84af a23e 1328 e43c
000002f0: 5cae 15bf 1920 8f3e 2dfe db3d 11dc 92be
00000300: d3b1 2a3d 82df cfbe c3e4 803d 66da 80be
00000310: b21b 233e 0323 5bbd ce78 c5bd b393 d5bd
00000320: c04f 6fbf 0dae 81bc 7ab1 b23c 3047 2a3d
00000330: b3fc 36be 017e 15bf 1602 9cbe dc0a bdbc
00000340: bd22 06be 0d92 7d3d 3261 9f3e 5a82 2bbe
00000350: aef2 eb3d ab2a 1ebe 3d20 c53d b184 dfbd
00000360: cd67 cb3e 3608 5abf 8f73 9c3e 67a2 943e
00000370: 2a6a 44be b59c 173e 2110 21be 74bd 66bf
00000380: 5aa8 47be f4f9 97be 5c5a 563e 6a34 babd
00000390: 4a26 81be ce69 7a3e 9575 ffbd 664f 40be
000003a0: 4da1 05bf 9344 263d 52aa 70bd 2ece 153e
000003b0: e9e6 debd 5f52 14bd c598 f73d 9b84 4c3d
000003c0: 7f69 88bd f373 f23e 32fb 613e 34ab 213f
000003d0: 5dca 4c3e 958a 883e fabe 613e 1d44 87be
000003e0: 7181 dabe 6c5e 46be ae3e 213e edfa f6be
000003f0: c99a 9abe 6994 a6bd 5621 ccbc 8778 103d
-0.43054676 -0.65638405 -0.7552863 -0.08736757 0.24851413 -0.040008876 0.058528394 0.07036664
0.033345528 -0.124959834 0.06466076 -0.091003895 -0.62237895 0.26982504 0.05113811 -0.19645026
-0.11147758 -0.26312762 -0.07689952 -0.0021695343 -0.021628302 -0.22268043 0.24335717 -0.11676561
0.22399795 -0.18618922 -0.017470635 0.25959682 -0.070159115 0.34512162 -0.21534449 0.0062908153
0.058787636 0.3942084 0.08284456 -0.30338475 -0.083256885 0.019928169 0.3029435 -0.08353862
0.2905706 -0.42423758 0.47739163 0.28634256 -0.038887188 0.065268695 -0.06809011 -0.19490074
0.2753798 -0.17445804 0.0027975468 -0.034378897 0.0070201037 0.17843784 -0.07876959 0.10545683
-0.2877625 0.08012812 -0.032589987 -0.09527519 -0.0009789101 0.1627342 0.21209832 -0.09910135
0.14894323 -0.006281101 0.083732754 -0.16770793 0.084553264 0.10428526 -0.08474847 -0.2885519
-0.19390826 -0.04558519 0.09920361 -0.031100553 -0.048302267 -0.018916605 -0.062818624 -0.1528469
0.27203768 -0.6673069 -0.14264087 0.11778494 0.1591633 -0.114681266 0.05593347 0.0014981804
-0.3482034 0.10548898 -0.8995575 -0.00807598 -0.071352445 -1.3762369 -0.008370064 -0.16564098
-0.3300401 -0.2520283 -0.12706986 -0.15047416 0.32077858 0.094303906 -0.09315475 -0.010974945
0.089070894 -0.2781723 -0.075463854 0.23908299 0.080452435 -0.093396805 0.028633269 0.091976866
0.16620399 0.19779086 -0.14050943 0.017556036 -0.25848758 0.06570189 0.082374185 -0.1441123
-0.3991832 -0.04862054 -0.25427768 -0.16333458 -0.26477563 0.12370502 0.11636541 -0.066054456
0.2671804 -0.03739606 -0.0069100903 0.07263161 -0.115258455 -0.2986317 0.25509837 0.023506418
0.25228643 0.4070752 -0.047486234 0.21601266 -0.31030953 0.25714692 -0.24949679 -0.22925094
0.12780175 0.2719991 0.31212866 -0.24396916 0.13022323 0.5676244 -0.08661238 -0.023761757
-0.41928244 -0.25763914 0.019381467 -0.0918382 0.98581934 -0.4100274 0.08335475 0.372533
-0.5899951 0.28040725 -0.0150344 -0.10786733 0.4773791 0.43573785 -0.6217126 -0.5390402
0.29903862 -0.2420354 -0.49705103 0.0080406265 -0.047516383 -0.25870866 0.33901072 -0.18775901
-0.17904699 -0.011330865 -0.30817723 -0.2505091 0.013236131 0.19357806 0.21845487 -0.09187339
0.16980383 -0.17981288 0.31774533 0.02785114 -0.58469176 0.27954176 0.107418396 -0.28683522
0.041673493 -0.4060021 0.06293633 -0.25166625 0.15928534 -0.053500187 -0.09642182 -0.10428562
-0.93481064 -0.015830064 0.021813143 0.041571796 -0.17869835 -0.5839539 -0.3047034 -0.023076467
-0.13099189 0.061906863 0.31128842 -0.16748944 0.11520897 -0.15445964 0.096252896 -0.10913981
0.3972763 -0.8516878 0.30556914 0.29030153 -0.19181123 0.14805873 -0.15728809 -0.9013283
-0.19497815 -0.29682887 0.20932907 -0.090920284 -0.25224525 0.24454424 -0.12473599 -0.18780288
-0.5219925 0.04059274 -0.05875618 0.14629433 -0.10883886 -0.036211368 0.12089685 0.04993115
-0.06660747 0.47354087 0.2206848 0.6315186 0.1999907 0.2666823 0.22045508 -0.26419154
-0.4267688 -0.19371957 0.15746567 -0.48238316 -0.30196217 -0.08133776 -0.02491824 0.035271194

layers.1.h_bias f4 [16]
00000000: 183a 82be b6df 86bd eeba 983d 2586 cb3e
00000010: e392 303c 625f 84ba f007 233e bf43 1c3f
00000020: 928d a1be b7ee aa3c 9e36 22be 8821 3bbd
00000030: 8270 6f3d 8484 b8be d426 8f3e bbeb 073f
-0.25434947 -0.06585638 0.07457529 0.39750782 0.010777208 -0.0010099227 0.15920997 0.6104087
-0.31553322 0.020865781 -0.15841147 -0.045686275 0.058456905 -0.360386 0.2795931 0.5309407

layers.2.weight f4 [4, 16, 16]
00000000: fcc4 eebe ce42 5bbe ca2a 5f3e 26f3 be3e
00000010: 1798 f63d 9509 4d3f 2bb0 cbbb 4d8c 99be
00000020: 2d44 e43e c1c1 77be 9575 703e ab08 89bd
00000030: fbc1 53bf 9021 7e3f e0d1 f8bd 2802 d43b
00000040: 48db 71bd bee3 b1be eef9 2bbf 02e6 71be
00000050: a4de f4be 0fa8 093f 59a8 313f 7328 db3c
00000060: 9508 90c0 0cd4 0a3f df4c b5bd e83c 20c0
00000070: 511f 42bf 77cb ab3d ea59 573f 6cbe eebe
00000080: 5e4b 46be fd4d ba3e d7d2 d13d 7b55 84be
00000090: 9c80 2abe d1cc 683d 76af 31be f86d 6e3c
000000a0: ede7 ecbc 8fbc d73d b938 d0bb 9fe2 d2bd
000000b0: 3295 f4bd 1225 fbbd 3cab 25be 4633 06bf
000000c0: 4145 5fbf d8a6 a9bf f406 9abe 0797 04bf
000000d0: 97bf 48bf 74f0 06bf ab4f c3bf f4a3 ecbb
000000e0: eca8 aa3e 805e 3d3e ed44 053f d420 fdbe
000000f0: 82d5 523f 071d 03c0 cc02 a63e d1b1 6f3e
00000100: 0e47 63be 0003 c2be 2dcb 73be f5d9 90be
00000110: 89cd 883e ec7e 153e 2557 05be 5b1d 5dbd
00000120: c868 833e d09b 313d 08a0 773e 91ee 12bf
00000130: d00e d8bd 4447 06bf 7763 023b f55b b53c
00000140: 8741 b4bd 4988 aabd 7351 153d b440 9b3c
00000150: 740b 203e 45eb b9bd 9b2f 7f3d b3a6 ed3d
00000160: b5b5 663e d398 7bbe a983 6d3e 91f4 64be
00000170: 14ff 39bc 69e5 503d 6943 ae3d 4358 6cbe
00000180: 6e71 323e 3635 c2bd f481 9d3c 946c bb3c
00000190: da77 353e 0de4 a9bd a93f 7ebe 7b8a b63c
000001a0: 1b65 b43d c82c 10be d134 59bd ea5b 823d
000001b0: 4c22 a13d c2e1 3fbe 74a4 69be d72f 13bd
000001c0: 1814 023f 99da 653f 2944 9f3e 97c7 2c3f
000001d0: 1cfb abbe 299f 1f3f a939 673f 5723 09bc
000001e0: f443 d7bd 4584 f33e 73d2 8dbe 370c 3a3f
000001f0: 006b 373e d310 973f 2d86 673e 8c03 b43e
00000200: b8f8 1cbe f68d 0d3e 0b2a c63e 45dd 9e3d
00000210: ef0b 43bf ebe9 a0bf d60a cdbd 043c 8fbe
00000220: d290 e03d 6b28 d0be df49 b33b 8767 e0bd
00000230: 58be 343e 7a1f 44bf 4981 aebe 9b2c 15bf
00000240: 78a0 7cbe 3d77 8bbf f08a 6fbe 8b77 e2be
00000250: 93d9 ce3e df32 66bf 1a26 58bf 0ce7 2abd
00000260: 06d0 69bc 9437 40bf 6ec7 283d 1f3b a3bf
00000270: 9acc d7bd 03c1 09bd d414 373e 4b2a a9bc
00000280: 6a46 41be cf26 a03e b6b4 a5bd 8f64 b6be
00000290: 2b4e 693e 8cb7 1e3f c71d 42be 303a a33c
000002a0: a1a9 4dbe 13b5 89be 95a1 31be b0c0 77bf
000002b0: dd9e a9be aa04 eabe 3563 4cbe 2c89 b0bc
000002c0: c34d 893e 9543 98be 6ec2 0a3e 8fdf b83c
000002d0: efb5 583d dcb8 b9be 5cde 003e bda1 bcbd
000002e0: b706 adbd 88d6 e2bd cc05 5e3e 430a da3c
000002f0: 2292 9fbd b50d 983d e067 e0be 172d e6be
00000300: 5099 4f3e 2e9c 36be 0f5a 8abe 12b1 c73c
00000310: 130f 213e e6a2 543e 635c debd a462 c1be
00000320: f85d 783e 5554 1abd 2ab9 2e3c 3064 81bf
00000330: 56f9 1b3e 4a6e d4be 4225 4ebe ba1b 91bd
00000340: 1139 24bf 82b4 51bf a4a9 d4bc b312 56be
00000350: 245c 07be 08ed 93bf 7733 643e 38f1 243e
00000360: 8102 c83e 6f2a 7fbe 9549 a5bc 778d 6fbf
00000370: 477f 8d3e 9669 2ebf 48b5 9f3e 0cec dd3e
00000380: 9185 373d a10c 8b3e 2f92 dabe bd3d 32bf
00000390: 1e1a b6bd e55d 3ebe 0dc7 39be 5a38 173e
000003a0: 2c33 ea3d ee56 7abe c1aa 9c3d be6b 0cbe
000003b0: 27d6 883e 2492 a8be 75af 8d3d 360c 5abe
000003c0: b02d 90be 3fa2 803e c3fe bebe d8af a03e
000003d0: c91b cdbe 312b 933f 141e b03e ffe0 303f
000003e0: 6531 823e 8960 32bc b727 df3d 32f5 18be
000003f0: 3f3a 1f3e f235 5e3f c652 ba3e a0c4 0f3f
-0.46634662 -0.21412203 0.21793666 0.37294883 0.120407276 0.80092746 -0.006216069 -0.29989854
0.44583264 -0.24195005 0.23482354 -0.066911064 -0.82717866 0.9926996 -0.121494055 0.0064699836
-0.059047014 -0.34744066 -0.6717824 -0.23622897 -0.4782611 0.5377206 0.69397503 0.026752686
-4.5010476 0.5422981 -0.088525526 -2.5037174 -0.75829035 0.08388417 0.8412157 -0.46629655
-0.19364688 0.36387625 0.10245293 -0.25846466 -0.16650623 0.056835953 -0.1735209 0.014552586
-0.028919185 0.105340116 -0.006354418 -0.10297131 -0.11942519 -0.1226293 -0.16178602 -0.5242199
-0.8721505 -1.3254042 -0.3008343 -0.5179295 -0.7841734 -0.5271065 -1.5258688 -0.007221693
0.33332002 0.1849308 0.520583 -0.49439108 0.8235704 -2.0486467 0.3242401 0.23407675
-0.22195074 -0.37892914 -0.23807974 -0.28291288 0.2671931 0.14599198 -0.13021524 -0.053983074
0.2566588 0.043361485 0.24182141 -0.57395273 -0.105497 -0.5245249 0.0019895711 0.022138575
-0.08801561 -0.083267756 0.03645463 0.018951751 0.15629369 -0.09078077 0.06230126 0.11604061
0.22530253 -0.24570017 0.23194756 -0.2235892 -0.011352319 0.051000033 0.08508951 -0.23080544
0.17426082 -0.094828054 0.019227006 0.022878923 0.17721501 -0.0829545 -0.24828972 0.02228283
0.08808347 -0.14079583 -0.053028885 0.063651875 0.0786787 -0.18738464 -0.2281664 -0.035934296
0.5081191 0.8978668 0.3110669 0.6749205 -0.3359002 0.62352234 0.9032236 -0.008370242
-0.10511008 0.4756185 -0.27699623 0.7267489 0.17911911 1.1802009 0.22609778 0.35158956
-0.15329254 0.13823685 0.3870395 0.077570476 -0.76190084 -1.2571386 -0.100118324 -0.27975476
0.10965122 -0.40655836 0.0054714526 -0.10957246 0.17650735 -0.7661053 -0.34083012 -0.5827119
-0.24670589 -1.0895764 -0.23392844 -0.4423183 0.4040037 -0.89921373 -0.8443314 -0.04172425
-0.014270788 -0.75084805 0.041205816 -1.2752417 -0.105370715 -0.033631336 0.17879039 -0.02065005
-0.18874517 0.3127961 -0.080911085 -0.35623595 0.22783725 0.6199882 -0.18956672 0.019925207
-0.2008424 -0.2689596 -0.17346795 -0.9677839 -0.33129016 -0.45706683 -0.1995972 -0.021549784
0.2681714 -0.2973906 0.13550732 0.022567539 0.05290788 -0.3627385 0.12584823 -0.09210537
-0.084485464 -0.11076075 0.21681899 0.026616221 -0.077915445 0.074244894 -0.4382925 -0.44956276
0.20273328 -0.17833015 -0.27021834 0.024376426 0.15728407 0.20765266 -0.10857465 -0.3777057
0.24254596 -0.03767808 0.010664264 -1.01087 0.15231833 -0.41490394 -0.201314 -0.070853665
-0.64149576 -0.8191606 -0.025959797 -0.2090557 -0.13218743 -1.1556711 0.22285257 0.16107643
0.3906441 -0.24918531 -0.020176688 -0.93575233 0.27636167 -0.6812986 0.31192994 0.43344152
0.044805113 0.27158073 -0.42689654 -0.69625455 -0.088917 -0.18590505 -0.18142338 0.1476759
0.114355415 -0.24447224 0.07649756 -0.13712975 0.26725885 -0.32923996 0.069182314 -0.2129372
-0.28159857 0.25123784 -0.37303743 0.31384158 -0.4006026 1.1497556 0.34397948 0.69093317
0.2542831 -0.010887274 0.10896247 -0.14937285 0.15549563 0.86801064 0.36391276 0.561594

layers.2.h_bias f4 [16]
00000000: 28f3 253c 7961 5ebe e481 653e d04d 003e
00000010: 70ba 91bd def5 c73d 4419 44bd bf8e 6d3e
00000020: 9fc9 d1bd bb8d 9d3d b681 7f3d bf65 383e
00000030: c72d 913d 1dc3 a93b 69a9 693e 87bb 563e
0.010128774 -0.2171687 0.2241283 0.12529683 -0.07115638 0.09763692 -0.047875658 0.23198985
-0.10243534 0.076930486 0.06237956 0.18007563 0.070888095 0.00518073 0.22818531 0.20969974

layers.3.weight f4 [4, 16, 4]
00000000: bced c9be 450e 103e 7b3d 6ebe 5301 8dbd
00000010: 287e 603f e806 53bf 2b2c 553f e7d4 4abf
00000020: be2a 86be 3285 623e 58a4 23be d07a 853d
00000030: 5585 02be b59f 7e3e eb43 61bc b6a9 093e
00000040: 29e0 76be 45d9 503d a0fc 433e 9e49 483e
00000050: 1ad9 0b3f cbe1 b03e 5ea2 293e e1d6 48bf
00000060: d780 843e 16c4 aa3e 2724 b9bf cfc3 95be
00000070: 3364 483e a1e9 153e 4ea3 6f3e 93a8 80bd
00000080: 7249 963e 5ed2 c53e b3f7 40be 36a6 debd
00000090: 23af 80bf 8cd2 c93e 9865 0cbf 38a7 a23d
000000a0: b909 f33d b95a b4be 526a acbd dcfa 43be
000000b0: 7bde 2ec0 ddc8 9b3f 4d30 95bf e75c 0cbf
000000c0: 21ed 1a3e 987a a8be 3ef0 d3be e693 b5bd
000000d0: 41bc fc3e 2f9d 1f3f 45d6 9c3d e7a4 e43e
000000e0: 16f5 bf3e 3723 00bf 7078 563e 7d8e d7be
000000f0: e059 183f 73a3 3e3e ffe2 283f ad43 c63e
00000100: e9a9 b53c 6bb9 49bf 9a20 dabd 0d31 143f
00000110: e37c 7b3e 84b0 563f d1fc 42be 0542 6ebe
00000120: a621 8d3e 0a96 e6bd c252 3d3e 703c 6b3f
00000130: 1ca6 5bbf 6bd4 a03d 81a1 e7be 882b cd3e
00000140: b6d5 f8be 1228 c6be e0a4 f9be b277 d73f
00000150: ea65 58be 2430 a23e 24a2 253e bc55 b3be
00000160: 56da ebbe 26ec 15bd 2dbf 40c0 9d26 343f
00000170: 8ec2 cebb e298 9ebe 872f 03be bec3 933d
00000180: c6fb 8dbf 3d18 c63d 742f 7dbe e297 9cbd
00000190: b519 90bf f19e bbbd 5399 92bf b5d3 c3bc
000001a0: 3a18 ea3c 510d 683e 6fe3 e63e 93b4 6d3f
000001b0: 08d8 65be 7e05 fc3f 2841 d4be b798 8bbe
000001c0: 24bc 58bd de4f b4bd 4884 cabe d22c 493c
000001d0: 0bd2 d23f 5ec9 93bd 7338 863f 0b72 ac3e
000001e0: c2c0 833f eec5 bf3c 0e0a 183f c410 3fbf
000001f0: 46e0 e93d 3e2f 45bf 4c62 853f 9374 abbf
00000200: 563c 203f ae6b d5be 257a fabe 922f f6be
00000210: 5d93 ca3d b7dc afbe b15b 163d 500c 2e3e
00000220: 662c 51bf 4bc5 a43e 6faa 073e d023 933f
00000230: 1288 c9bd 3790 46be baec 303e ce22 0cbf
00000240: a836 d4bd 6da6 843e 37cd 8dbe e41f c93e
00000250: 5630 853f 3510 5a3e cf06 963f 54a1 a43e
00000260: 9ff1 ef3e 68ac e33e 910b c4be 5484 97bf
00000270: e450 373e 7558 103e 86b9 803e 9c33 da3e
00000280: 804d 6abf 6df6 db3e d41c 0a3f d3eb 1abe
00000290: 9402 8b3e 7212 013e d492 943f eb5e 7d3f
000002a0: 94cf ea3d fe64 c83e 4728 e33c 4bf6 f73e
000002b0: 16e9 edbe 5e61 bcbe d88b 1ebd 8e39 48bf
000002c0: 2821 8bbb 2681 a93e 055f e0bd acae 153d
000002d0: c089 b33d 5377 2abe 1f17 cdbc fd1c 09bf
000002e0: e129 9f3e a466 993e 3514 80bd eede e7bd
000002f0: 1caa 283e ca1f 57bf 9a6a 90be bad0 cabd
00000300: 9d3d fb3c 7e85 043e 870d 6dbe a53f f33c
00000310: ac20 b9be 59d2 053f ea0d 27bf 1a9d 08bd
00000320: b293 563e a806 a1be abe9 b13d 37fe 1d3e
00000330: 0878 67bd 55af 0b3d 6864 8a3e 50da 31be
00000340: 3831 37be 44f7 e43d 66a8 e6bd f541 98bd
00000350: 4239 403e 3b0e 043e e66f 95be 74b4 a53d
00000360: 9b84 fabf 0635 5040 9a8d d7be 6453 a8be
00000370: 439b a93e 2884 383e 00de 6e3d c5f2 20bf
00000380: 8f13 7b3f 9d21 293f ffc7 133f fefd ddbe
00000390: 03a6 64be ff6f a93e 1504 12be 344d d93e
000003a0: 6db4 98be 2c45 bfbd ff32 863e a3c8 4a3c
000003b0: c6c2 883c 7d39 d93e 16ad 9a3e 7204 083f
000003c0: bfda 823f 70f8 46be 839e d73e 9745 86bc
000003d0: ef66 a83e 186e 023f 3d5d 583f 1d8e 203e
000003e0: 37bb ffbe 2361 163f 61c6 ebbd 3082 debc
000003f0: 6249 843e 86e0 0ebf 0afe 6a3e 5478 bd3e
-0.3943919 0.14067943 -0.2326564 -0.06885018 0.876925 -0.82432413 0.8327052 -0.79231113
-0.26204485 0.22121122 -0.15980661 0.06517565 -0.12746175 0.24865611 -0.013749103 0.13443646
-0.24108948 0.050988454 0.19139338 0.19559333 0.54628146 0.34547266 0.16565844 -0.7845288
0.25879547 0.33352727 -1.4464158 -0.29250953 0.19569473 0.14639904 0.2340214 -0.06282153
0.2935291 0.3863706 -0.1884449 -0.10871546 -1.0053447 0.39418447 -0.5484252 0.07942051
0.11867089 -0.35225466 -0.084187165 -0.19138664 -2.7323291 1.2170674 -1.1655365 -0.5482926
0.1512952 -0.32906032 -0.41394228 -0.088661 0.49362376 0.6234922 0.07658056 0.4465706
0.37491673 -0.50053734 0.20944381 -0.42100897 0.5951214 0.18617038 0.6597137 0.38723508
0.022175746 -0.7879855 -0.106507495 0.57887346 0.24559359 0.8386309 -0.19041754 -0.23267372
0.27564734 -0.112590864 0.18488601 0.91889095 -0.8580034 0.078530155 -0.45240405 0.40072274
-0.48600549 -0.38702446 -0.48758602 1.6833403 -0.21132627 0.31677353 0.16175133 -0.35026348
-0.46065015 -0.03660216 -3.0116684 0.7037142 -0.006309814 -0.30976015 -0.12811099 0.07215069
-1.109246 0.09672592 -0.24725133 -0.07646157 -1.1257845 -0.09161175 -1.1453041 -0.02390466
0.028576005 0.2266133 0.45095393 0.9285366 -0.2244569 1.9689176 -0.4145596 -0.2726495
-0.0529138 -0.08804296 -0.39554048 0.012278752 1.647035 -0.07216142 1.0485977 0.33680758
1.02932 0.02340981 0.5939034 -0.7463496 0.1141973 -0.7702521 1.0420623 -1.3394951
0.62592065 -0.41683716 -0.48921314 -0.48083168 0.098913886 -0.3434808 0.036708537 0.16996884
-0.8170837 0.32181773 0.13248609 1.1495304 -0.098404065 -0.19390951 0.17277804 -0.5474061
-0.10361987 0.25908223 -0.2769563 0.39282143 1.0405376 0.21295245 1.1720828 0.32154334
0.4686403 0.44467473 -0.38290074 -1.1837258 0.17901951 0.14096244 0.25141543 0.426175
-0.91524506 0.42961445 0.5395024 -0.15129022 0.27150404 0.12604693 1.1607308 0.9897296
0.11465374 0.3913955 0.027729167 0.48430094 -0.46466893 -0.36793035 -0.038707584 -0.7821282
-0.004245896 0.33106345 -0.109556235 0.036543533 0.08766508 -0.16647081 -0.025035439 -0.5355986
0.3108664 0.2996112 -0.06253854 -0.11321817 0.16471142 -0.8403288 -0.2820633 -0.09903093
0.030669028 0.12941548 -0.23149692 0.029693434 -0.3615774 0.5227409 -0.65255606 -0.03335295
0.20954779 -0.3145039 0.08687147 0.15429007 -0.056510955 0.034102757 0.2702973 -0.17368436
-0.17889869 0.11179975 -0.11262588 -0.07434455 0.18771842 0.12896053 -0.29186934 0.08091059
-1.9571718 3.2532363 -0.4210022 -0.32876122 0.33126268 0.18019164 0.058317184 -0.62870437
0.9807672 0.66066915 0.57727045 -0.43357843 -0.22328953 0.3309326 -0.1425937 0.42441714
-0.29825154 -0.09339365 0.26210782 0.012376937 0.016694438 0.42426673 0.3021018 0.53131783
1.0223006 -0.19430709 0.42113122 -0.016390605 0.32891032 0.5094924 0.8451727 0.15679212
-0.4994752 0.5874197 -0.11512447 -0.027161688 0.25837237 -0.55811346 0.2294847 0.37005866

layers.3.h_bias f4 [4]
00000000: 7aa8 183e 2f36 303e d09e b53e f4d5 053e
0.14908019 0.1720817 0.35472727 0.13069898

attn.attn_l f4 [1, 1, 4]
00000000: 0641 dcbe 06ff 0b3e 9bf8 febf bcb0 a8bf
-0.4301836 0.13671502 -1.9919618 -1.3178935

attn.attn_r f4 [1, 1, 4]
00000000: 9906 77bf 1a3b 87be 9474 733f 4a65 f13e
-0.9649444 -0.26412278 0.9509976 0.4714759

attn.fc.weight f4 [4, 4]
00000000: 1edf 4ebe 7cc1 193f 2513 fb3e be1b b83f
00000010: 2671 b33e 5eeb 87bf 1fb4 b8be 3cba 7abd
00000020: 18fe 9cbd c04b 28be dbe6 adbe 9a83 26be
00000030: 7292 fe3d 5f73 92be deb5 583f 7b81 93be
-0.202023 0.6006086 0.49038044 1.4383466 0.35047263 -1.0618703 -0.3607492 -0.061212763
-0.07665652 -0.16435146 -0.3396519 -0.1626114 0.12430276 -0.28603646 0.8465251 -0.28809723

dense.weight f4 [1, 4]
00000000: 695c 2fbe 2dd4 463e 70e4 a8bd 6d86 0f3f
-0.17125095 0.19416876 -0.08246696 0.5606449
