saved_model_w/logp_attn.pth (torch_old, 5149 bytes, 9 tensors)

attn.fc.weight f4 [8, 14]
000000 99 22 23 be ec 81 1b be 8d da 84 3e a0 74 3c bd
       -0.15931167 -0.1518628 0.2594799 -0.04600966
000010 8e bc 68 bc 88 de 11 be 6f 46 29 be 31 dd 7c 3d
       -0.014205111 -0.14245045 -0.16530775 0.061734382
000020 46 94 1d 3e 0a 6b ce 3e a4 e3 ef 3d fe 7b 71 be
       0.15388593 0.4031604 0.11713341 -0.23582456
000030 6c 80 1d be b2 2b 29 be 85 9b 87 bd 98 91 5a 3d
       -0.1538102 -0.16520575 -0.0662146 0.053361505
000040 19 53 05 be f0 d1 17 3e be d2 6f be 48 73 98 bc
       -0.1301998 0.14826179 -0.23420236 -0.018609658
000050 f4 ca 2e be bd 89 58 3e 1a 99 e5 be a4 28 fe be
       -0.17069608 0.21146293 -0.4484337 -0.4964038
000060 c3 19 60 be 68 b4 46 bf 48 eb 40 bc 80 86 3d 3d
       -0.21884827 -0.7761903 -0.011774845 0.046270847
000070 7a be 9e bd 06 bc 3f 3e e8 ab 68 bd f0 85 65 3e
       -0.07751174 0.18724069 -0.056804568 0.22414374
000080 6c cb 57 3f 58 07 b0 3d b5 ae 3e be 77 6a e5 3d
       0.8429477 0.08595151 -0.18621333 0.11201947
000090 92 a8 3c 3e 2b 4d c6 bd e0 7d 5d be 1b de 85 3e
       0.1842368 -0.09682687 -0.21630049 0.26146016
0000a0 35 21 0b 3f e0 22 70 bc 31 9b 09 bc 20 7e 58 3d
       0.54347545 -0.014656752 -0.008398817 0.052854657
0000b0 8e 7d 56 3e a8 e3 eb 3d b1 71 2e 3f 50 96 30 3d
       0.20946333 0.11518031 0.6814223 0.0431121
0000c0 f2 24 7c 3c 27 c1 df 3d ad 58 ba be b6 45 94 3e
       0.015389668 0.10925513 -0.3639578 0.28959435
0000d0 f7 91 11 be 34 5e cc bd 60 15 c7 3e 62 a5 46 be
       -0.14215837 -0.09978905 0.38883495 -0.19399026
0000e0 e7 20 1f 3e 44 2a fc bd 1a c9 08 3e 28 65 2d bd
       0.15539895 -0.12312749 0.13357964 -0.0423328
0000f0 48 25 a1 be d9 39 65 be 98 ce 21 be 6b 0d 15 be
       -0.31473756 -0.22385348 -0.15801466 -0.145559
000100 4a 84 1d be 00 91 e4 be 80 93 8e bd 7c 0b e4 be
       -0.15382496 -0.44641876 -0.06961727 -0.44540012
000110 25 94 db 3e 0c 43 14 3e 8a 5f 13 be c2 74 6b 3e
       0.42886463 0.14478701 -0.14391914 0.22993758
000120 84 8f 19 3e ac 94 3a 3e cf bc 5d 3f 5c 83 46 bd
       0.14996153 0.18220776 0.86616224 -0.048465118
000130 7f 01 ec 3d e0 70 e3 3d fa 58 c1 be 59 d9 54 be
       0.11523723 0.111055136 -0.37763196 -0.20786037
000140 60 cc e7 3d 42 fc 51 3f 6e 27 21 3f 32 75 54 3e
       0.11318278 0.8202554 0.6295079 0.20747831
000150 39 fc 8c 3d e6 7b 77 be 90 d3 86 bc 5e 30 12 3e
       0.06884045 -0.24168357 -0.016458303 0.14276263
000160 c4 11 7f bf 24 6b 48 3e d4 bc 92 bd 81 31 a4 bd
       -0.99636483 0.19572121 -0.07164922 -0.080172546
000170 c4 18 6d bc 2a 7c a9 3e 8c 88 ed 3d bb 5e 62 bd
       -0.014471237 0.33102542 0.1159831 -0.055266123
000180 68 08 55 be a2 6a 81 be b1 ac 3f 3e ac 4f 95 3d
       -0.20803988 -0.25276667 0.1871822 0.07290587
000190 48 69 d0 3d b6 a5 50 3e 77 7c b2 be 4e 32 40 3e
       0.10176331 0.20375714 -0.34860584 0.1876919
0001a0 41 30 74 be 76 9c 1f 3f 51 2b c5 3e 29 6a 5c be
       -0.23846532 0.62348115 0.3850961 -0.21524872
0001b0 48 4f cd bd 52 2b 04 bf 7b 7b 84 be c8 b3 64 bd
       -0.10024887 -0.516286 -0.25875458 -0.055835515

attn.attn_fc.weight f4 [1, 16]
000000 44 25 22 be a8 37 32 3e 70 7e cf 3d 2a 58 6a 3e
       -0.15834528 0.17404044 0.10131538 0.22885194
000010 d0 4a fd 3c 36 92 3c 3e 34 13 0c 3e 8c 18 06 be
       0.030919462 0.1841515 0.136792 -0.13095301
000020 70 d1 28 3e e0 da 5c bc 70 0b 55 3e 32 d6 01 3e
       0.16486144 -0.013479918 0.20805144 0.12679365
000030 36 4f 33 be c4 88 c8 bd 62 dc 02 3e 78 7b b1 bd
       -0.17510685 -0.09791711 0.12779382 -0.08666128

layers.0.weight f4 [4, 8, 8]
000000 72 9f ae be 0d 0a 18 3f 4e f2 96 3d 72 df 4f 3f
       -0.34106022 0.59390336 0.07370435 0.81200325
000010 c7 c1 90 be 20 6b ce bd 20 d3 02 be 2e bf ff 3e
       -0.2827284 -0.10079026 -0.1277585 0.49950546
000020 3b 62 af 3d 28 f4 a6 3f d2 3a 20 3e 63 e2 e3 3c
       0.08563658 1.304326 0.15647438 0.02781791
000030 2f 44 03 3e e9 93 5d 3e 9b 63 ca be c8 40 a7 3f
       0.12818979 0.21638454 -0.39529118 1.3066645
000040 4a dc a4 bd 2b 14 12 3f d4 89 7d be 6f 80 92 3f
       -0.08049829 0.57062024 -0.24759609 1.1445445
000050 90 08 53 be 08 6b 9f 3e 51 99 66 be be 60 88 3f
       -0.20608735 0.31136346 -0.22519423 1.0654523
000060 4b 8c cf 3e ae 92 5f be ec 2b 3c be f1 af b0 be
       0.40536723 -0.21833298 -0.1837613 -0.34509233
000070 9b ba e1 3e 66 3f 45 be 4f c8 83 be 77 32 44 bd
       0.4408768 -0.19262466 -0.2573876 -0.04789969
000080 81 75 da 3c 25 ad 37 3e 26 10 bc bd ba 8d 9c be
       0.026667358 0.17937143 -0.091827676 -0.3057688
000090 5a ce 03 be 62 a5 83 bc 36 10 01 bd e6 ec 2a 3e
       -0.12871686 -0.016070072 -0.0315096 0.16691932
0000a0 6f 71 ca 3d 2f 68 e2 bc 31 85 71 3e 3d 76 39 3e
       0.09884917 -0.02763757 0.23585965 0.1811151
0000b0 84 f0 fa bd 0a 82 22 be fd 2b c1 be 8f 95 f7 3e
       -0.12252906 -0.15869918 -0.37728873 0.48356292
0000c0 3b 01 e3 bd 77 21 c4 bd 61 af aa bb cf 99 69 bc
       -0.11084219 -0.095766954 -0.005208895 -0.014257862
0000d0 e2 cb ee bc c6 72 26 bd 9b 11 4b 3d 7f 42 2c be
       -0.029149953 -0.0406368 0.049577337 -0.16822241
0000e0 51 6b 29 be c7 93 b7 3e 5f 7b e7 be 3c 71 b8 3e
       -0.16544844 0.35854933 -0.45211312 0.3602389
0000f0 45 4a 2f 3f b5 d3 60 3f 17 96 9c be a2 7f 78 3d
       0.684727 0.8782304 -0.3058326 0.060668595
000100 2e f6 81 3d ca 71 77 be e9 36 9e be da 10 8a 3e
       0.06345783 -0.24164501 -0.30901268 0.26965982
000110 e0 28 81 be 19 5e e5 be 3a 4e 5a be d5 eb 3b be
       -0.25226498 -0.44798353 -0.21318904 -0.18351682
000120 e2 aa c6 bd 19 ec 9b be 96 b7 3c be 59 09 be 3e
       -0.09700562 -0.30453566 -0.18429407 0.37116507
000130 f1 2a e9 be 7f 69 30 be 8d 60 e7 be 2a 46 a7 3e
       -0.45540574 -0.17227744 -0.4519085 0.32670718
000140 55 52 30 be 06 4f b1 3d e9 19 ee be 1e 35 0e bf
       -0.17218907 0.08657651 -0.46504143 -0.555498
000150 13 ca 1c be 98 83 04 be a1 b9 4e bf 59 ea 1a be
       -0.1531146 -0.12940824 -0.80752 -0.15128459
000160 70 67 61 be 0d c3 65 be 7b 2c 6e 3e b6 8a 0c bf
       -0.22012115 -0.22437687 0.23259155 -0.54899156
000170 cb 8a 60 3e e3 82 cc ba 1f f7 e8 3e a3 09 c1 3d
       0.21927945 -0.0015602972 0.45501038 0.09425666
000180 08 84 e5 bd cd 29 21 3d 8e 25 80 be 6d 8b 9c 3e
       -0.112068236 0.039346505 -0.25028652 0.30575123
000190 bd bf 73 bd f2 a7 3e bb 21 7d 6a be d9 31 55 be
       -0.059509028 -0.0029091802 -0.22899295 -0.20819797
0001a0 b2 b6 a9 be c9 4b 39 be a9 a0 44 3e de 83 2a 3d
       -0.33147198 -0.18095316 0.19201912 0.041629665
0001b0 72 94 12 bd 49 7f 35 be 9a 57 80 3e 08 dd 99 be
       -0.0357861 -0.17724337 0.25066835 -0.30051446
0001c0 76 55 cd 3d da 5f 49 3e bb 1b 57 bd ac 2b 3e 3e
       0.10026066 0.1966547 -0.05251668 0.18571347
0001d0 2b 22 73 3d 9e 32 ec 3d 2e c4 01 3d cf ef 0e 3e
       0.059358757 0.11533092 0.031681232 0.13958667
0001e0 71 79 a1 3c 84 b8 79 3e 1f 29 f4 be ef fb bb bd
       0.019711228 0.24386793 -0.47687623 -0.09178912
0001f0 37 de d0 3e e5 ef 42 3e c0 00 35 bf a0 d8 fc bd
       0.40794536 0.19036825 -0.7070427 -0.123460054
000200 d6 50 58 3e f1 81 d8 bd 49 ad 10 3f cd 3d 0e bf
       0.21124586 -0.10571659 0.5651441 -0.5556305
000210 c2 99 5c 3e c2 57 88 bd 7a f7 aa 3e 79 5c b5 3e
       0.21543029 -0.066573635 0.33391935 0.35422114
000220 36 84 05 be 76 60 0d bf 07 5c 99 3e 21 93 2f 3e
       -0.13038716 -0.5522531 0.29953024 0.17145969
000230 08 e2 62 be d6 85 bb be 95 31 55 be 0f 81 0b 3f
       -0.22156537 -0.36625546 -0.20819695 0.544938
000240 35 fd 4f bd ce 00 00 bf 3f 26 b0 3e 17 9e 67 be
       -0.050778586 -0.5000123 0.3440418 -0.226189
000250 2e 19 dc be 55 68 ce be de 34 99 3e 09 e9 90 3e
       -0.4298796 -0.40313974 0.29923147 0.28302792
000260 07 78 90 be 28 53 b2 3e 85 b5 4f bf fb d9 04 3f
       -0.28216574 0.34829068 -0.8113635 0.5189511
000270 95 08 94 3e 04 16 47 be ad 39 22 bd ab 7e 15 bf
       0.28912798 -0.19441992 -0.039605785 -0.58396405
000280 34 4b 5d bd 00 ba e5 3e 5a b3 81 be a7 3c df 3d
       -0.054026797 0.4486847 -0.25332147 0.109002404
000290 b1 a4 fe 3e cb c3 51 3d 26 57 ba 3d ed 2b 6d 3d
       0.49735025 0.051212113 0.090986535 0.05790322
0002a0 36 fc 32 3f 2f 43 1a bf 54 63 02 3f cc 49 11 3d
       0.69916093 -0.60258764 0.5093281 0.03547077
0002b0 c6 71 d2 be f0 73 69 be bf e0 af 3d f3 8c d5 3e
       -0.41102427 -0.22798133 0.08587789 0.41709098
0002c0 10 e9 83 bc b4 f0 a3 3f e2 cc 8b be 7d 67 86 3e
       -0.016102344 1.2807832 -0.2730475 0.2625083
0002d0 88 55 08 be bf c9 8a 3f 47 bf a5 bd 86 4e a9 3e
       -0.13313878 1.0842818 -0.08093124 0.3306772
0002e0 c2 81 8e be 87 b1 3b be 1a 28 4c be 63 63 fc 3e
       -0.27833372 -0.1832944 -0.19937173 0.49294576
0002f0 2e ec c8 be dd 10 c4 be af a8 ee bd 17 42 0a 3f
       -0.3924269 -0.38294116 -0.116532676 0.54007095
000300 10 b2 51 be 39 a0 11 be 72 bc 8f 3e 6f 28 2f bf
       -0.20478082 -0.14221276 0.2807346 -0.6842107
000310 4c 75 5c be 90 86 ce 3e 42 3f ee be 7c 5e 7e 3e
       -0.2152912 0.40337038 -0.46532637 0.2484073
000320 6a 3d 8b be 5a da 89 3e 14 46 39 3e fd 29 f8 be
       -0.27195293 0.26924402 0.18093139 -0.48469535
000330 58 6c 77 be b4 fb 0e 3f c0 1f b8 be dd ee fe 3e
       -0.24162424 0.5585282 -0.35961723 0.49791613
000340 4b 3a 12 be 03 a8 d4 bd da 58 0d 3f 59 59 ba be
       -0.1428005 -0.10383608 0.552137 -0.36396292
000350 b3 c2 ad be ad 0c 8f 3e 0c d7 1a be 8c 29 fa 3e
       -0.33937606 0.27939358 -0.15121096 0.48859823
000360 7a 38 4d be ca 82 3a 3e 85 b7 3d 3d c0 47 e5 3d
       -0.20041075 0.18213955 0.046317596 0.11195326
000370 76 3f f8 3c 2a 6f 61 be 3f 17 0c 3f f8 b2 db be
       0.030303698 -0.22015062 0.5472297 -0.4290998
000380 f9 71 fc bd 0d 17 fd bd b3 65 c1 3c 3b e1 87 be
       -0.12326426 -0.12357912 0.023608064 -0.26539025
000390 f4 b1 ff 3a 16 60 8e be f6 5a cf 3b ef e2 b8 be
       0.001950799 -0.27807683 0.006327982 -0.36110637
0003a0 2c 44 0a 3e 41 68 00 3e a4 ab ae 3d 34 af bd bc
       0.13502568 0.1253977 0.085288316 -0.023154832
0003b0 ec c1 c9 3d 8f 3a 5c 3e 36 dd 8b be 1b e9 d1 3e
       0.09851441 0.21506713 -0.27317208 0.40998158
0003c0 ff cc 93 3d 67 e6 45 bd 36 03 4c 3c 18 15 6a 3d
       0.07216834 -0.048315432 0.012451937 0.057149023
0003d0 16 b2 8f bc cf a0 82 3c 45 58 1c be 9b 58 64 3d
       -0.017540973 0.01594582 -0.15268047 0.055748563
0003e0 42 69 1e be b2 66 22 3e f9 3b f2 bd a0 3f 12 3f
       -0.1546984 0.15859488 -0.11827845 0.57128334
0003f0 3f 5a 92 3e 48 69 45 bd f9 06 c8 3e 66 e5 5f bf
       0.28584477 -0.048196107 0.3906782 -0.8745941

layers.0.h_bias f4 [8]
000000 32 e7 11 3e 9e eb 08 bd c0 6f a4 3e 66 57 b4 be
       0.1424835 -0.033427827 0.32116508 -0.3522293
000010 cf 58 d2 be 7b 96 06 3e e1 fa 0e be 3c 09 a6 3e
       -0.4108338 0.13143341 -0.1396289 0.3242892

layers.1.weight f4 [4, 8, 8]
000000 0b b9 93 bd 30 28 33 3e a6 e1 90 3e 13 0e a9 3e
       -0.072130285 0.17495799 0.28297156 0.3301855
000010 52 7f 12 3d c4 80 f1 be 1e 1a 82 3d 8c 40 0b be
       0.035765953 -0.47168553 0.06352638 -0.13598841
000020 a4 1c fb be 0f e8 37 3e 66 00 7f be a3 45 f4 be
       -0.4904529 0.17959617 -0.24902496 -0.4770938
000030 fb 50 83 3f 90 f9 e4 bd b6 3a ea 3d e8 43 cf 3e
       1.0259088 -0.11180413 0.114369795 0.40481496
000040 bf b8 88 3d 1b 10 e4 3e 80 39 68 be ad 01 21 bd
       0.066758625 0.44543537 -0.22678185 -0.03930824
000050 65 25 90 3e 89 14 f7 be 4e af 72 3e 92 9f d1 bd
       0.2815353 -0.48257855 0.23699686 -0.10235514
000060 06 48 d8 bf 04 dc b8 3e 9c 9f 21 c0 90 74 16 3f
       -1.689698 0.3610536 -2.5253668 0.5877161
000070 ad e1 fe 3e 68 14 3a bf f5 9b 21 bd 75 30 b9 3f
       0.49781552 -0.7268739 -0.039455373 1.4467913
000080 39 2d 3e bd 92 34 00 3e 90 2b 4e 3b a6 11 35 3e
       -0.046429846 0.12520054 0.003145907 0.17682514
000090 bb f1 8c bf 4f 28 aa 3d 47 b9 75 bf 76 06 dd 3e
       -1.101127 0.083084695 -0.95985836 0.43168992
0000a0 33 49 3f be 55 3a ef be 69 28 ca 3e 6d c5 51 3d
       -0.18680267 -0.4672419 0.39483956 0.05121367
0000b0 7f e2 e7 bd 8c eb 00 bd 56 c5 8c be 50 b3 15 bf
       -0.113224976 -0.031474635 -0.27494305 -0.58476734
0000c0 57 e9 d6 bf 86 52 30 be 55 33 fc be 2c 31 0e 3e
       -1.678996 -0.1721898 -0.49257913 0.13885945
0000d0 62 a5 c5 be 74 96 0e bf e1 02 24 bf a4 1f 9e be
       -0.3860274 -0.55698323 -0.6406689 -0.30883515
0000e0 ce 29 f7 3e 96 77 45 3e 0f 7d 75 3e 43 6a ec bd
       0.48274082 0.192839 0.23973487 -0.11543705
0000f0 5a 28 24 c0 ab 7a f7 3e e4 90 d1 be d2 cb cb be
       -2.5649629 0.48335776 -0.40930855 -0.3980394
000100 94 51 28 3f 82 b8 fb be 6e e7 b0 be aa 87 8b bd
       0.6574948 -0.49164206 -0.34551567 -0.06812985
000110 78 f0 b3 bf 3c 98 7a be 3a 9d a9 3d c5 71 16 be
       -1.405776 -0.24472135 0.08281942 -0.14691837
000120 76 42 aa 3e 97 63 36 3e 05 4a 1b 3b 91 f7 1d 3e
       0.3325383 0.17811428 0.0023695242 0.1542647
000130 68 42 11 bf e6 e1 e4 bd f4 b1 9e 3d b4 71 ae bf
       -0.5674195 -0.11175899 0.077487856 -1.362845
000140 ca 55 d8 be 9e 6a 70 3b a7 92 84 bf 17 84 2d bf
       -0.42252952 0.0036684643 -1.0357255 -0.6777968
000150 eb 56 3b 3e 42 8d d7 be c3 5c 36 bf 6e 6e f8 be
       0.18294875 -0.4209996 -0.71235293 -0.4852175
000160 0a 8b 24 bf ec bd e8 c0 5c 3b 78 3f f5 bf 1e 3f
       -0.64274657 -7.273184 0.96965575 0.62011653
000170 11 d5 a4 3f 27 36 7b 3f 40 b7 32 bf 0f 1b 4b 3f
       1.2877523 0.98129505 -0.6981087 0.79338163
000180 1a c0 9e 3e 35 43 7b be 86 6d dc 3e 42 df cc 3c
       0.31005937 -0.24537356 0.4305231 0.025008801
000190 27 95 c0 bd c8 d9 d3 bd 03 bd a7 3e 78 51 07 be
       -0.094034486 -0.10344273 0.32761392 -0.13214672
0001a0 2e d9 01 bd ed 28 78 3e c7 dd e7 bc 2a bb 2b bf
       -0.03170126 0.24234362 -0.028303994 -0.67082465
0001b0 8d 46 0c 3f c6 4d 27 3e 35 1f 0f 3e b3 bf bf 3e
       0.5479515 0.16338262 0.13976748 0.37450942
0001c0 52 31 33 bf 2b e7 cf 3e cb 58 00 c0 3a 96 00 3f
       -0.6999713 0.40606055 -2.0054195 0.5022923
0001d0 e2 95 d8 3e 33 84 4e 3e 7e ba bd be 39 ac a9 be
       0.42301852 0.20167617 -0.37056345 -0.33139208
0001e0 5b 3e 0a bf fc 2c 44 bf 51 33 41 bf ee 80 f6 be
       -0.54001397 -0.7663114 -0.7546893 -0.4814524
0001f0 ff e8 d7 be dc 6f 3c 3f 01 25 90 3e ca 51 8c 3f
       -0.4216995 0.73608184 0.28153232 1.096246
000200 db ff 8d 3f a7 63 27 be 64 fc 4c be c2 cd 71 3e
       1.1093706 -0.16346608 -0.20018154 0.23613647
000210 7d b9 1c 3f 19 4d 75 bd 7d 99 3f bf 95 34 eb be
       0.6122053 -0.05988798 -0.7484358 -0.45938554
000220 7c 03 77 bf 04 aa 5a 3f 91 aa d8 3e 41 45 0b 3c
       -0.9648969 0.85415673 0.42317632 0.008500398
000230 c8 ba 96 bc e5 17 a7 be 58 d1 49 3d b8 0b 45 3c
       -0.018399611 -0.32635418 0.04927191 0.01202672
000240 b5 78 9e be 63 cc 7e 3e 8e bf 7c 3e 02 88 ac 3e
       -0.30951467 0.24882655 0.24682447 0.33697516
000250 61 6a 2b be a9 9e 1e 3e 18 bd e8 be a0 81 30 bf
       -0.16739799 0.15490212 -0.45456767 -0.6894779
000260 0f 27 b9 bc fe 22 85 3f a9 fb de be 96 61 87 be
       -0.022601632 1.0401304 -0.43551376 -0.2644164
000270 db d1 91 be 22 3e 88 be ff ac a7 be df ae ce 3d
       -0.2848042 -0.26609904 -0.32749173 0.10091948
000280 ee 8d d5 be 8a 2d 29 3f bb bf c3 bd 61 d8 33 3e
       -0.41709846 0.6608511 -0.09558054 0.17563011
000290 76 f3 e8 bd c7 83 05 be 38 0f 56 3d a2 e4 9e be
       -0.113745615 -0.1303855 0.052260607 -0.31033808
0002a0 33 20 41 3e 08 fa 9a 3c f6 65 8d 3e 11 de 44 3e
       0.1885994 0.018918052 0.27616853 0.19225337
0002b0 ff ef ae 3d dc 55 8a be fd 17 6a bd dd f1 20 bf
       0.08541869 -0.2701863 -0.057151783 -0.62869054
0002c0 75 0c e1 bd b7 6e af be 72 e3 94 be 7f c6 73 3e
       -0.10988704 -0.34264156 -0.29079777 0.23806189
0002d0 03 24 5a 3d 56 4f 62 be c1 0b 1a be 05 db 5f 3c
       0.053257 -0.22100577 -0.15043546 0.013663058
0002e0 56 4f b2 3e 2c 52 24 bf 17 fd 6d 3d 98 e7 39 be
       0.34826154 -0.64187884 0.058102693 -0.18154752
0002f0 bd 80 b5 bd 0c ee 74 3d 5a c3 4a 3d b1 80 49 be
       -0.088624455 0.05979733 0.049502708 -0.19677998
000300 f8 11 3c 3e 8c 7d dd be 43 da 65 bd 26 a5 c5 be
       0.1836623 -0.43259847 -0.056116354 -0.3860256
000310 ec bd ca 3e d3 03 fc 3b b9 74 37 be 1c 01 cb bd
       0.39598024 0.0076908856 -0.1791562 -0.09912321
000320 a5 69 2c 3d e0 76 7e 3e e6 95 85 3e 92 ca 09 bf
       0.042092938 0.24850035 0.26090926 -0.5382472
000330 ef 03 76 3d ba 25 54 3e 03 97 18 be 98 66 a9 bd
       0.060062345 0.20717517 -0.14901356 -0.08271521
000340 f1 02 1a bf 27 62 20 bf 5a df c0 3e 08 ba 80 bd
       -0.6016074 -0.6264977 0.37670404 -0.06285483
000350 1d 31 df be c3 91 56 3f 2e c1 ba be 7d c0 a1 3f
       -0.43592158 0.83816165 -0.3647551 1.2636868
000360 51 5e 4c bb e4 45 9a bd aa 9c 61 bd 3f 68 be 3e
       -0.0031184147 -0.07532862 -0.055081047 0.37188908
000370 85 f5 1e be 4c fc 13 3e f4 d7 04 bd 76 dd 03 3d
       -0.15523346 0.14451712 -0.03243251 0.032193623
000380 f9 7c 17 be 51 96 2c bf 05 51 df bd aa d9 53 3f
       -0.14793767 -0.67416865 -0.10904125 0.82754004
000390 1f eb 21 bf 88 27 f0 bd b5 cf 3f 3e f0 b7 d1 bd
       -0.6324939 -0.1172629 0.18731578 -0.102401614
0003a0 77 cf b9 3e b5 09 4d 3e 5d 10 2a 3d 2f 10 0b 3e
       0.36291096 0.20023234 0.04151951 0.13580392
0003b0 9c 98 b1 3e c9 0f 90 3f b0 15 44 3f 77 d9 2b 3f
       0.34686744 1.1254817 0.7659559 0.671287
0003c0 f1 13 1d 3e 42 34 ce 3d 8d 81 9f 3d 68 13 7f be
       0.15339638 0.10068561 0.07788382 -0.24909747
0003d0 ba 08 14 3e 89 dd ce 3d ed 8a da bd b5 02 2a bd
       0.14456454 0.10100848 -0.10671029 -0.041506488
0003e0 af 90 24 bc 87 20 cf 3e de 24 68 3e 77 db 3b bf
       -0.010044261 0.40454504 0.22670314 -0.7338175
0003f0 f0 c9 0b 3e 3c bf 67 be 4e 5c 16 bd 84 5d f6 bd
       0.13651252 -0.22631544 -0.036709122 -0.120295554

layers.1.h_bias f4 [8]
000000 6b 0c e8 3e a7 38 a8 3e b0 c8 18 bf 3a 18 09 3e
       0.45321974 0.32855722 -0.59681225 0.13388148
000010 3b 84 b3 3e 82 90 03 3f 25 93 28 3f a6 a5 d5 3e
       0.3506182 0.51392376 0.65849525 0.41727942

layers.2.weight f4 [4, 8, 4]
000000 f2 0c c2 c0 6f f1 4e bf 3f 05 18 3f 3a 4b 9d 3e
       -6.06408 -0.8083715 0.59383005 0.30721456
000010 00 eb 2e 3e 1f 35 cc be fe 72 a8 bc 91 60 37 3e
       0.17081833 -0.39884278 -0.020562645 0.17907931
000020 54 a6 08 c0 34 f6 44 bf e5 a4 87 be 01 8e 5d 3e
       -2.1351519 -0.76938176 -0.26492992 0.21636201
000030 7e b0 57 be 59 36 aa 3e d3 92 68 bd ee 43 5e 3d
       -0.2106342 0.3324459 -0.056780647 0.054264
000040 ed 28 de be ab f1 27 3f 85 26 2b be 14 34 a7 be
       -0.433906 0.6560313 -0.16713913 -0.3265692
000050 fd 1a b2 bf bb 83 4f 3f fd c8 f3 be 70 e8 12 be
       -1.3914486 0.8106038 -0.4761428 -0.1434648
000060 3f bb 21 3f 0a a2 16 3e 45 06 89 3d 1a 48 2b 3f
       0.6317634 0.1471025 0.06690649 0.66906893
000070 93 b7 dc bd db 64 51 bf 45 5b b5 bf 66 8d 77 3f
       -0.107772015 -0.8179452 -1.4168478 0.9670013
000080 10 0d 9d bf 7e cd 02 3f 20 bb 82 bf d4 fb 17 bf
       -1.2269611 0.51094806 -1.0213356 -0.59368634
000090 ea d4 05 3f bd cf 6e 3e a0 f8 24 be 61 a5 52 be
       0.52278006 0.23321433 -0.16110468 -0.205709
0000a0 e1 d9 e1 bf d1 e8 fc bf fe 88 aa c0 e7 72 8a bf
       -1.7644616 -1.975855 -5.3292227 -1.0816315
0000b0 09 a8 e9 3e 60 30 b6 3f 56 81 46 3f 5b 23 d5 3d
       0.45636013 1.4233513 0.775411 0.10407134
0000c0 94 62 79 bd 50 e9 07 bf b1 84 0e 3f 69 64 86 3e
       -0.060885027 -0.5309038 0.5567122 0.26248482
0000d0 b7 d3 f1 3e c0 bb 96 3e 76 fd 31 3f a2 15 2c 3e
       0.47231838 0.29440117 0.69527376 0.16805127
0000e0 db 4d 8d be 72 cb 4e 3f 58 16 cd 3e df 16 95 3e
       -0.27598462 0.8077918 0.4005611 0.29119012
0000f0 c9 87 b5 bf 6b d6 46 3f 69 f9 b8 3f 3c 8f 44 3e
       -1.4182063 0.77670926 1.4451114 0.19195265
000100 ef 95 bd 3e 53 ab 9a bd 0b 22 e6 3e 3e df 89 3e
       0.37028453 -0.07552209 0.44947848 0.26928133
000110 75 77 83 bf 15 f6 b0 3d cf f2 5e bc 2f c6 ce be
       -1.027083 0.086406864 -0.013607695 -0.40385577
000120 1a 8c a0 3e c8 86 36 bf 3f 24 7e be f4 8c f9 3d
       0.3135689 -0.7129941 -0.24818514 0.12185088
000130 d9 7d 11 bf 11 13 09 3e 21 04 99 bf cf d9 9a bf
       -0.56832653 0.1338618 -1.1954385 -1.209772
000140 ac a5 48 3f d9 e3 2a bc e6 97 19 3f 39 9a 39 3f
       0.78377795 -0.0104303 0.59997404 0.7250095
000150 cf 07 cc be 63 23 27 3f 8e 02 9b be 19 94 be bf
       -0.39849707 0.6528837 -0.30275387 -1.4888946
000160 ca 2c 1c 3d b0 e0 9f be 32 38 d4 3e 46 15 c4 3e
       0.03812865 -0.3122611 0.41449124 0.3829748
000170 a2 36 60 bf 4d 20 93 bd 89 d2 88 be 12 b0 23 bf
       -0.87583363 -0.07183895 -0.26723126 -0.63940537
000180 5b 6b f7 3d 88 6e 83 be 62 b0 6c bf 39 05 11 be
       0.12081023 -0.25670266 -0.9245664 -0.14162149
000190 1e 11 eb be 75 d7 e1 3d 61 df 98 3e 8f 21 d4 be
       -0.45911497 0.11027423 0.29857925 -0.41431853
0001a0 b3 13 67 40 ba fe 96 3f 78 9f 14 40 d3 91 ff c0
       3.6105773 1.1796486 2.3222332 -7.986551
0001b0 18 07 02 3e c4 56 c4 bd 0c 27 c4 3d 7b 2f 6e bf
       0.12698019 -0.09586862 0.0957776 -0.930412
0001c0 0c 9b ce 3e a2 cd 04 bf 19 ba ba be ee e7 f5 3d
       0.40352666 -0.5187627 -0.36470106 0.12007128
0001d0 e9 78 9b be d7 04 eb 3d 66 c0 9f be e3 88 12 3e
       -0.30365685 0.114755325 -0.31201476 0.1431003
0001e0 8d 33 8b be d1 33 fc 3e de 52 95 3f ad 5c a3 3e
       -0.27187768 0.49258283 1.1665914 0.31906644
0001f0 48 ab 91 3d 6a ec d5 3d 8e 1c 21 bf 80 82 06 bf
       0.071127474 0.10445483 -0.62934196 -0.5254288

layers.2.h_bias f4 [4]
000000 62 d1 c4 3e 34 cf 2e 3d 01 85 29 3e a5 2e 0b bd
       0.38440996 0.042678073 0.16554643 -0.03398003

dense.weight f4 [1, 4]
000000 23 34 fd 3e 80 87 0f bf e3 53 b4 3e ea f8 89 3e
       0.4945384 -0.5606613 0.3522025 0.2694772
