saved_model_w/logp.pth (torch_old, 21140 bytes, 7 tensors)

layers.0.weight f4 [4, 40, 16]
0	0x3eb04299	0.3442581
1	0x3e8be2c1	0.27321437
2	0xbe1277ba	-0.14303485
3	0x3e860de2	0.26182467
4	0x3f258ba3	0.64666194
5	0xbe69197d	-0.2276363
6	0x3ecef332	0.40419918
7	0xbea04032	-0.31298977
8	0x3ec222b1	0.37917092
9	0xbe0b183a	-0.1358346
10	0xbed035d7	-0.40666077
11	0xbe435b9c	-0.19077915
12	0x3e0a0d00	0.13481522
13	0x3e9553ea	0.29165584
14	0xbbd4b8b8	-0.0064917468
15	0x3e637eb3	0.222163
16	0x3df07d84	0.1174269
17	0x3aebf580	0.0018002242
18	0x3e050d85	0.12993439
19	0xbb15d5c0	-0.0022863
20	0xbda326c8	-0.07966381
21	0xbd5bc20c	-0.053651854
22	0x3d8004d0	0.06250918
23	0xbaa06000	-0.0012235641
24	0x3df7c9ba	0.12099023
25	0x3b9d3220	0.004797235
26	0x3de1ea88	0.110310614
27	0xbd948fec	-0.072540134
28	0xbcc29104	-0.02375079
29	0xbd0e68a4	-0.03476776
30	0xbe038f32	-0.12847593
31	0x3d8e0806	0.06935124
32	0xbd93ca10	-0.07216275
33	0xbd04385a	-0.032280304
34	0xbd99baa8	-0.07506305
35	0xbdbd7100	-0.09250069
36	0x3ddc3e58	0.107540786
37	0x3de73384	0.11289123
38	0xbdf1ed60	-0.11812854
39	0xbd5a5b74	-0.053309873
40	0xbde49e97	-0.11163061
41	0xbce4c9e4	-0.0279283
42	0x3cc76b90	0.024343282
43	0x3e032e85	0.12810715
44	0xbd9ce457	-0.0766074
45	0x3dac44a4	0.0841153
46	0x3c24cb00	0.010058165
47	0xbabfa480	-0.0014621168
48	0xbd872703	-0.06599238
49	0xbdfab133	-0.12240829
50	0x3de3b6f8	0.11118883
51	0x3da27460	0.07932353
52	0xbd87edb4	-0.06637135
53	0x3dedcfbe	0.11611889
54	0xbcd932c4	-0.026513465
55	0xba5ee800	-0.00085031986
56	0x3ddb2068	0.106995404
57	0xbdd8e0d8	-0.105897605
58	0x3d6e0d04	0.05811788
59	0x3dfe51aa	0.1241792
60	0xbd677cf0	-0.056515634
61	0xbda90878	-0.082535684
62	0xbda43fa0	-0.08019948
63	0xbdf4104f	-0.11917173
64	0xbe032094	-0.12805396
65	0xbd288c84	-0.04114963
66	0x3d8fc4bc	0.07019946
67	0x3cf8ed20	0.030386508
68	0xbd096934	-0.033547595
69	0xbd683d06	-0.05669882
70	0xbdd92c70	-0.10604179
71	0xbc083028	-0.008312263
72	0xbd7064ee	-0.058690004
73	0xbda3d4d0	-0.07999575
74	0xbd93a042	-0.07208301
75	0xbe04ead8	-0.12980211
76	0xbc9464dc	-0.0181145
77	0xbdda8850	-0.10670531
78	0xbd8562df	-0.06512999
79	0x3ccefc18	0.025266692
80	0xbdc638a2	-0.096787706
81	0x3b622640	0.0034507662
82	0xbdf53892	-0.119736806
83	0x3b337b80	0.0027386844
84	0xbd137dd6	-0.03600868
85	0xbc1f1548	-0.009709664
86	0xbdd9e74f	-0.10639822
87	0x3da10314	0.07861915
88	0xbd060534	-0.032719806
89	0x3d024c0c	0.031810805
90	0xbd3007e8	-0.04297629
91	0x3c2c6ea0	0.010524422
92	0x3d5c46f8	0.05377862
93	0x3d88f678	0.06687635
94	0xbded92e6	-0.11600284
95	0xbd94b02c	-0.072601646
96	0x3bc688a0	0.0060587674
97	0xbda88c10	-0.0822984
98	0x3d9178fc	0.07103154
99	0xbd4e15b8	-0.05031368
100	0x3dbe68b6	0.09297316
101	0xbd54ba14	-0.05193527
102	0x3dd1d504	0.10245708
103	0x3d06ef5c	0.032943115
104	0x3dffb666	0.124859616
105	0x3d40ec64	0.04710044
106	0x3d5d3578	0.05400607
107	0xbc550c10	-0.013003364
108	0xbdfa62be	-0.12225865
109	0xbdc251b7	-0.09488242
110	0x3d013bd8	0.031551212
111	0xbdb59360	-0.08866
112	0xbdcaa170	-0.09894073
113	0xbdac2036	-0.08404581
114	0xbd9df672	-0.07713021
115	0x3da44cce	0.08022462
116	0xbd8ab8d6	-0.06773536
117	0x3cd58a80	0.026067019
118	0x3cb34a58	0.021886036
119	0x3d1712a4	0.03688301
120	0xbdec764c	-0.11546001
121	0x3d289a00	0.04116249
122	0x3dcecb9c	0.10097429
123	0x3de74962	0.112932935
124	0xbd015e9c	-0.031584367
125	0x3d77bdbc	0.06048368
126	0x3de5dbb6	0.11223547
127	0x3da7d6fe	0.081953034
128	0x3e2c1522	0.16804937
129	0xbe97bcd7	-0.2963626
130	0xbe80b4a7	-0.25137827
131	0xbe135e46	-0.14391431
132	0xbeb3fd70	-0.35154295
133	0xbec5a6f2	-0.38603932
134	0xbe86ceb8	-0.2632959
135	0x3e853daf	0.26023623
136	0xbb2491de	-0.0025111358
137	0xbd2fbe8e	-0.042906336
138	0x3e4b961d	0.19881482
139	0x3e6eb3d8	0.23310792
140	0xbc2ea54f	-0.01065953
141	0xbb23f66e	-0.002501871
142	0xbb66e370	-0.0035230778
143	0xbf776e8c	-0.96653056
144	0x3d2c0114	0.041993216
145	0x3d6004e0	0.05469215
146	0x3dc01300	0.09378624
147	0xbde7a851	-0.11311401
148	0xbddfd8a1	-0.109299906
149	0x3ddd471e	0.1080458
150	0x3ceb07e0	0.028690279
151	0xbd8fdc06	-0.07024388
152	0x3df6a48e	0.12043105
153	0xbd650ad8	-0.055918545
154	0x3d0d4fc8	0.034499913
155	0x3de21098	0.11038321
156	0xbdf34886	-0.11879067
157	0xbde777b8	-0.113021314
158	0xbd72a75a	-0.05924163
159	0x3c9f88e0	0.019474447
160	0x3db43650	0.08799422
161	0x3df45576	0.11930363
162	0xbd4590f8	-0.048233956
163	0x3d95f71e	0.073225245
164	0x3be391e0	0.00694488
165	0xbd002e64	-0.03129424
166	0x3def0bd2	0.116721764
167	0xbd385ec2	-0.045012243
168	0xbdf266d4	-0.11836019
169	0x3cc95ce0	0.024580419
170	0xbdb58d09	-0.08864791
171	0xbd9c91bb	-0.076449834
172	0xbd76bba2	-0.060237534
173	0x3d9c9c28	0.07646972
174	0x3cfe4810	0.031040221
175	0xbd0f9a2a	-0.03505913
176	0xbcf57380	-0.029962301
177	0x3d28976c	0.041160032
178	0x3a327a00	0.00068083405
179	0x3bb41540	0.0054956973
180	0xbc29dc70	-0.010367498
181	0x3adc4000	0.0016803741
182	0xbdb11262	-0.08646084
183	0x3d97621c	0.0739176
184	0x3da1242c	0.07868227
185	0xbd4817f8	-0.048850983
186	0xbd8e6d34	-0.069544226
187	0xbb910a00	-0.004426241
188	0xbce4c5b8	-0.02792631
189	0xbd61184c	-0.054954812
190	0x3d9432e8	0.07236272
191	0x3d78d57c	0.06075047
192	0xbf013a39	-0.50479466
193	0x3e400a20	0.18753862
194	0xbe7d83c7	-0.247573
195	0x3ed76599	0.420697
196	0xbb730d88	-0.0037086923
197	0x3ec3c787	0.38238165
198	0xbee4479c	-0.44585884
199	0x3dbd4552	0.092417374
200	0x3e3a7c07	0.18211375
201	0x3e011493	0.12605505
202	0xbed2553a	-0.41080648
203	0xbd947f90	-0.07250893
204	0x3f2002ea	0.62504447
205	0x3eb081fd	0.34474173
206	0x3e409448	0.18806565
207	0xbc9384d6	-0.018007677
208	0xbdf86790	-0.12129128
209	0xbdd975dc	-0.10618183
210	0xbdcb7094	-0.09933582
211	0xbcfb37e8	-0.030666307
212	0x3e0457ad	0.1292407
213	0xbdc6ef96	-0.09713666
214	0xbd80b9d8	-0.06285447
215	0x3d7aebfc	0.06126021
216	0x3dfd5b0a	0.1237088
217	0x3dd1b924	0.10240391
218	0x3ba3d420	0.0049996525
219	0xbdd7258f	-0.105052106
220	0x3d8fef4c	0.07028064
221	0xbd9bdcdc	-0.07610485
222	0xbbb96a40	-0.005658418
223	0xbd59cfca	-0.05317668
224	0xbda8a394	-0.08234325
225	0x3c43e090	0.011955395
226	0x3d86fb32	0.065908805
227	0xbde338ed	-0.11094842
228	0xbd1c123c	-0.038103327
229	0xbca75a84	-0.020428903
230	0x3df57de6	0.11986904
231	0x3d4fd5b8	0.050740927
232	0xbd750dd6	-0.059827648
233	0x3dbe4cfc	0.09292027
234	0xbd793efe	-0.06085109
235	0xbdd4f74b	-0.1039873
236	0x3dec6e5c	0.11544487
237	0x3cc91208	0.02454473
238	0x3d98247a	0.07428832
239	0x3dd0d77a	0.10197349
240	0xbce1bde8	-0.027556375
241	0xbd9192a6	-0.07108049
242	0x3e029349	0.12751497
243	0xbd25459a	-0.04034958
244	0xbda6478b	-0.081191145
245	0x3b1b71c0	0.0023718923
246	0x3d0ab05c	0.033859596
247	0xbd3a8656	-0.04553827
248	0xbdd0c92a	-0.10194619
249	0xbd8d3664	-0.0689514
250	0x3c467d60	0.012114853
251	0xbd030e24	-0.031995907
252	0x3cb583b8	0.022157535
253	0xbd3bfc84	-0.045895115
254	0xbcffbb08	-0.031217113
255	0x3dee8ca4	0.11647919

layers.1.weight f4 [4, 16, 16]
0	0x3d66b83a	0.056328036
1	0x3ed94767	0.42437288
2	0x3e2e5605	0.17025001
3	0x3e181578	0.1485194
4	0xbe2a69b1	-0.1664188
5	0x3ec4cffd	0.38439932
6	0x3e17df43	0.14831261
7	0xbce31d1e	-0.027723845
8	0x3e8481da	0.2588032
9	0xbf15f047	-0.5856976
10	0x3e3c46c9	0.18386377
11	0x3e7cd498	0.24690473
12	0x3eb485ad	0.35258237
13	0x3e5784d3	0.21046762
14	0x3d0b52d0	0.034014523
15	0xbd400444	-0.046879068
16	0xbf034780	-0.51280975
17	0xbf1d8251	-0.6152697
18	0xbf9e1630	-1.2350521
19	0x3e2c9efb	0.16857521
20	0x3f2f67dd	0.6851786
21	0xbee1012c	-0.43946207
22	0xbd869051	-0.06570495
23	0x3ea14f21	0.31505683
24	0xbe6eaba2	-0.2330766
25	0x3f116c1e	0.568056
26	0x3e8bab1c	0.27278984
27	0xbea75784	-0.32683957
28	0xbd06166e	-0.032736234
29	0x3f0da67b	0.55332154
30	0xbd9038a9	-0.07042057
31	0xbfc4c9c7	-1.5374078
32	0xbf16ec7e	-0.5895461
33	0xbf16ef92	-0.58959305
34	0x3e79ef2d	0.24407645
35	0xbe04908c	-0.12945765
36	0x3ea72b71	0.3265033
37	0xbe004743	-0.12527184
38	0x3ec01ace	0.3752045
39	0x3d7b87b9	0.061408732
40	0xbfa5d7ae	-1.2956445
41	0x3f122bfb	0.5709836
42	0xbf59b8f4	-0.8504784
43	0x3e61a8f3	0.22037105
44	0xbe842c92	-0.25815254
45	0x3f14dc6f	0.58148855
46	0x3e36cf28	0.17852461
47	0xbf9e8cdd	-1.2386738
48	0x3e670b6b	0.2256295
49	0x3e4d4830	0.20047069
50	0x3e2cecc1	0.1688719
51	0xbe82e41c	-0.2556466
52	0xbf326e02	-0.6969911
53	0xbea369bc	-0.31916606
54	0x3de718b4	0.112840086
55	0xbeaffe52	-0.34373719
56	0xbf00623d	-0.501499
57	0x3dbcdee5	0.09222201
58	0x3ee9902b	0.45617804
59	0xbd9bda5a	-0.07610007
60	0xbf076d78	-0.5290141
61	0x3d14735d	0.03624283
62	0xbe06118a	-0.13092628
63	0xbdfa3747	-0.122175746
64	0x3e1dc015	0.15405305
65	0xbf9e30c1	-1.2358629
66	0xbe005a24	-0.12534386
67	0x3f281e55	0.65671283
68	0x3d6567e1	0.05600727
69	0x3ec96552	0.39335114
70	0x3f0198de	0.5062388
71	0xbedd17f9	-0.43182352
72	0xbdce1734	-0.100630194
73	0x3e93ab99	0.28841856
74	0xbeb038d9	-0.3441837
75	0xbe5ae80a	-0.21377578
76	0xbe43865b	-0.19094221
77	0x3ef39c17	0.47580025
78	0xbf9830d5	-1.1889902
79	0xbe8c5659	-0.27409628
80	0x3eddc2d4	0.43312705
81	0xbea12723	-0.3147517
82	0x3f99ed6a	1.2025578
83	0x3e2e35cb	0.17012708
84	0x3e6090a5	0.21930178
85	0xbeae6b44	-0.34066212
86	0x3bf635fc	0.0075137597
87	0xbc534a90	-0.012896195
88	0xbfba5542	-1.4557269
89	0xbbb0b541	-0.005392701
90	0xbf41bf21	-0.75682265
91	0xbe73d38c	-0.23811167
92	0x3de44836	0.11146586
93	0xbec9dc13	-0.39425716
94	0xbedf5498	-0.43619227
95	0x3eca8c87	0.3956034
96	0x3e199b38	0.15000618
97	0x3d47f2ba	0.048815466
98	0x3f466606	0.77499425
99	0xbf3c0c5f	-0.73456377
100	0x3ea4382c	0.32074106
101	0x3ea80ece	0.32823795
102	0xbd5ea2d3	-0.0543545
103	0x3dae0674	0.084973246
104	0xc0de0b94	-6.9389133
105	0x3f05a477	0.5220408
106	0x3e5627c6	0.2091361
107	0x3e84ad37	0.25913402
108	0x3eafd3d4	0.343413
109	0x3f12aed4	0.57298017
110	0x3e301de4	0.17198902
111	0x3e4676bf	0.19381236
112	0x3ea1f62c	0.31633127
113	0xbedf874a	-0.43657905
114	0x3e66579f	0.22494362
115	0xbe2bdd6e	-0.16783687
116	0x3eec719f	0.46180436
117	0x3d297752	0.04137356
118	0x3d24bb2e	0.04021757
119	0x3edf0ae3	0.43562993
120	0xbd4617f2	-0.04836268
121	0xbdf61d70	-0.120173335
122	0x3e3c0806	0.18362436
123	0x3ce80ebc	0.028327338
124	0x3def3f9d	0.11682055
125	0x3eb7800a	0.35839874
126	0x3e026fc0	0.12737942
127	0xbd9bc3ac	-0.07605681
128	0xbdf4fa75	-0.119618334
129	0xbe574294	-0.21021491
130	0xbf38fffa	-0.7226559
131	0x3da9d6bc	0.082929105
132	0xbf3252c4	-0.6965754
133	0xbd8ac046	-0.067749545
134	0x3c9a753d	0.018854732
135	0xbee4015b	-0.44532284
136	0xbf1c746d	-0.6111515
137	0x3e82b53e	0.25528902
138	0x3e8c0b49	0.2735236
139	0x3cdc755b	0.026911428
140	0x3dff762b	0.124737106
141	0xbec083d6	-0.37600583
142	0x3f2203de	0.6328715
143	0x3f590215	0.847688
144	0xbe1fe876	-0.1561602
145	0xbb009778	-0.0019621532
146	0xbec9bef1	-0.3940349
147	0xbecfb434	-0.40567172
148	0xbf115faa	-0.56786597
149	0x3ea31f69	0.31859902
150	0x3e48ed84	0.19621855
151	0x3ec2b95c	0.38032043
152	0xbf361936	-0.7113222
153	0xbda9f405	-0.08298496
154	0xbce426bf	-0.027850507
155	0x3e0c72f2	0.13715723
156	0x3e66dfa4	0.2254625
157	0xbe656795	-0.22402795
158	0xbc8ff2c6	-0.017571818
159	0x3edffab2	0.43745953
160	0x3bfdf482	0.007750095
161	0xbe885cbe	-0.26633257
162	0x3e0ca2bf	0.13733958
163	0xbe78a9ff	-0.24283598
164	0xbc80cce5	-0.015722701
165	0x3df03736	0.11729281
166	0x3e968cc7	0.2940428
167	0xbd944e21	-0.072414644
168	0x3f0f17ab	0.5589549
169	0x3eb966a8	0.36211133
170	0x3e145946	0.1448718
171	0xbf19b91e	-0.6004809
172	0xbd9a6fd6	-0.07540862
173	0xbfe22c83	-1.7669834
174	0xbdfd7300	-0.1237545
175	0x3c2376df	0.009977072
176	0x3d0dfd96	0.034665667
177	0xbf3040e8	-0.6884904
178	0xbc1e8ffa	-0.009677881
179	0xbebf1559	-0.37320974
180	0x3df12b81	0.11775876
181	0x3d473837	0.048637595
182	0x3eb97bca	0.36227256
183	0x3ef8e7bd	0.48614302
184	0xbdaa3db9	-0.08312554
185	0xbe737394	-0.23774558
186	0xbd872c74	-0.06600276
187	0x3d331240	0.043718576
188	0x3e65dee9	0.22448315
189	0xbefd9849	-0.49530247
190	0x3ed651a5	0.41859165
191	0x3e85592c	0.26044595
192	0xbe8835c0	-0.26603508
193	0xbe827787	-0.25481817
194	0xbefbefe5	-0.49206463
195	0x3eb68f80	0.35656357
196	0xbdf4f890	-0.11961472
197	0xbb8b5266	-0.004251766
198	0xbe149e29	-0.14513458
199	0xbf136637	-0.5757784
200	0x3ebddd83	0.37083063
201	0x3d9dd38a	0.077063635
202	0x3ecb87f8	0.39752173
203	0x3ec39f28	0.38207364
204	0xbc85ee91	-0.016349109
205	0xbdb4940c	-0.088173
206	0x3efd8255	0.49513498
207	0xbdbfccdd	-0.093652464
208	0xbd87f599	-0.06638641
209	0x3c6bb41a	0.014386201
210	0xbf99e5e2	-1.202328
211	0x3d376311	0.04477221
212	0xbceba13a	-0.028763402
213	0x3da86931	0.08223189
214	0x3d758d1c	0.059949026
215	0xbe4b96c6	-0.19881734
216	0x3e861462	0.26187426
217	0x3e86315d	0.26209536
218	0x3f1069ef	0.5641164
219	0x3eb6706b	0.35632643
220	0xbd9fc708	-0.07801634
221	0x3e34b67f	0.17647742
222	0x3ed272e6	0.41103286
223	0xbf20096b	-0.6251437
224	0x3e4d17f9	0.20028676
225	0xbe173824	-0.1476751
226	0xbf0b2e45	-0.54367477
227	0x3e738f9e	0.23785254
228	0x3f1e4aab	0.61832684
229	0xbed09a6a	-0.4074281
230	0x3cce52a3	0.025185889
231	0xbea3cd95	-0.31992784
232	0xbe040934	-0.12894136
233	0x3ef57ba1	0.47945884
234	0x3e840a03	0.25788888
235	0xbdb47cd9	-0.08812875
236	0xbd7372da	-0.059435703
237	0x3e102b7b	0.14079086
238	0x3e468a7e	0.19388768
239	0xbcfb56bc	-0.030681007
240	0xbec5f35e	-0.38662237
241	0xbd3a74c6	-0.04552152
242	0x3fafc0b4	1.3730683
243	0x3efafcc0	0.49020958
244	0x3e0e0d9a	0.13872376
245	0x3e90d940	0.2829075
246	0x3f62d3f3	0.8860466
247	0xbba6959a	-0.005083752
248	0x3f4346f8	0.76280165
249	0xbe9ae657	-0.3025386
250	0xbfae5e87	-1.3622597
251	0xbdbffdab	-0.09374555
252	0xbe8aa4b6	-0.2707879
253	0x3f19b079	0.600349
254	0xbfa468bc	-1.2844462
255	0x3fa606ee	1.2970865

layers.2.weight f4 [4, 16, 16]
0	0xbe591555	-0.21199544
1	0xbf33e772	-0.7027503
2	0xbfb32653	-1.3996071
3	0x3d6ff81f	0.058586236
4	0x3e70917d	0.23493
5	0xbd874cbf	-0.06606435
6	0xbe00931c	-0.12556118
7	0x3bac2582	0.0052534947
8	0x3df51e40	0.1196866
9	0xbf446c45	-0.76727706
10	0xbf0c1576	-0.54720247
11	0x3e52f4fc	0.20601267
12	0xbd84b367	-0.06479531
13	0xbf106d02	-0.5641633
14	0x3c46b2e4	0.012127612
15	0x3e4f9e71	0.20275284
16	0x3e62de9f	0.22155236
17	0x3ceddc0e	0.029035594
18	0xc0131cba	-2.2986283
19	0xbf002c40	-0.5006752
20	0x3f8df5e4	1.1090665
21	0xbf1b9684	-0.60776544
22	0xbe32b040	-0.17450047
23	0x3f3ef9a2	0.7459966
24	0xbecbfc55	-0.39840952
25	0xbfb1f38c	-1.390245
26	0xbf0bdf0e	-0.5463723
27	0xbf7b7727	-0.9822869
28	0xbf17b9c8	-0.59267855
29	0xbfbf155f	-1.4928397
30	0x3f45fa9c	0.77335525
31	0x3f5d1f17	0.86375564
32	0x3f9ab94b	1.2087797
33	0xbe3454a0	-0.17610407
34	0x3f0d3256	0.5515493
35	0xbe2b52b7	-0.16730772
36	0xbf578261	-0.8418332
37	0xbee42571	-0.44559816
38	0xbe99782b	-0.29974493
39	0x3f25379c	0.6453798
40	0x3eb78080	0.35840225
41	0x3e0f04be	0.13966653
42	0x3f04618d	0.5171135
43	0x3e443143	0.19159417
44	0x3e082745	0.1329623
45	0x3e41855e	0.18898532
46	0x3ed7a074	0.42114604
47	0xbec8269b	-0.39091954
48	0xbf240a5c	-0.6407831
49	0x3ebf27e0	0.3733511
50	0xbd8106c1	-0.06300116
51	0xbe88559c	-0.26627815
52	0xbed1168b	-0.4083751
53	0x3e2c73dc	0.16841072
54	0x3e6217dd	0.22079416
55	0xbf2f80f8	-0.68556166
56	0x3d16cf35	0.0368187
57	0x3d5337a9	0.051566754
58	0xbe9fbe5b	-0.31199917
59	0xbf32abb1	-0.6979323
60	0x3e391c06	0.18077096
61	0xbec028ed	-0.37531224
62	0x3eb2b03c	0.3490008
63	0xbdb7bd2d	-0.08971629
64	0xbe834ec8	-0.25646043
65	0xbe6fc092	-0.23413303
66	0xbf61de2e	-0.88229644
67	0x3da2b869	0.0794533
68	0x3dac661a	0.08417912
69	0x3e29306c	0.16522378
70	0x3e170492	0.14747837
71	0x3e37fbc1	0.1796713
72	0x3e3d39f9	0.18479146
73	0xbdbdffb1	-0.09277285
74	0x3e01b1f9	0.12665547
75	0xbdf92edf	-0.12167143
76	0xbe0a796a	-0.13522878
77	0x3f900a23	1.1253093
78	0xbd1d8fbd	-0.038467158
79	0x3f17174f	0.5901994
80	0xbf22fbdb	-0.6366555
81	0xbe222910	-0.15835977
82	0xbfa8242c	-1.3136039
83	0x3e8d4ef2	0.27599293
84	0xbd2c4851	-0.042061154
85	0xbe8afed7	-0.27147552
86	0x3d92cd93	0.071681164
87	0xbec68784	-0.38775265
88	0xbfd27cec	-1.6444373
89	0xbced4663	-0.028964227
90	0xbef51986	-0.47871035
91	0x3f046f2b	0.5173213
92	0x3e82b4c1	0.2552853
93	0xbea8de61	-0.32982162
94	0xbd4a80ff	-0.049439427
95	0x3d8d54be	0.06900929
96	0x3c9b2192	0.018936906
97	0x3eaff295	0.34364763
98	0xbddf7cd0	-0.10912478
99	0x3e473de0	0.19457197
100	0xbe722dbe	-0.23650262
101	0x3e67fd01	0.22655107
102	0xbe57c7f8	-0.21072376
103	0xbe9aacd1	-0.30209973
104	0xbe801d32	-0.25022274
105	0x3e7d43d2	0.24732903
106	0x3ebaccf2	0.36484486
107	0xbe2a4a10	-0.16629815
108	0x3e6fc864	0.23416287
109	0xbe255187	-0.16144381
110	0x3e7ff837	0.2499703
111	0x3c8cc6b1	0.017184587
112	0x3e24303b	0.16034023
113	0xbc5d1e0d	-0.013495934
114	0x3f1015b6	0.5628313
115	0x3d58d7e4	0.052940264
116	0x3ea38611	0.31938222
117	0xbd990035	-0.074707426
118	0x3dfefb58	0.12450284
119	0xbfa8472c	-1.314672
120	0xbe9ca37d	-0.30593482
121	0x3e100437	0.14064108
122	0xbec0f1a5	-0.3768436
123	0xbe8de57f	-0.27714154
124	0x3e190c9d	0.14946218
125	0x3f39fede	0.7265452
126	0xbc30df26	-0.01079539
127	0xbec90a97	-0.39265892
128	0xbe2c9467	-0.16853486
129	0xbeea4423	-0.4575511
130	0x3e153cab	0.14573924
131	0x3d4c2d47	0.049847867
132	0x3d577a23	0.052606713
133	0x3e258043	0.16162209
134	0xbd5ae5a2	-0.05344165
135	0xbd90625a	-0.07050009
136	0xbd24336b	-0.0400881
137	0xbde3a3d3	-0.11115231
138	0xbdd234cd	-0.10263977
139	0x3ec6f7e1	0.38860992
140	0xbe9cdfae	-0.30639404
141	0xc1282e84	-10.511356
142	0x3e21e3f2	0.1580961
143	0x3e6857c7	0.22689734
144	0x3f1deb09	0.6168676
145	0xbd63ed6a	-0.055646338
146	0x3df497e4	0.11943033
147	0x3de78758	0.11305112
148	0x3eb8655f	0.3601484
149	0x3e3d2800	0.1847229
150	0xbedff06a	-0.4373811
151	0x3de08803	0.10963442
152	0x3e8b0f65	0.27160183
153	0x3b649bdc	0.0034882938
154	0xbdd59859	-0.10429449
155	0xbf82f040	-1.0229568
156	0xbc1c2432	-0.009530114
157	0xbf3c0fcb	-0.734616
158	0xbe0149f7	-0.12625872
159	0x3e5f1d26	0.21788463
160	0x3f1a8adf	0.6036815
161	0x3d961f6a	0.073302105
162	0x3e445f77	0.19177042
163	0xbd96e023	-0.073669694
164	0xbd86cff6	-0.06582634
165	0x3e3424ca	0.17592159
166	0xbd8fefac	-0.07028136
167	0x3e417bec	0.18894929
168	0x3de9eca8	0.11422092
169	0x3d6d1a26	0.057886265
170	0x3ec31319	0.38100508
171	0xbe3c3ccf	-0.18382572
172	0xbe8dd5b7	-0.27702114
173	0xbfeb7795	-1.8395869
174	0xbe9ba933	-0.30402526
175	0xbe2da0d7	-0.16955887
176	0x3ef267d3	0.47344837
177	0xbf560624	-0.8360312
178	0x3e71d43a	0.23616114
179	0xbf54f991	-0.8319331
180	0x3dcf644b	0.10126551
181	0xbdaba0d8	-0.08380288
182	0xbd01ebf6	-0.03171917
183	0xbe64462c	-0.22292393
184	0xbec0d5b1	-0.37663034
185	0xbece73bd	-0.40322676
186	0x3e0112f2	0.12604883
187	0x3ea723b5	0.3264443
188	0xbd859bfa	-0.06523891
189	0xbf6d8034	-0.9277375
190	0xbf9d066e	-1.2267587
191	0xbe92dbea	-0.28683406
192	0xbc2629cd	-0.010141802
193	0xbf543799	-0.82897335
194	0xbfb3239d	-1.3995243
195	0x3e45e1eb	0.19324462
196	0x3dd2bdeb	0.1029013
197	0xbea9097e	-0.33015054
198	0x3e3e366a	0.18575445
199	0xbe02f09e	-0.127871
200	0xbecc935c	-0.39956176
201	0xbf86331b	-1.0484346
202	0xbf19261c	-0.59823775
203	0xbdf70ed8	-0.12063378
204	0x3e5a207f	0.21301459
205	0x3e777765	0.24166639
206	0xbe996cc9	-0.2996581
207	0x3d296ecf	0.04136544
208	0xbf86742c	-1.0504203
209	0xbecf1295	-0.40443864
210	0xc00010d1	-2.0010264
211	0xbeeda274	-0.46413004
212	0x3e5ab206	0.21356973
213	0xbe201fe7	-0.1563717
214	0x3f55e2e7	0.8354935
215	0xbf1944db	-0.5987069
216	0x3e9bde9d	0.30443278
217	0x3ee587ec	0.44830263
218	0xbf2619c6	-0.6488308
219	0x3f744d5b	0.95430535
220	0xbe375f8c	-0.17907542
221	0xbe9bdd12	-0.304421
222	0xbb9ddf6a	-0.004817893
223	0x3f5aabac	0.854182
224	0xbe121023	-0.14263968
225	0xbf1fd094	-0.6242764
226	0x3ee21438	0.4415605
227	0x3ecc36cd	0.3988556
228	0x3e91bbb5	0.28463522
229	0x3df1af59	0.11801023
230	0x3e4462c9	0.19178309
231	0xbf1cabb4	-0.611995
232	0xbedeebec	-0.4353937
233	0x3e1d17a0	0.15341043
234	0x3d1f7652	0.0389312
235	0x3e8d7ac5	0.27632728
236	0xbea32f76	-0.31872147
237	0xbf9774c9	-1.1832515
238	0xbe73d12d	-0.23810263
239	0xbddbbb4c	-0.107290834
240	0xbebf9409	-0.3741763
241	0x3eb0d609	0.34538296
242	0x3db2fba4	0.08739403
243	0x3e4de7ed	0.20108004
244	0xbe42fa38	-0.19040763
245	0x3e99ba45	0.30024925
246	0xbec0363e	-0.37541384
247	0xbebfb42e	-0.37442154
248	0x3f04e58d	0.51912767
249	0x3e993346	0.2992193
250	0xbefc9cc2	-0.49338347
251	0x3e91f51e	0.28507322
252	0x3f070c25	0.52752906
253	0x3f2a7802	0.6658937
254	0x3f28b08e	0.658944
255	0x3c254baa	0.0100888405

layers.3.weight f4 [4, 16, 4]
0	0x3da2aa55	0.079426445
1	0x3eec92c0	0.4620571
2	0x3dacccb3	0.08437481
3	0xbe815d5f	-0.2526655
4	0xbed0f5a4	-0.4081241
5	0xbefee8f9	-0.4978712
6	0xbec67942	-0.38764387
7	0x3e34a080	0.17639351
8	0xbf29f7a6	-0.66393507
9	0xbf4d94f6	-0.8030542
10	0x3eff012e	0.49805588
11	0xbf8d454d	-1.1036774
12	0xbe058942	-0.13040641
13	0xbe0edf85	-0.13952453
14	0xbe9e2d27	-0.30893824
15	0x3da4e44b	0.08051356
16	0x3c805cf2	0.01566932
17	0xbec35e96	-0.381581
18	0xbd388daf	-0.045056995
19	0x3ea6d971	0.3258777
20	0x3ed61a52	0.41816956
21	0x3e4fedc9	0.20305552
22	0x3c37fb68	0.0112293735
23	0x3c69bbc0	0.0142659545
24	0x3f183808	0.59460497
25	0x3e8218c1	0.2540951
26	0x3f052edd	0.5202463
27	0xbe541b39	-0.2071351
28	0xbf9d7f77	-1.2304524
29	0xbf5d7322	-0.86503804
30	0xbfb72b4c	-1.4310088
31	0x3fdc3fb2	1.7206938
32	0xbe92c7b0	-0.28667974
33	0xbf19c292	-0.60062516
34	0xbefb9a73	-0.49141273
35	0x3e53f5ab	0.20699184
36	0xbec2044b	-0.378939
37	0xbe5fc1e1	-0.21851303
38	0xbe859cba	-0.26096135
39	0x3e9b3a0e	0.3031773
40	0xbf1758e1	-0.59119993
41	0xbf136ab2	-0.5758468
42	0x3ea757b7	0.3268411
43	0x3e9fc180	0.31202316
44	0x3e3aaec6	0.18230733
45	0x3f860234	1.0469422
46	0xbee586f9	-0.44829538
47	0xbf212040	-0.62939835
48	0x3f119865	0.5687316
49	0x3ee5e39f	0.44900224
50	0x3efd4455	0.49466196
51	0xbeb43f9e	-0.35204786
52	0xbf4dfae6	-0.80460966
53	0x3da70204	0.08154681
54	0xbf60b21c	-0.87771773
55	0xbf181938	-0.5941348
56	0x3e666a31	0.22501446
57	0xbdf0f431	-0.11765326
58	0x3cf1057d	0.029421562
59	0xbef1e8be	-0.4724788
60	0x3d97f2dd	0.07419369
61	0x3e249b6d	0.16074915
62	0x3e9d9714	0.30779326
63	0xbea19070	-0.3155551
64	0x3e8bc7c8	0.27300858
65	0xbd4d2262	-0.050081618
66	0x3f3f17d9	0.74645764
67	0x3df024e0	0.11725783
68	0xbeddaf49	-0.43297794
69	0xbd59d6ba	-0.053183295
70	0xbe56f062	-0.20990136
71	0x3d96e023	0.073669694
72	0x3e3d5f11	0.18493296
73	0xbf1d26ce	-0.61387336
74	0xbd93c791	-0.07215799
75	0x3f44b59b	0.7683961
76	0xbfee2273	-1.8604263
77	0xbf9c9324	-1.2232404
78	0xbfba4c58	-1.4554548
79	0x3f68942c	0.9085109
80	0xbfa65f5e	-1.2997854
81	0xbf1f61fa	-0.62258875
82	0xbf71b47d	-0.9441603
83	0x3f228fd9	0.63500744
84	0x3db80e78	0.08987135
85	0xbef42931	-0.47687677
86	0xbe4d2a6d	-0.20035715
87	0x3ee9048a	0.45511276
88	0x4057571c	3.3646917
89	0x3f943ae9	1.1580478
90	0x4049061e	3.1409984
91	0x3d61ab55	0.055095036
92	0xbf12ef4a	-0.57396376
93	0xbe303d82	-0.17210963
94	0xbe24dea5	-0.16100557
95	0xbe989cb2	-0.2980705
96	0xbf3af6c7	-0.730328
97	0x3c30b563	0.010785433
98	0xbd36d924	-0.044640675
99	0x3dc54dbb	0.096339665
100	0xbc020343	-0.007935348
101	0xbf9988fb	-1.1994928
102	0x3faefaff	1.3670348
103	0x3f9ea736	1.2394779
104	0xbf146cb1	-0.5797835
105	0xbe4834a0	-0.19551325
106	0xbf1d5fd3	-0.6147434
107	0x3eba5a05	0.36396804
108	0x3f2a4c34	0.66522527
109	0x3ed370f6	0.4129712
110	0x3f6a9887	0.9163899
111	0xbf0bd98b	-0.5462882
112	0x3db957bf	0.09049939
113	0xbf1349d5	-0.57534534
114	0x3ea8b776	0.3295247
115	0xbed166c8	-0.40898728
116	0xbf58465b	-0.84482354
117	0xbe49fa51	-0.19724394
118	0xbe1e1f19	-0.1544155
119	0x3dcea57d	0.10090158
120	0x3f61d2ec	0.88212466
121	0x3f272206	0.6528629
122	0x3f0866d3	0.532819
123	0xbeafd8a2	-0.34344965
124	0xbf7943a1	-0.9736882
125	0xbef475c3	-0.47746095
126	0xbf8860df	-1.0654563
127	0x3f05febc	0.5234182
128	0xbea6dd66	-0.3259079
129	0xbf15343a	-0.58282816
130	0xbdeb945c	-0.11502907
131	0x3f046b68	0.5172639
132	0xbeff5005	-0.49865738
133	0x3e327e44	0.17430979
134	0xbd234277	-0.039858308
135	0xbe8260ef	-0.2546458
136	0xbeb43489	-0.3519633
137	0xbefdfc1a	-0.496064
138	0x3dfd4b26	0.12367849
139	0x3ec8ebdf	0.39242455
140	0x3ed67c35	0.41891637
141	0xbf369912	-0.71327317
142	0xbb1c6d97	-0.0023869032
143	0x3f17f1e5	0.59353477
144	0x3f038c5b	0.5138604
145	0x3f16143a	0.58624613
146	0x3f043776	0.51647127
147	0xbf03bd3e	-0.51460636
148	0x3d65dc19	0.056118105
149	0x3f54da0d	0.8314522
150	0xbe52b115	-0.20575364
151	0xbf0d6f48	-0.55247927
152	0x3eefa71c	0.46807182
153	0x3e460cfa	0.19340888
154	0x3f34abf9	0.7057491
155	0x3f033117	0.5124678
156	0x3e4a99b9	0.19785203
157	0xbed50e0c	-0.4161228
158	0x3e43dcc5	0.19127186
159	0x3ec2cf74	0.380489
160	0x3e9e2616	0.30888432
161	0xbf063036	-0.52417314
162	0x3f56596c	0.83730197
163	0x3fa376bc	1.277061
164	0xbf018ad9	-0.5060249
165	0xbda8f374	-0.0824956
166	0xbda4785b	-0.080307685
167	0xbdf01ea4	-0.11724594
168	0x3e0beb7e	0.13664052
169	0x3e590bd0	0.21195912
170	0xbd93cd0d	-0.07216845
171	0xbe8b4df5	-0.27207914
172	0x3f35eade	0.71061504
173	0xbe72e1a7	-0.23718892
174	0x3f01baba	0.5067555
175	0x3f361951	0.7113238
176	0x3fa4d6cc	1.2878051
177	0x3ea6bd3d	0.32566252
178	0x3f7ee48e	0.99567497
179	0xbcca8031	-0.02471933
180	0xbe204051	-0.15649535
181	0x3dcf6c4b	0.10128077
182	0x3d2d5cdf	0.042324897
183	0xbed35276	-0.4127385
184	0x3e493d78	0.19652355
185	0xbf6352ef	-0.8879842
186	0x3e090bf8	0.13383472
187	0x3f5cb133	0.86207885
188	0x3e7978f6	0.24362549
189	0xbf4675cb	-0.7752349
190	0xbeadfc7e	-0.339817
191	0x3f5cb9fd	0.86221296
192	0xbf28618f	-0.6577386
193	0x3bff59e9	0.0077927005
194	0xbe994926	-0.2993862
195	0x3e4bb67d	0.19893833
196	0xbec6791d	-0.38764277
197	0x3e6f8410	0.23390222
198	0xbf19755b	-0.59944695
199	0xbdb90cfd	-0.090356804
200	0xbe5adb1f	-0.2137265
201	0xbe5913ec	-0.21199006
202	0xbe127d88	-0.14305699
203	0x3de0647e	0.10956667
204	0xbef7b871	-0.48382905
205	0xbd76d70d	-0.060263682
206	0xbf39dcb1	-0.72602373
207	0x3f2b7ac8	0.66984224
208	0x3e873ccb	0.2641357
209	0xbe16ee26	-0.14739284
210	0x3e80d25c	0.2516049
211	0x3e7160e9	0.23572125
212	0xbe5b8969	-0.21439137
213	0xbe9f5c94	-0.3112532
214	0xbe83fc54	-0.2577845
215	0xbd5d5e27	-0.05404487
216	0x3d23e59d	0.0400139
217	0x3db63299	0.088963695
218	0xbcb58a7f	-0.022160767
219	0xbe7e1f26	-0.2481657
220	0xbe51d8da	-0.20492879
221	0x3e4d7289	0.20063223
222	0xbe53a2b2	-0.20667532
223	0xbe8a9eca	-0.2707427
224	0x3eb9c36c	0.36281908
225	0x3d26ff34	0.040770724
226	0x3dc30d68	0.095240414
227	0x3e98b906	0.29828662
228	0xbe15cb59	-0.14628352
229	0x3e38a0e8	0.18030131
230	0x3ea3a04e	0.3195824
231	0xbe897f98	-0.2685516
232	0xbf201b16	-0.6254133
233	0xbec6e2ea	-0.38844997
234	0x3e8f9047	0.28039762
235	0xbdf8a3e7	-0.12140637
236	0x3d0cef3b	0.034407835
237	0x3cda6f37	0.02666436
238	0xbee00934	-0.4375702
239	0xbe28122b	-0.1641318
240	0x3eaef7ab	0.3417333
241	0x3b0987e1	0.002098553
242	0x3da5b91e	0.08091949
243	0x3e3b6cf6	0.18303284
244	0xbf968d77	-1.1761922
245	0xbf7bbc65	-0.9833434
246	0xbf187a9f	-0.59562105
247	0x3f4d82de	0.8027781
248	0x3f7ae19d	0.9800051
249	0x3f89122d	1.0708672
250	0x3f4836d4	0.7820866
251	0xbfd5fd80	-1.6717987
252	0x3ead5d82	0.33860403
253	0x3ea29678	0.31755424
254	0xbb1f61b1	-0.0024319703
255	0x3e3614a7	0.17781316

attn.fc.weight f4 [4, 4]
0	0x3ec8277c	0.39092624
1	0x3df2851f	0.11841797
2	0x3d987fb3	0.07446232
3	0x3ebe072b	0.37114844
4	0x3e739c5b	0.23790114
5	0x3c95ec06	0.018301021
6	0xbdff4ee7	-0.12466221
7	0x3f08ab8e	0.5338677
8	0xbe94399f	-0.2895021
9	0xbdde9f78	-0.1087026
10	0xbe4ee505	-0.20204552
11	0x3e79fe53	0.24413423
12	0xbe6030a6	-0.21893558
13	0x3f6599c9	0.8968778
14	0xbeed8f73	-0.46398506
15	0xbe7b0b65	-0.24516065

attn.attn_fc.weight f4 [1, 8]
0	0x3f0f6096	0.56006753
1	0x3f81b1ed	1.0132424
2	0x3de3c01a	0.11120625
3	0xbf459409	-0.7717901
4	0x3f621b37	0.88322777
5	0x3f2c092c	0.67201495
6	0xbe952e42	-0.29136854
7	0x403b641b	2.927985

dense.weight f4 [1, 4]
0	0x3e3ce2c7	0.18445884
1	0xbdc6f19d	-0.09714053
2	0xbe3bd71e	-0.1834378
3	0x3d686e60	0.056745887
