saved_model_w/logp_lowd.pth (torch_old, 11932 bytes, 8 tensors)

layers.0.weight f4 [4, 40, 1]
0	0x3f832569	1.0245792
1	0xbd9131b4	-0.07089558
2	0xbc0ba4c0	-0.008523166
3	0xbdff0500	-0.124521255
4	0x3dcfd118	0.10147303
5	0x3f02d961	0.51112944
6	0xbba7b200	-0.005117655
7	0xbf00c3f2	-0.5029899
8	0x3e5522b5	0.20814021
9	0x3df95c48	0.121758044
10	0x3ebcd5f2	0.36881977
11	0x3ec52058	0.3850124
12	0xbe166e87	-0.146906
13	0xbeac189a	-0.3361252
14	0x3f0260e5	0.509291
15	0xbe15e14a	-0.14636722
16	0xbed81a8f	-0.42207763
17	0x3f00b625	0.5027793
18	0x3f12ae23	0.5729696
19	0xbeb6fdf2	-0.3574062
20	0xbd943446	-0.07236533
21	0xbeab5d48	-0.33469605
22	0x3a8ff2a5	0.0010982348
23	0x3dd58b58	0.10426968
24	0xbee20b22	-0.4414912
25	0xbe9f4412	-0.3110662
26	0xbe330393	-0.17481832
27	0x3e6fbfdc	0.23413032
28	0x3f126ddb	0.57198876
29	0x3e8a09a6	0.26960486
30	0x3ec7448e	0.3891949
31	0x3e928e6a	0.28624278
32	0x3f4545c5	0.77059585
33	0xbe6319d8	-0.22177827
34	0xbe8ffad0	-0.28121042
35	0xbee92bb7	-0.45541164
36	0x3d81a540	0.06330347
37	0x3e1e00b8	0.15429962
38	0x3eb9bcaf	0.36276767
39	0x3dd50890	0.10402024
40	0x3def1010	0.116729856
41	0x3ec84d08	0.3912127
42	0xbe9e2f77	-0.30895588
43	0x3baa9400	0.0052056313
44	0xbe98d00c	-0.29846227
45	0xbf04f2dc	-0.51933074
46	0x3e1fe156	0.15613303
47	0x3ed211b4	0.4102913
48	0xbf01ee16	-0.50753915
49	0xbda0cd90	-0.07851708
50	0xbd2bad18	-0.041913122
51	0x3eeedcbc	0.46652782
52	0xbef60923	-0.48053846
53	0x3e9318ec	0.2872995
54	0xbe1e1966	-0.15439376
55	0x3c5461c0	0.012962759
56	0xbe8c24cf	-0.27371833
57	0xbc38d700	-0.011281729
58	0x3f34e25c	0.70657897
59	0xbeaa1b38	-0.3322389
60	0xbe80a463	-0.25125417
61	0x3f00cae5	0.5030959
62	0x3ef17e96	0.4716689
63	0x3e0ccb38	0.13749397
64	0xbe89ed78	-0.26938987
65	0xbc83d9e0	-0.016095102
66	0x3ddbe330	0.10736692
67	0xbb653700	-0.003497541
68	0xbd122d20	-0.035687566
69	0xbd934cf0	-0.07192409
70	0x3e266080	0.1624775
71	0x3e2eba84	0.17063338
72	0x3e16431c	0.14674038
73	0x3eb65516	0.3561179
74	0x3dda3020	0.1065371
75	0xbe884332	-0.26613766
76	0xbd1d4900	-0.038399696
77	0xbeb01c6c	-0.34396684
78	0x3e6f7dfc	0.23387903
79	0x3b3c1900	0.0028701425
80	0x3e5f3c84	0.21800429
81	0x3e36c554	0.17848712
82	0xbee6b9bd	-0.45063582
83	0x3effa7fe	0.49932855
84	0xb9920800	-0.0002785325
85	0x3e98b686	0.29826754
86	0x3e77efc0	0.24212551
87	0x3e616bbc	0.22013754
88	0x3e1b0a00	0.15140533
89	0x3e95ed36	0.2928254
90	0xbeafd46a	-0.34341747
91	0x3d2b4890	0.041817248
92	0xbeeacc7e	-0.4585914
93	0xbe6ee8e4	-0.23331028
94	0xbe251970	-0.16122985
95	0x3e5ec70c	0.21755618
96	0x3eb05432	0.34439236
97	0xbedd368a	-0.43205673
98	0xbe4b8050	-0.19873166
99	0xbcc2e710	-0.02379182
100	0x3eaa6386	0.33279055
101	0xbea6df90	-0.3259244
102	0xbdd0d6c8	-0.10197216
103	0x3e7d65d0	0.2474587
104	0xbe0aba46	-0.1354762
105	0x3e618e48	0.22026932
106	0xbea6a13c	-0.32544887
107	0x3bdd0300	0.0067447424
108	0x3ea2fcfe	0.31833643
109	0x3e9cc300	0.30617523
110	0xbe82b644	-0.25529683
111	0x3da35170	0.07974517
112	0x3da7a840	0.08186388
113	0x3b335f00	0.0027369857
114	0xbe66b862	-0.22531274
115	0xbe344b18	-0.17606771
116	0xbda8cf2c	-0.0824264
117	0x3e411ac4	0.18857867
118	0xbed9c694	-0.42534316
119	0x3eabd7b2	0.33563
120	0x3efc3256	0.49257153
121	0xbe74fe40	-0.23925114
122	0x3d727330	0.059191883
123	0x3ed4c6b2	0.41557842
124	0x3e6f531c	0.23371547
125	0x3ec7f2f8	0.39052558
126	0xbeae6fa6	-0.34069556
127	0x3c9ef800	0.019405365
128	0x3eaefb1a	0.3417595
129	0xbe355d7a	-0.1771144
130	0x3f04c211	0.5185862
131	0x3ead4942	0.33844954
132	0xbc054280	-0.008133531
133	0xbe8c3ace	-0.27388614
134	0xbe88c4db	-0.2671269
135	0x3dbefed0	0.093259454
136	0xbdeff7a0	-0.117171526
137	0xbe23531c	-0.15949672
138	0x3ed8c5de	0.4233846
139	0xbe117824	-0.14205986
140	0x3e9652b2	0.29359967
141	0xbe55de6e	-0.20885631
142	0xbec03ac9	-0.3754485
143	0x3e26d068	0.16290438
144	0xbe72eb74	-0.2372263
145	0xbcc78370	-0.024354666
146	0x3e103464	0.14082485
147	0xbe86cb51	-0.26326993
148	0x3e9cd4ca	0.30631095
149	0x3e9d81d2	0.30763108
150	0xbf026349	-0.5093275
151	0x3d762060	0.06008947
152	0x3e1f313c	0.15546125
153	0xbeb97ad0	-0.3622651
154	0x3e5215ec	0.20516175
155	0x3e70616c	0.23474663
156	0x3e3e5bd4	0.18589717
157	0x3d5a4110	0.053284705
158	0x3dbb2fa8	0.09139949
159	0xbbbe3680	-0.0058048368

layers.1.weight f4 [4, 1, 16]
0	0x3cb1d44f	0.021707682
1	0x3e903818	0.28167796
2	0x3e71d2c5	0.23615558
3	0x3e973d18	0.29538798
4	0xb9bc9389	-0.00035968077
5	0x3e650625	0.22365625
6	0xbb06a341	-0.0020544084
7	0xba59a4f3	-0.00083024724
8	0x3ec952f5	0.39321104
9	0x3db4f4c6	0.08835749
10	0x3ddc1b1b	0.107473575
11	0xbe4ad03f	-0.19806002
12	0x3e75d745	0.240079
13	0xbe6561ba	-0.22400561
14	0x3e583185	0.2111264
15	0x3db171f2	0.086643115
16	0xbc8fd923	-0.017559594
17	0x3f2589c8	0.6466336
18	0xbe832901	-0.2561722
19	0xbf15aebd	-0.58469754
20	0x3e8a46cf	0.27007148
21	0x3f05983e	0.5218543
22	0x3ed31ca1	0.4123278
23	0xbe8b99b9	-0.2726572
24	0xbd052fe9	-0.032516394
25	0x3eccc60b	0.39994845
26	0xbecbb07b	-0.3978308
27	0xbea869ad	-0.32893124
28	0x3e97e95d	0.2967023
29	0xbce088d0	-0.027408987
30	0x3ee0ff54	0.439448
31	0xbbf3784b	-0.0074301115
32	0x3e86f95f	0.2636213
33	0xbc8f3dd1	-0.017485531
34	0x3d52cd38	0.051465243
35	0xbe63813a	-0.22217265
36	0x3e3af506	0.18257532
37	0xbe48da09	-0.19614424
38	0x3e9ac407	0.30227682
39	0x3e61eebc	0.22063726
40	0xbe28e026	-0.16491756
41	0xbe31a8b6	-0.17349514
42	0xbe9bd7b9	-0.3043802
43	0xbe9e9124	-0.30970109
44	0xbd682a90	-0.056681216
45	0xbebb598b	-0.36591753
46	0xbde7d930	-0.11320722
47	0x3e824c58	0.2544887
48	0x3e533600	0.20626068
49	0xbf18e5eb	-0.59725827
50	0xbd6bd759	-0.05757842
51	0xbe7d91ed	-0.24762698
52	0x3eb7c4b1	0.3589225
53	0xbf1dc6c0	-0.61631393
54	0xbd9d4fb9	-0.076812215
55	0xbe533114	-0.2062419
56	0x3cc88cb2	0.024481151
57	0x3e8a7fc0	0.2705059
58	0x3ec4b807	0.38421652
59	0xbe0933a4	-0.13398606
60	0x3b811587	0.003939334
61	0xbda8c058	-0.08239812
62	0xbe9f130e	-0.31069225
63	0xbe76f359	-0.24116267

layers.2.weight f4 [4, 16, 16]
0	0xbe2df7bb	-0.16989033
1	0xbe4a30f5	-0.19745238
2	0x3d25c1ff	0.040468212
3	0x3d8ea62a	0.06965287
4	0x3e0ee837	0.1395577
5	0xbe250a07	-0.16117106
6	0x3d6b9476	0.05751463
7	0xbd8a780e	-0.0676118
8	0x3e3ad426	0.1824499
9	0x3dc4b5be	0.09604977
10	0xbe03a818	-0.12857091
11	0x3c9ff08e	0.019523885
12	0x3ddaf035	0.10690347
13	0xbd460f77	-0.048354592
14	0x3dd000f3	0.10156431
15	0x3cfa57b3	0.030559396
16	0xbc70ccd3	-0.014697271
17	0x3e813424	0.25235093
18	0x3c6c1fc9	0.014411875
19	0x3e595bfd	0.21226497
20	0xbe99d7e2	-0.30047518
21	0x3e10749c	0.14106983
22	0x3e1b260b	0.15151231
23	0xb8943304	-7.066692e-05
24	0xbe106949	-0.14102663
25	0xbe2c70b6	-0.16839871
26	0xbf171f13	-0.5903179
27	0x3e545fd3	0.20739679
28	0xbe4ac047	-0.1979991
29	0x3e0bf2ee	0.13666889
30	0xbd45e764	-0.048316374
31	0xbdc9432a	-0.09827264
32	0xbdf00340	-0.1171937
33	0xbd9f2103	-0.07769968
34	0x3d832167	0.06402855
35	0x3e1e8151	0.15479018
36	0xbd4c5199	-0.049882505
37	0xbc27c3bc	-0.010239538
38	0xbacc71ae	-0.0015597844
39	0x3e411559	0.188558
40	0x3ca3e93d	0.020008678
41	0xbdc9bb95	-0.098502316
42	0xbf22f3c1	-0.6365319
43	0xbdf69125	-0.12039403
44	0xbdb38ffe	-0.08767699
45	0xbe454412	-0.19264248
46	0xbd9359f5	-0.07194892
47	0x3db056e3	0.08610322
48	0xbd4fca1c	-0.050729856
49	0x3e41967a	0.18905059
50	0x3d9204e4	0.07129839
51	0x3e13c009	0.14428724
52	0xbd64f31d	-0.055895913
53	0x3c3e3b81	0.0116108665
54	0xbe392371	-0.18079926
55	0xbcb0de5a	-0.0215904
56	0x3e437c23	0.19090323
57	0xbef3f0c0	-0.47644615
58	0xbf336f83	-0.7009203
59	0xbe170c66	-0.14750823
60	0xbe89549a	-0.26822358
61	0xbe358c1f	-0.17729233
62	0x3de5fbea	0.112296894
63	0x3d5d7556	0.05406698
64	0xbe80f682	-0.2518807
65	0xbda06c6f	-0.07833182
66	0xbe1c42ee	-0.15259907
67	0xbe39f0ae	-0.18158218
68	0x3da81ad6	0.082082435
69	0xbf104998	-0.56362295
70	0x3e138866	0.144075
71	0xbddf5d33	-0.10906448
72	0x3de6bc55	0.1126639
73	0x3e1e9158	0.15485132
74	0x3c81fc2f	0.01586732
75	0x3df5d040	0.12002611
76	0xbd9cb03a	-0.076508
77	0x3e35590f	0.17709754
78	0x3e0eae76	0.13933739
79	0x3c099b63	0.0083988635
80	0xbd68678a	-0.056739368
81	0x3e82d134	0.25550234
82	0xbdd4e77b	-0.10395714
83	0x3dbbe737	0.0917496
84	0x3bf2e432	0.007412457
85	0xbe1818e5	-0.14853247
86	0xbdf8cd4a	-0.12148531
87	0x3e217605	0.15767677
88	0xbdbf7a3f	-0.093494885
89	0xbde58518	-0.11207026
90	0xbf30e7d0	-0.6910372
91	0x3e01ae76	0.12664208
92	0xbc87b17f	-0.016564129
93	0x3e000d82	0.12505153
94	0xbd860053	-0.065430306
95	0x3e0ade2c	0.13561314
96	0xbdf933ee	-0.12168108
97	0x3eed1e0d	0.4631199
98	0xbdfce328	-0.12348014
99	0x3d85beab	0.06530508
100	0xbe9c7423	-0.30557355
101	0xbeb50fe1	-0.35363677
102	0xbd9444a9	-0.072396584
103	0x394cbabc	0.0001952452
104	0xbeaf9d6f	-0.342998
105	0x3c9a4021	0.018829407
106	0xbf1b1df7	-0.605926
107	0x3dc04268	0.09387666
108	0xbe403541	-0.18770315
109	0x3eaaedb6	0.33384484
110	0xbe0c7eeb	-0.1372029
111	0xbe9c3d18	-0.3051536
112	0x3c85db84	0.016340025
113	0x3e813f0e	0.2524342
114	0xbd4c2f6d	-0.049849916
115	0x3d05f8cd	0.032707978
116	0x3ddb12c7	0.10696941
117	0xbe46b24d	-0.19403954
118	0x3e7d3d74	0.24730474
119	0xbd2a8658	-0.041632026
120	0x3d99906b	0.07498249
121	0xbe9508c5	-0.29108253
122	0xbec64a22	-0.38728434
123	0xbe855602	-0.2604218
124	0xbe2ed680	-0.17074013
125	0xbe109090	-0.14117646
126	0xbe4e668f	-0.2015631
127	0x3ceee826	0.029163431
128	0xbe6228f9	-0.22085942
129	0xbdc4d8bb	-0.096116506
130	0x3e6f6d69	0.2338158
131	0xbdca4b84	-0.09877685
132	0x3e02f0ea	0.12787214
133	0xbd187b66	-0.037227057
134	0xbe07d486	-0.13264665
135	0x3c881328	0.016610697
136	0x3e7a5bfb	0.2444915
137	0x3de7e74d	0.11323414
138	0xbc789ffd	-0.015174863
139	0x3e09691f	0.13419007
140	0xbea4b284	-0.32167447
141	0x3dc819e2	0.09770562
142	0xbdfb2de5	-0.12264613
143	0x3e47a4b8	0.19496429
144	0xbe89dd57	-0.2692668
145	0x3cd08d14	0.025457896
146	0x3d93a556	0.0720927
147	0xbd54afb6	-0.051925384
148	0xbe14ac5f	-0.1451888
149	0x3d54ecf6	0.051983796
150	0x3c396d29	0.01131753
151	0x3ddae05e	0.10687326
152	0xbdbbdfcb	-0.091735445
153	0x3e5e7386	0.21723756
154	0xbcde567c	-0.027140848
155	0x3e7b3f21	0.245358
156	0xbc297170	-0.010341987
157	0x3cd63ae5	0.02615113
158	0x3db2233c	0.08698127
159	0x3d329399	0.04359779
160	0x3cd457a8	0.025920704
161	0xbf0c16c0	-0.54722214
162	0x3e75399c	0.23947757
163	0xbe77367f	-0.24141882
164	0x3e582f56	0.21111807
165	0xbe467562	-0.19380715
166	0x3da072ac	0.07834372
167	0xbb92334e	-0.0044616824
168	0x3e1b74fe	0.15181348
169	0x3e3d1f5b	0.18468992
170	0x3e80fb2d	0.25191632
171	0x3d279492	0.040913172
172	0x3e81f98c	0.25385702
173	0x3df6db6f	0.120535724
174	0xbbdcb58c	-0.0067355093
175	0xbc8a96d2	-0.01691762
176	0xbe11810c	-0.14209384
177	0x3e45c7c4	0.19314486
178	0xbda59c35	-0.08086435
179	0x3e364dce	0.17803118
180	0xbe05276f	-0.13003324
181	0xbe194aa1	-0.14969875
182	0x3e341a5e	0.17588183
183	0xbe2a6bad	-0.16642638
184	0xbd4267a4	-0.04746212
185	0x3d267448	0.04063824
186	0xbd1a3f9c	-0.03765832
187	0xbe099e76	-0.13439354
188	0xbdcba27a	-0.09943099
189	0xbdd11cd6	-0.10210578
190	0x3c40f5c0	0.011777341
191	0x3cba35f0	0.022730798
192	0xbd9f212f	-0.07770001
193	0x3d49ff86	0.04931595
194	0x3dc9e79f	0.09858631
195	0xbd8e9f4b	-0.069639765
196	0x3a05846f	0.00050932815
197	0xbe0ccec1	-0.13750745
198	0x3db3d598	0.08780974
199	0x3dd86544	0.1056619
200	0x3e48f4b4	0.19624597
201	0x3ddbf1b2	0.10739459
202	0xbe1c3b6b	-0.15257041
203	0xbc4c62bd	-0.012474713
204	0xbe8093ce	-0.25112766
205	0x3e866a1e	0.26252836
206	0x3d22e525	0.03976931
207	0x3dde8a75	0.10866252
208	0xbe1a15a1	-0.15047313
209	0x3e01187e	0.12607
210	0x3dbb15c8	0.09135014
211	0x3b898040	0.004196197
212	0x3d38e4c4	0.045140043
213	0x3dc371c0	0.095431805
214	0x3d4f13a0	0.050555825
215	0xbd2a0a60	-0.0415138
216	0x3e236d7a	0.1595973
217	0xbdf6c8fa	-0.12050052
218	0x3e3c06be	0.18361947
219	0xbc1fddd0	-0.009757474
220	0x3d6e0ea0	0.058119416
221	0xbd311b70	-0.043239057
222	0x3d8687bc	0.06568858
223	0x3db9e81c	0.090774745
224	0xbdde2480	-0.108468056
225	0xbda97d84	-0.08275893
226	0x3c82079f	0.015872775
227	0x3e1b4fb8	0.15167129
228	0xbe4d6167	-0.20056687
229	0x3e19c3d7	0.15016113
230	0xbe21f05d	-0.15814348
231	0xbcc52fe2	-0.024070684
232	0x3e5855fc	0.2112655
233	0x3c7dc255	0.015488227
234	0xbf3fb6e1	-0.74888426
235	0x3e4d80f9	0.2006873
236	0xbe800d75	-0.25010267
237	0x3d9f6a27	0.07783919
238	0xbe494cf6	-0.19658265
239	0xbd9ee3bd	-0.077582814
240	0xbe762754	-0.2403844
241	0xbcf6cd21	-0.03012711
242	0x3e1c4999	0.1526245
243	0xbdbd07d0	-0.09230006
244	0xbd1df9cf	-0.038568314
245	0xbe0a9845	-0.13534649
246	0xbe128d0c	-0.14311618
247	0x3daece99	0.08535499
248	0xbc42aca9	-0.011881986
249	0xbe556ccc	-0.20842284
250	0xbf4dd73a	-0.80406535
251	0xbe15d03b	-0.14630215
252	0xbda0da64	-0.07854155
253	0x3dac06d5	0.083997406
254	0xbd40c58b	-0.04706339
255	0xbd13de50	-0.036100686

layers.3.weight f4 [4, 16, 16]
0	0xbe185b45	-0.14878567
1	0x3cbef0a2	0.023308102
2	0x3dfdb01f	0.12387108
3	0xbe110375	-0.14161475
4	0xbe0978a0	-0.13424921
5	0x3dff69d6	0.124713585
6	0xbdea3000	-0.114349365
7	0x3db0f950	0.086413026
8	0x3d948dcf	0.0725361
9	0xbe4249aa	-0.18973413
10	0xbd1453ca	-0.03621272
11	0xbd66f5a1	-0.056386594
12	0xbe0c561f	-0.13704728
13	0x3e4eed84	0.20207793
14	0x3db8ea57	0.09029072
15	0xbdb22a0d	-0.08699427
16	0xbce51434	-0.027963735
17	0x3e7730fc	0.2413978
18	0xbe4fe191	-0.2030089
19	0xbe3f6078	-0.18689144
20	0x3ebf8f5a	0.37414056
21	0x3caa7909	0.020809667
22	0xbee72e3d	-0.45152465
23	0xbd549906	-0.051903747
24	0x3e68540f	0.22688316
25	0x3d4a0cda	0.049328662
26	0xbd58c840	-0.05292535
27	0xbe11f3f6	-0.1425322
28	0xbf80c2e6	-1.0059478
29	0xbec5c890	-0.3862958
30	0xbd88d0c9	-0.066804476
31	0x3e4dbde6	0.20091972
32	0xbdfa54b8	-0.1222319
33	0xbe7d9bf2	-0.2476652
34	0xbd60fc60	-0.054928184
35	0xbe2d3dc5	-0.16918094
36	0x3bd35e91	0.006450482
37	0xbdcdc5e8	-0.10047513
38	0xbe957432	-0.29190212
39	0xbc8d6455	-0.017259756
40	0x3e1315f8	0.14363849
41	0x3e7acc95	0.24492104
42	0x3c5ea202	0.01358843
43	0x3e17ca14	0.1482318
44	0xbf61f0d4	-0.882581
45	0xbd4143f2	-0.04718394
46	0x3e18f55c	0.14937347
47	0x3d71d3cd	0.05903988
48	0x3dafe23d	0.085880734
49	0xbc946200	-0.018113136
50	0xbdd1b238	-0.10239071
51	0xbdddbcc8	-0.10827023
52	0x3d8ebbd9	0.06969423
53	0x3d626849	0.055275235
54	0xbddf813a	-0.1091332
55	0xbe1458be	-0.14486977
56	0xbd0524eb	-0.03250591
57	0xbd178630	-0.036993206
58	0x3d6bf02c	0.057602093
59	0xbe84f4d3	-0.25968036
60	0xbd9521a6	-0.072818086
61	0xbe86dd4d	-0.26340714
62	0x3d38e435	0.04513951
63	0x3e12f4c0	0.14351177
64	0xbdfc9c34	-0.12334481
65	0xbe6ee2e1	-0.23328735
66	0x3e66c357	0.22535454
67	0x3e022e86	0.1271306
68	0x3e0f17d3	0.13973932
69	0x3ebb4de8	0.36582875
70	0x3d9a85d0	0.07545054
71	0xbded1a5d	-0.11577294
72	0x3e7fffae	0.24999878
73	0x3e042061	0.12902977
74	0x3d808232	0.06274833
75	0xbe38522e	-0.18000099
76	0x3e0ec7d3	0.13943414
77	0xbe8dd205	-0.27699295
78	0xbe09d259	-0.13459148
79	0x3e46ae27	0.19402371
80	0xbcef015e	-0.029175457
81	0xbe88c116	-0.26709813
82	0x3ed0d25b	0.40785488
83	0x3ebb29c1	0.36555293
84	0x3e6f33d6	0.23359618
85	0x3e6c143b	0.23054592
86	0xbcdd9195	-0.027046958
87	0xbd8be7c2	-0.06831314
88	0x3e923161	0.28553298
89	0xbec80ef7	-0.39073917
90	0xbce23bb3	-0.027616357
91	0x3ee62c75	0.44955793
92	0x3dc528d7	0.0962693
93	0xbea75178	-0.32679343
94	0x3e671084	0.22564894
95	0x3e1b4247	0.15162002
96	0x3c5ddb09	0.013540992
97	0x3cf71915	0.030163327
98	0x3d6dc877	0.058052506
99	0x3e19804d	0.14990349
100	0x3dae6bc5	0.08516649
101	0xbd4e869a	-0.050421335
102	0xbe49e4d3	-0.19716196
103	0x3d29c6da	0.041449405
104	0x3d8e3ab8	0.069447935
105	0xbc69c13a	-0.01426726
106	0x3e7f8bba	0.24955645
107	0xbbb7a46a	-0.0056043165
108	0x3ded2dbb	0.11580988
109	0xbeb1509c	-0.34631813
110	0x3e593d21	0.21214725
111	0xbd2153e6	-0.039386652
112	0x3e4c31d3	0.19940881
113	0xbda0fb42	-0.078604236
114	0xbe7a5fda	-0.24450627
115	0x3d857ada	0.06517573
116	0xbd825615	-0.06364075
117	0x3d9defa8	0.077117264
118	0xbe0a8eec	-0.13531083
119	0x3e591a0a	0.2120134
120	0x3e1f283f	0.15542696
121	0xbcbba71b	-0.02290683
122	0xbe3264d9	-0.17421283
123	0x3e36d21e	0.17853591
124	0xbf8384f5	-1.027495
125	0x3e1bbd36	0.15208897
126	0xbe11662c	-0.14199132
127	0xbe0a5d78	-0.13512218
128	0xbde0858a	-0.109629706
129	0xbdeb4c94	-0.114892155
130	0x3e29ec4c	0.16594046
131	0xbe03763d	-0.12838073
132	0xbd96b2ca	-0.0735832
133	0xbe03248a	-0.12806907
134	0x3dab06c6	0.08350901
135	0xbe288c51	-0.16459776
136	0xbe37cc81	-0.17949106
137	0x3e7f0bd3	0.24906854
138	0xbde95599	-0.113932796
139	0x3d372744	0.04471518
140	0x3cd00354	0.025392212
141	0xbe0736fe	-0.13204572
142	0x3e2a1c62	0.1661239
143	0xbddb6372	-0.10712327
144	0x3d5d2ff6	0.054000817
145	0xbf2869cf	-0.6578645
146	0xbd916fea	-0.07101424
147	0x3e2901ad	0.16504546
148	0xbe989eed	-0.2980875
149	0xbeae8adf	-0.34090325
150	0x3cbc0067	0.02294941
151	0xbf5b0f04	-0.8556979
152	0xbeb11d17	-0.34592506
153	0x3e21e361	0.15809394
154	0xbe92c99e	-0.28669447
155	0x3e75f9ac	0.24021024
156	0xbe7633ca	-0.24043193
157	0x3ec2a6ac	0.38017786
158	0x3e3ea0e4	0.18616062
159	0x3e4895c8	0.19588387
160	0xbe552900	-0.20816422
161	0xbe4f7084	-0.20257765
162	0x3eb00967	0.34382173
163	0xbe1a841b	-0.15089457
164	0x3ec50af0	0.38484907
165	0x3ef3867b	0.47563538
166	0xbd593b08	-0.053034812
167	0xbdce0035	-0.10058633
168	0x3e745d5d	0.2386374
169	0xbee8bc26	-0.45456046
170	0xbe8de68f	-0.27714965
171	0x3df1edd9	0.11812944
172	0x3e656508	0.22401822
173	0x3d92d5a4	0.07169655
174	0x3c1cefb4	0.009578634
175	0x3e8d3efe	0.27587122
176	0xbe5e8454	-0.21730167
177	0x3e27c204	0.16382605
178	0x3d23585e	0.039879195
179	0xbd21b4f6	-0.03947922
180	0x3b678930	0.0035329573
181	0xbe104246	-0.14087781
182	0xbed32ca7	-0.41245005
183	0x3dbd2d67	0.092371754
184	0xbe265c96	-0.16246256
185	0xbbb46088	-0.0055046715
186	0xbdf37f0b	-0.11889466
187	0x3e39fffa	0.18164054
188	0xbf633f40	-0.88768387
189	0x3e5ec56d	0.21755
190	0xbd0cd196	-0.034379564
191	0xbd615882	-0.05501605
192	0x3eb5b080	0.3548622
193	0xbf4f2234	-0.80911565
194	0x3d1f9a62	0.03896559
195	0x3de73638	0.11289638
196	0x3e3b750b	0.18306367
197	0x3d7a4450	0.061100304
198	0xbe08e709	-0.13369383
199	0xbe6e5b6c	-0.23277062
200	0x3e1987e3	0.14993243
201	0xbe119a89	-0.14219107
202	0x3ea79f58	0.32738757
203	0x3d1497c0	0.036277533
204	0x3eff3141	0.49842265
205	0xbe71fa93	-0.23630743
206	0xbe0675d3	-0.13130884
207	0x3e6eda12	0.23325375
208	0xbd179dc5	-0.037015695
209	0x3e3916ab	0.18075053
210	0xbe769233	-0.24079208
211	0x3e018553	0.12648515
212	0xbb31ad16	-0.0027111224
213	0xbdcc1e03	-0.09966662
214	0xbeadbfc4	-0.33935368
215	0x3ddd3474	0.1080102
216	0xbe3e0055	-0.18554814
217	0x3de95317	0.11392801
218	0x3dc488f1	0.09596432
219	0x3df02c95	0.11727253
220	0xbf109f48	-0.56493044
221	0x3e73291d	0.23746152
222	0x3b2e1d92	0.0026567918
223	0xbda44810	-0.08021557
224	0x3e04eb70	0.12980437
225	0xbe58091d	-0.21097226
226	0x3e8a4c8f	0.27011535
227	0xbe45c0ba	-0.193118
228	0x3daef183	0.085421585
229	0x3d815ecd	0.0631691
230	0xbd64126b	-0.055681627
231	0xbeea5cc4	-0.457739
232	0xbd02e9e7	-0.031961348
233	0xbd338b30	-0.04383391
234	0x3dd4afd5	0.103851
235	0xbd89a568	-0.06721002
236	0x3e891e98	0.26781154
237	0xbed98fa8	-0.42492414
238	0x3dda8823	0.10670497
239	0x3cb709e9	0.022343593
240	0xbdafaebb	-0.08578249
241	0xbe56dccb	-0.20982663
242	0x3e18c38b	0.14918344
243	0x3daf2896	0.08552663
244	0xbe3035b8	-0.17207992
245	0x3e26c9e9	0.1628796
246	0xbd2331ff	-0.039842602
247	0x3e83f6a0	0.25774097
248	0x3e06083b	0.13089077
249	0x3de8d37b	0.11368462
250	0xbe6cdc1e	-0.23130843
251	0x3e4ebb43	0.20188622
252	0xbf910d06	-1.13321
253	0xbe27ea56	-0.16397986
254	0x3dc6a54e	0.09699498
255	0x3e26996b	0.16269462

layers.4.weight f4 [4, 16, 4]
0	0xbf05e085	-0.52295715
1	0x3ec92ad3	0.39290485
2	0x3eb5844c	0.35452497
3	0xbcfa74e4	-0.030573316
4	0xbd87e4d4	-0.066354424
5	0x3e89de8a	0.26927596
6	0x3ef855b2	0.4850288
7	0x3ec9e840	0.39435005
8	0x3f073c72	0.5282661
9	0xbeb58b44	-0.35457814
10	0xbe0b0f7f	-0.1358013
11	0xbd7bc606	-0.061468147
12	0x3ea23314	0.31679595
13	0x3dd54b38	0.104147375
14	0xbeae2abb	-0.34016976
15	0xbbc2a36f	-0.005939893
16	0xbe6fa05b	-0.23401015
17	0xbafe3f86	-0.0019397594
18	0xbe1281c9	-0.14307322
19	0xbe817842	-0.25287062
20	0xbebfa178	-0.37427878
21	0x3e90c782	0.28277212
22	0x3df4813d	0.11938713
23	0x3d138f35	0.036025245
24	0x3f998e38	1.1996527
25	0xbf16c62d	-0.5889614
26	0xbf4e1cf3	-0.80512923
27	0xbf5b797d	-0.8573225
28	0x3cbf9a24	0.02338893
29	0xbe871c33	-0.26388702
30	0xbe46f4cc	-0.1942932
31	0x3e801da1	0.25022605
32	0x3f067355	0.5251973
33	0xbe8e1f50	-0.27758265
34	0xbd4b0a7c	-0.049570546
35	0x3dde5883	0.10856726
36	0x3e213ea1	0.15746547
37	0xbe17b12b	-0.14813678
38	0x3e9bf3a9	0.30459335
39	0x3e9d6ab2	0.30745465
40	0xbec3f2c3	-0.3827115
41	0x3e58e665	0.21181639
42	0x3e64e851	0.22354247
43	0x3d2dba05	0.04241373
44	0x3dfcb362	0.12338902
45	0xbe5faa5b	-0.21842329
46	0x3c715a8c	0.014731061
47	0x3d941a88	0.07231623
48	0xbf48f8c6	-0.785046
49	0x3f6190c5	0.88111526
50	0x3ea57a8e	0.32320064
51	0x3f012dd3	0.5046055
52	0xbf1c95bd	-0.6116598
53	0x3e562e23	0.20916037
54	0x3edc38ec	0.43012178
55	0x3e4776cc	0.19478911
56	0xbeb59c36	-0.35470742
57	0xbe1f2bc7	-0.15544043
58	0xbea90939	-0.3301485
59	0xbe4af6ca	-0.19820705
60	0xbdfe27f4	-0.12409964
61	0xbead9312	-0.33901268
62	0xbdf8fb46	-0.121573016
63	0xbda99d4d	-0.08281956
64	0x3f0ec7b2	0.5577346
65	0xbf304b00	-0.6886444
66	0xbeaf61c3	-0.34254274
67	0xbd614d1b	-0.055005174
68	0x3d38c5a5	0.045110364
69	0x3dbcf01f	0.09225487
70	0xbeb82b51	-0.35970548
71	0xbe41bbe7	-0.18919335
72	0xbe2a3f56	-0.16625723
73	0x3ebe2a18	0.3714149
74	0x3c6e25ff	0.014535426
75	0x3e0658b8	0.13119781
76	0xbea882ee	-0.3291239
77	0xbcb20af0	-0.021733731
78	0xbe97412c	-0.2954191
79	0x3eacccc6	0.3374998
80	0xbe188e29	-0.1489798
81	0x3dd80b70	0.105490565
82	0x3f1dc549	0.6162916
83	0x3deb9ca7	0.115044884
84	0x3e1fbe55	0.1559995
85	0x3ec573c6	0.3856489
86	0xbce5e391	-0.028062614
87	0xbe72866d	-0.23684092
88	0xbe81d285	-0.25355926
89	0x3de45eb9	0.111508794
90	0x3e8b2f9c	0.2718476
91	0xbe748c74	-0.23881704
92	0xbd9de3e7	-0.077094845
93	0x3ef277bc	0.47356975
94	0x3e448b04	0.19193655
95	0xbe40d2ee	-0.18830463
96	0x3f3de12f	0.7417173
97	0xbef36b29	-0.47542694
98	0xbec1a5ff	-0.37821957
99	0xbf32d3a7	-0.69854206
100	0xbf6d501a	-0.9270035
101	0x3f185072	0.5949775
102	0x3ec2a3d0	0.38015604
103	0x3ed2f492	0.41202217
104	0xbeb3c813	-0.35113582
105	0x3c0a3d1b	0.00843742
106	0x3da6d20f	0.08145534
107	0x3da034a3	0.0782254
108	0xbdf1dc7e	-0.11809634
109	0x3e9f34b0	0.31094885
110	0xbe4ec9f1	-0.20194222
111	0xbebfbba0	-0.37447834
112	0x3f156e3e	0.5837134
113	0xbefde59c	-0.4958924
114	0xbea75e10	-0.32688951
115	0xbee70ea0	-0.45128345
116	0x3f1e1c52	0.61761963
117	0xbe766524	-0.2406202
118	0xbf12ca50	-0.57339954
119	0xbec2fad7	-0.38082
120	0xbe239908	-0.15976346
121	0x3e43d762	0.19125131
122	0x3d979534	0.07401505
123	0xbe83d854	-0.25750983
124	0xbe3e8cd5	-0.1860841
125	0x3eb102a3	0.34572324
126	0x3e8fcb19	0.2808464
127	0xbe68fa87	-0.22751819
128	0xbf3b5da1	-0.7318974
129	0x3ee88c7c	0.4541968
130	0x3edcc7f5	0.43121305
131	0x3e6a5c95	0.2288688
132	0xbe5882c2	-0.2114363
133	0x3e5b8c71	0.21440293
134	0xbebaebc1	-0.3650799
135	0xbd990518	-0.07471675
136	0xbe34d022	-0.17657521
137	0x3d8efa4a	0.069813326
138	0x3d8d1b82	0.06890012
139	0x3ebfb134	0.37439883
140	0x3e80337f	0.25039288
141	0xbec084d2	-0.37601334
142	0xbf0dd338	-0.5540042
143	0xbf0f3307	-0.55937237
144	0xbe07574a	-0.13216892
145	0x3f1b19e8	0.60586405
146	0xbc9eb4cc	-0.01937332
147	0x3e3e4332	0.1858032
148	0x3dd0b7d7	0.10191315
149	0x3ea4906b	0.32141432
150	0x3e1fd521	0.15608646
151	0x3efb7aee	0.49117225
152	0x3e91a9e4	0.2844993
153	0xbdaf6128	-0.08563453
154	0xbe9b9a98	-0.30391383
155	0x3e49bed4	0.19701701
156	0x3df35cf2	0.11882962
157	0x3e2994ee	0.16560718
158	0x3ea87c98	0.32907557
159	0x3e7b2082	0.2452412
160	0x3dd1d696	0.10246007
161	0x3ea2ae04	0.31773388
162	0x3ec5d8d3	0.38641986
163	0x3ea70285	0.3261911
164	0xbe82fabb	-0.25581917
165	0xbe8d04e9	-0.2754281
166	0xbdae1989	-0.08500964
167	0xbe49116a	-0.19635549
168	0xbdc63b5f	-0.09679293
169	0x3e74c659	0.23903789
170	0x3e52f835	0.20602496
171	0x3e6a69cf	0.22891925
172	0xbf055baf	-0.52093023
173	0x3d8c2537	0.06843036
174	0x3ef1aaba	0.47200567
175	0x3e8c8f31	0.27452996
176	0xbefbfe53	-0.4921747
177	0xbdb7e0e7	-0.089784436
178	0xbe219096	-0.15777811
179	0xbe0cf52d	-0.13765402
180	0x3cd422a7	0.02589543
181	0xbeb9320d	-0.36170998
182	0xbee489d5	-0.44636407
183	0x3dba535a	0.09097929
184	0xbe5b05b3	-0.21388893
185	0xbeb7fcf4	-0.35935175
186	0x3e9fde3d	0.31224242
187	0x3e08c3be	0.1335592
188	0xbea8ff14	-0.3300711
189	0x3eceee50	0.40416193
190	0x3e90c9fc	0.28279102
191	0x3e634149	0.22192873
192	0xbe937908	-0.28803277
193	0x3ea52f1b	0.322625
194	0x3f342376	0.7036661
195	0x3f1306d6	0.57432306
196	0xbf52cfe2	-0.82348454
197	0x3f0f1c16	0.5590223
198	0x3eeac7e8	0.4585564
199	0x3eff1330	0.49819326
200	0xbf43b62b	-0.7644984
201	0x3f56f711	0.83970743
202	0x3f83af7a	1.0287926
203	0x3f697154	0.9118855
204	0xbef880b2	-0.48535687
205	0x3f1f9ea1	0.62351424
206	0x3f2b732b	0.6697261
207	0x3ed0c1d6	0.40772885
208	0xbe880649	-0.26567295
209	0xbc86e3f2	-0.016466115
210	0xbe36d6c1	-0.1785536
211	0x3e0f02af	0.13965867
212	0xbe998a7a	-0.29988462
213	0x3e64f104	0.22357565
214	0x3e5ea4ac	0.21742505
215	0xbcf44c35	-0.029821495
216	0x3e2458b5	0.16049464
217	0xbdd7ea59	-0.10542745
218	0xbe2c83fd	-0.16847225
219	0xbddfb0d6	-0.10922401
220	0x3eaec361	0.34133437
221	0xbe5b4e09	-0.21416487
222	0x3df63ce4	0.12023333
223	0x3ef2c3a0	0.47414875
224	0xbee1dc2f	-0.441133
225	0x3e020635	0.1269768
226	0x3e07ec57	0.1327375
227	0xbd30b4b2	-0.043141074
228	0xbf26ccbe	-0.6515616
229	0x3f26365c	0.64926696
230	0x3ea3ec67	0.32016298
231	0x3eb3f011	0.35144094
232	0xbe4c9f3a	-0.19982615
233	0x3eae4944	0.34040272
234	0x3f28742d	0.6580227
235	0x3d103e4f	0.035215672
236	0x3e8512ea	0.25990993
237	0xbe6e9cd7	-0.23302017
238	0xbea473b0	-0.32119513
239	0x3daf5c13	0.08562484
240	0x3f15226f	0.58255666
241	0xbe9f9b76	-0.31173295
242	0xbe9ad0c4	-0.302374
243	0xbf0cf2c4	-0.5505793
244	0x3de29844	0.110641986
245	0xbe43948a	-0.19099632
246	0xbe944806	-0.289612
247	0xbe86bb67	-0.26314852
248	0xbdf7345d	-0.120705344
249	0xbe98c5ef	-0.2983851
250	0xbdd33cde	-0.10314344
251	0xbec07db4	-0.37595904
252	0x3cdd8ea9	0.027045565
253	0x3e82351e	0.2543115
254	0x3ef801a1	0.48438743
255	0x3ee0fc40	0.4394245

attn.fc.weight f4 [4, 4]
0	0x3f0251bf	0.50905985
1	0xbec6b25c	-0.38807952
2	0xbe9a91f5	-0.3018948
3	0xbe1cbe0d	-0.15306874
4	0xbf00aebd	-0.5026663
5	0x3ebe2ee2	0.37145144
6	0x3ed524b1	0.41629556
7	0x3b83adf5	0.00401854
8	0xbbbf7b53	-0.005843559
9	0x3ea65095	0.32483354
10	0x3e8795fb	0.26481614
11	0x3e3ca3ea	0.18421903
12	0x3e9efb5b	0.31051144
13	0xbd9bda55	-0.07610003
14	0xbe10a952	-0.1412709
15	0x3e982f14	0.29723418

attn.attn_fc.weight f4 [1, 8]
0	0xbf2ae7b3	-0.66759795
1	0x3f033ef6	0.51267946
2	0x3ef8ea81	0.48616412
3	0xbf6b0e89	-0.91819054
4	0x401cac44	2.4480143
5	0xc010ff88	-2.2655964
6	0xbfed01a8	-1.851613
7	0x3f68b493	0.90900534

dense.weight f4 [1, 4]
0	0x3e871102	0.26380163
1	0xbeb409f7	-0.35163853
2	0xbef7d0fc	-0.4840163
3	0xbed87bcb	-0.42281947
