saved_model_w/logp.pth (torch_old, 19662 bytes, 9 tensors)

layers.0.weight f4 [4, 1, 16]
00000000: c8d8 ecba a2f2 98bc 302c 1cbe 4400 28bf
00000010: f30a 35bb bc46 8b3e 1f05 4dbc 923a 2ebf
00000020: b644 a53e ad9a f73d 5246 453e 05f9 f0be
00000030: 7594 12bf 49f2 adbc f403 36bf 3da9 383e
00000040: b03f 0abe 21a2 6abe 684c 9abe cfc7 adbd
00000050: 03bb 61be 30ae 94be 0501 5f3f 6542 0c3f
00000060: 334a b0be b3ce 99bc d803 693f 1d80 623f
00000070: 0e5e 043f b2ac dcbe a4ab 40be dd6a 50be
00000080: 1829 afbc 2a4b fb3d 453e 093f 4ba1 e53e
00000090: f73b 07be 8a6c a43c 5313 7b3e 3305 013f
000000a0: 2ad1 bd3d 3205 46be c42f ba3d 2452 98be
000000b0: a837 41bd 0bcb 1bbd 34fd f43e a123 a13b
000000c0: bd53 12bd 1f29 da3e e0a9 5dbe a725 463e
000000d0: 8c6a b8bd 3833 a7ba 7d62 f2be 4c0c 593e
000000e0: fe39 c6bb c3e4 b7be f417 1bbc 13c7 53be
000000f0: f5ba 263e 45a2 e0b9 2c41 c1be 9b2c c6be
-0.0018069977 -0.018670384 -0.15251231 -0.65625405 -0.0027624934 0.27202404 -0.012513428 -0.6805812
0.32278985 0.12090049 0.19265106 -0.47064987 -0.5725778 -0.021233695 -0.7109978 0.1803331
-0.13500857 -0.2291341 -0.30136418 -0.08485376 -0.22043996 -0.29039145 0.8711093 0.5478881
-0.3443161 -0.01877532 0.9102149 0.88476735 0.51706016 -0.43100506 -0.18815476 -0.20353265
-0.0213819 0.12270196 0.5361064 0.4484962 -0.13206469 0.020071287 0.2451909 0.5039856
0.092684105 -0.1933792 0.09091142 -0.29750168 -0.04717222 -0.038035434 0.4784943 0.0049175774
-0.03572439 0.42609498 -0.21646833 0.193503 -0.09004697 -0.0012756353 -0.47340766 0.21196097
-0.0060493937 -0.3591672 -0.00946616 -0.2068141 0.16282256 -0.0004284551 -0.37745035 -0.38705906

layers.1.weight f4 [4, 16, 16]
00000000: bdd3 9abd f298 303e a1b5 16be 094c 993d
00000010: 17c3 4d3c f8da be3d 9ebb 033e 2f4c bc3c
00000020: e72e 003d 19e0 3c3d 9cbe e93d 4eb4 e9bc
00000030: 070c 4a3e d497 ebbd ed6a adbe a3ff b4bc
00000040: 5647 8cbf 0846 373f fea3 643f 11bb 1bbf
00000050: c42a 1a3f 8e41 7c3e 7555 8cbf d682 01bf
00000060: ea44 00c0 695b 363e 29ad 373f aaed 763f
00000070: 33f2 c1bf 8232 7bbe 3506 cabe 7baf 503f
00000080: 1efe 673d dd43 b0be 3aed 6b3e 6033 bc3e
00000090: 1b2b a73e e350 11bf b104 98be 7260 193f
000000a0: c96e 56bf 2ebd 4cbe d41a ffbf e1c0 4ebe
000000b0: 83a6 03c0 715f e03d 3239 c1be 8fe9 8b3e
000000c0: 10d2 87bc b8eb 613d d45d 69bd 4978 f93c
000000d0: f710 2c3e a76d 30bd fcad 043e b5fc e33d
000000e0: 0660 7ebe 1355 cf3d 1b5b a73e 2e7c a6bd
000000f0: 6d9e a4bd 466d 2f3e a356 1a3e 6b4f 6d3e
00000100: 653c 69bd 3c19 a5bd e014 3abd b6f2 963d
00000110: 0616 df3d b4c8 1cbe b739 353e a6b4 013e
00000120: 8bb5 ebbc dc7b 63bd 78d0 6d3e 64a3 173d
00000130: 0fd5 ea3d 8e39 da3d f209 3cc0 db69 73be
00000140: dde8 abbe d7e9 013d f73f c13d 0974 c33d
00000150: 04c8 b23e 57a6 7dbe fe54 bc3e 96ec 0f3c
00000160: 9f95 23bf 2c51 3b3e bdd7 423e 0e1a 88bd
00000170: 8355 653e 7711 343e f109 47c0 c149 21be
00000180: 82f4 543e 9aca 2dbf cb29 c2be 8345 4c3f
00000190: 865a ccbe fe46 3c3d dbf9 5b3c 6669 993c
000001a0: 97f6 acbf 7445 37bf 4426 92bf d0cb 6bbd
000001b0: e7b2 b8bf 0328 98bd 509a 9a3e a1b7 57be
000001c0: e2f0 ecbb 8479 00be 9ce6 82bd 191e 65be
000001d0: 8f2e 8f39 e090 3abe e6bb dd3d 0b6c 623e
000001e0: 6b58 b8be 5d35 6d3e c7d3 8b3e 0c74 8ebe
000001f0: 66cf 37be 4eca 81bc a942 87be 1493 54be
00000200: cdd1 c2be 1480 d6bd 2685 943d 12b8 203e
00000210: a1e1 983e 7568 17be b144 7d3e 13d5 373d
00000220: 3029 39bf 8838 3f3e 0920 73bd 0981 9f3c
00000230: f08e b13e 57cd 863c b400 5ac0 5d19 7dbe
00000240: 335f a1bd e6ca 8abe b171 b3bd cac5 d23e
00000250: 676c 67bc b07e c53d 7b9a cf3e 82bf eabd
00000260: 8b42 07bf f9c6 3f3e 9045 9abd 53a5 9dbd
00000270: 60cf 933e 416e 5b3e 86cc 9dbc a9e0 90bf
00000280: 4afe 49bd 103a 87be 94d6 24bd 91d3 113f
00000290: e9e9 b43d 361c e53c e663 b13e f2a7 8ebe
000002a0: 506e 8fbf a51c 05be a0b7 52be 2841 e43d
000002b0: 873e 01be 18f0 04be 6dae e23e 29f4 4fbe
000002c0: ee69 bfbe 27a5 81bf ac04 85bf 5bbd d4bf
000002d0: c38a 17bf cd3b 0cbc 2b82 16bf 3144 583e
000002e0: b0f8 69be 6246 4ebf 22f4 313f 0f3b b83f
000002f0: 0442 aebd 716c 5abc c9d0 793f 1e40 fabe
00000300: 477e b1bd 5115 6a3e de4f b5bd 9fd3 253e
00000310: ca94 7bbe e77c c1be 9a36 85be 9f78 e6bd
00000320: 3949 73bd 31f5 1d3d 98d6 1e3e 18bd 3ebe
00000330: 65e1 f4bb 9bb9 a2bd 4fd3 053e f499 3ebe
00000340: 0f1e 4fbf 2cb7 cc3e 0daa 373e d438 c9be
00000350: d994 983e 1ecb acbb accf 12bf 7dd6 6bbe
00000360: 29b0 b9bf fde6 88be 8a45 be3e 0bfd 163f
00000370: 338b b3bf aa29 85be 3e98 cabe 1d83 903e
00000380: 21ae 06be ca9f f93d b17c b13d 1794 bd3d
00000390: 66fc d73d d82b 86bd 4972 a9bd 9194 50bd
000003a0: e95d 4abe 975f 053e d0c3 babd 4f3c 9dbe
000003b0: a99c 0ebe cd2e 603d 9e70 3d3e 5934 e03d
000003c0: 1b8b 85be a41d 0cbe 9a17 66be 7faa ae3e
000003d0: 4f0c 8a3e 469d f8bd 1996 a83e 730a 1f3e
000003e0: b3ee a3be 6c25 7b3e 600a 48bd 1f4f 48bc
000003f0: 55d9 d13e 46c0 383e b3e9 3ec0 d93a 4cbf
-0.07559917 0.17245844 -0.14717723 0.07485206 0.01255872 0.09319109 0.12864539 0.022985546
0.03129473 0.046112154 0.11413309 -0.028528359 0.1973115 -0.11503568 -0.3387064 -0.022094553
-1.095927 0.71591234 0.8931273 -0.60832316 0.60221505 0.24634382 -1.096358 -0.50590265
-2.0042062 0.17808308 0.71748596 0.96456397 -1.5152038 -0.24530986 -0.3945786 0.8151776
0.05663883 -0.34426776 0.23039714 0.36757946 0.32650074 -0.5676405 -0.2969108 0.5991279
-0.83762795 -0.19994041 -1.9930062 -0.20190765 -2.057038 0.10955704 -0.3773895 0.2732663
-0.016579658 0.05515644 -0.056974247 0.030452864 0.16803347 -0.043073323 0.12956995 0.111321844
-0.24841318 0.101236485 0.32686695 -0.08129154 -0.0803803 0.17131528 0.15072112 0.23174827
-0.056942362 -0.08061454 -0.045430064 0.07370512 0.108928725 -0.15310937 0.17697798 0.12666568
-0.02877309 -0.055538043 0.23224056 0.037021056 0.11466419 0.10655509 -2.938107 -0.2377085
-0.33576098 0.031717148 0.094360285 0.09543616 0.34918225 -0.24770485 0.36783594 0.008784434
-0.6390018 0.18292683 0.1902761 -0.066455945 0.22395901 0.17584787 -3.1099818 -0.15750791
0.20796397 -0.6788727 -0.3792251 0.79793566 -0.39912814 0.04596614 0.013426269 0.018727016
-1.3512753 -0.7159035 -1.1417928 -0.057567418 -1.4429597 -0.07429507 0.30195856 -0.21066143
-0.007230864 -0.12546355 -0.063916415 -0.22374763 0.00027309774 -0.18219328 0.108268544 0.22111528
-0.36004958 0.23164888 0.2731001 -0.27822912 -0.1795021 -0.015843537 -0.26418045 -0.20759231
-0.3805069 -0.10473648 0.072519585 0.15695217 0.2985964 -0.14785941 0.24733235 0.044880938
-0.7232847 0.18673909 -0.059356723 0.019470708 0.34679365 0.016455336 -3.406293 -0.24716707
-0.07879486 -0.27107924 -0.08761919 0.41166526 -0.014124966 0.09643304 0.40547547 -0.114623085
-0.5283591 0.18728246 -0.07532799 -0.07697549 0.28869152 0.21428777 -0.019262563 -1.1318561
-0.049314775 -0.26411486 -0.0402437 0.5696345 0.08833677 0.027967554 0.3464653 -0.27862507
-1.120554 -0.12999208 -0.2057786 0.1114524 -0.12621509 -0.12982213 0.442737 -0.20307983
-0.37385505 -1.0128525 -1.0392051 -1.6620287 -0.5919611 -0.0085591795 -0.5879237 0.21119763
-0.22848773 -0.80576146 0.6951314 1.4393023 -0.08508685 -0.0133315185 0.97584206 -0.48877043
-0.086666636 0.22859694 -0.08853124 0.16194008 -0.24568477 -0.37790605 -0.2601822 -0.112534754
-0.059396002 0.03856391 0.15511549 -0.18626821 -0.007473158 -0.07945558 0.13068889 -0.18613416
-0.8090524 0.399835 0.17935963 -0.3930117 0.29801062 -0.005273237 -0.5734813 -0.2303104
-1.4506885 -0.2673873 0.3716243 0.5897986 -1.4026855 -0.2600835 -0.39569277 0.28225031
-0.13152362 0.121886805 0.08666361 0.092567615 0.10546188 -0.06551331 -0.08273751 -0.050922934
-0.19762386 0.13024746 -0.091193795 -0.30710074 -0.13926949 0.054732133 0.18499991 0.109474845
-0.26082692 -0.13683182 -0.22469941 0.34114453 0.26962516 -0.121393725 0.32927015 0.1553133
-0.3201805 0.24525994 -0.04883802 -0.012225895 0.40986124 0.18042096 -2.9830139 -0.79777294

layers.2.weight f4 [4, 16, 16]
00000000: d5f3 ffbd ca83 1c3f edcc b2bf 3f14 c2bd
00000010: 3636 7abf 85bd 1d3e d935 c2bd b08c 5a3c
00000020: a783 b73e 78fb abbe ce59 d13d c6c9 643e
00000030: 2676 80bd 9dc3 f33d 4ad9 43c0 0dfb a53e
00000040: b2b9 1e3e 6807 d23e fa80 e63d 31ec 95be
00000050: 24d2 e6bd f24c 003e 8b08 4cbf d4a5 8bbd
00000060: 7c97 353e d4ac 21be 7865 f93d 3289 2f3e
00000070: 4d62 7b3e a7ce 2dbe 9f32 17c0 feb5 0e3f
00000080: 3471 b53e 133a a5bd 79b7 fabe 7a00 febe
00000090: b414 c13e bc85 613f 3518 01bf 1dd0 1abe
000000a0: 3776 273f c36e 223f 6649 013e 6218 013f
000000b0: 692b 0cbe 7053 fbbb 2e95 b5bf 9984 413e
000000c0: 881d dbbe 7354 123e 1171 603d ff1d 55be
000000d0: b2a0 253e 6b8e cdbe f52e 8ebd b89c b93e
000000e0: 72aa 8fbd 521b 46be 267e a83e d9bb b2bd
000000f0: c566 2cbe ee03 153f 7fc8 123f 1061 d4be
00000100: b8c3 1b3e 7ceb 5b3c b41c 303e b958 d9be
00000110: 8b9f 2b3e 2492 0dbe 5d74 8f3e 24dd 91bc
00000120: 0e64 3c3e 107f 903e e47e 723e e11d 5dbe
00000130: 1c61 85bd 8528 a53e 6238 9abd 14e6 13bf
00000140: 1448 9cbe 9a19 9c3e db34 88be bff6 91bf
00000150: 6b4a c73c db96 9cbe 87c0 3abf 8c1a 32be
00000160: 3152 dd3d 002f 293f aafc 673e 9e74 233f
00000170: aeed 503f ffe3 c53d 0cfd 3fbf 2d4a 523f
00000180: bbab 82bd e714 86be 7dde a9bd 758e 6bbc
00000190: 93ee f93d 0211 43bf 9231 c33e 3968 f8bd
000001a0: d999 17be 8a83 e4bd 1980 a03d 2cdb a2be
000001b0: d566 163d a383 80be 0385 bb3e 2c5c fdbe
000001c0: c83a 343d 6481 f63e a1cd e03e 99ed 38bf
000001d0: c44d 69be 3ba1 123b d313 febf 1c57 863e
000001e0: 4c55 9abe 2e66 513e 3336 a23e 46c4 e33d
000001f0: fb38 723e 2aae 713e 8a29 9abe 4189 eb3d
00000200: 88cb a13d 5e7c 8e3f e6ae d43e bbac 8e3e
00000210: 8fd5 3240 a35e 8f3e 3219 0ebf cbb6 76bf
00000220: 1115 88be f933 d8bf cb9f 28bf 431d 83c0
00000230: c561 29bf 9dae ecbf a31d 6940 38ec 05c0
00000240: 02e7 7b3e 1065 673e e1fc 07be 3b2e b0be
00000250: 1741 903d f5ab 103f 1832 4d3e f49b fa3e
00000260: 6cb1 613d 4073 963e 14c7 043e 048c 943e
00000270: 4ef1 80be 55e7 08bf 9bf3 a0be 5a09 d83e
00000280: 4c49 ed3e 437e 223e aa0a 11bf b9d0 ac3e
00000290: 60b0 5d3e 3c46 7c3f e8c1 99bf df21 523e
000002a0: 48ab 4c3e 91ff 563f b9a2 41bc d6a0 e23e
000002b0: 87f1 c1be 52c5 acbe e9bd b7be 0212 d83e
000002c0: 3855 133e e57b 973e 2a59 71be 2c9e e8be
000002d0: 07a0 4c3e f218 34bd 036d c03d 2cd6 413c
000002e0: 4327 f3bd 68e2 c5be bcb5 983e d3e0 e5be
000002f0: 85b0 0f3d 9163 e23e eb58 323d 6363 adbe
00000300: 9904 83bd e35b 21be 50a0 063f 6c24 1dc0
00000310: 69c1 29bf fc27 7b3f b63c bd3e 0afa 9fbe
00000320: 0642 783e f1c7 6bbe a3cc 983d af31 72be
00000330: f844 363e 451a babe 8add cfbe dba4 14bf
00000340: a504 84bd 7a8f dfbe 15a6 5cbe 0b76 b1be
00000350: 1ba4 603e 9873 febf 36f7 02be aefa 16be
00000360: 969a a03c ab1f aabe acff 043a 2289 33bd
00000370: 65d8 133e dbae e0bc 9c77 65be 5ee6 ee3d
00000380: 2082 9abe cbfd 453f 9046 8a3f b608 2bbf
00000390: d74d 373f 4a9f 613d ac3d 86bf cce7 8abe
000003a0: 644e a5bf 574c c1be f703 0e3f 7de2 d43c
000003b0: 08e1 50bf 2fe3 4fbe aaea 83bc de44 3e3c
000003c0: 8457 a23e eadc 05c0 d1a1 d6bf b743 cabe
000003d0: a343 2b3d 77ef ba3d e799 a9bf 282a 1a3e
000003e0: ebab 063d f80b e63d 4223 78bf 1fb9 f3ba
000003f0: bb45 fabd c15e 173f 0df6 063f 9857 e73e
-0.12497679 0.61138594 -1.3968788 -0.09476518 -0.9773897 0.15404327 -0.09482927 0.013339207
0.3584263 -0.33590293 0.10222207 0.22342595 -0.06272535 0.11902545 -3.0601373 0.324181
0.15500525 0.41021276 0.11255069 -0.29281762 -0.1127055 0.12529352 -0.79700536 -0.068187386
0.17733568 -0.15788585 0.12177557 0.1714218 0.24549218 -0.16973363 -2.3624647 0.5574645
0.3543793 -0.080677174 -0.48968104 -0.4960974 0.37711108 0.8809469 -0.5042756 -0.15118451
0.65414757 0.6345026 0.12625656 0.5042783 -0.13688435 -0.0076698586 -1.4186151 0.18898238
-0.42795968 0.14290027 0.05479533 -0.20812224 0.16174582 -0.4014772 -0.0694255 0.3625238
-0.07014932 -0.1934636 0.32908744 -0.08727235 -0.16836078 0.5820912 0.5733718 -0.41480303
0.1521138 0.013422843 0.1719845 -0.42450503 0.1676008 -0.1382528 0.28018466 -0.017805643
0.18397543 0.2822194 0.23681217 -0.21593429 -0.06512663 0.32257476 -0.075302854 -0.57772946
-0.3052374 0.30488282 -0.26602826 -1.1403426 0.024327477 -0.30583844 -0.72950023 -0.1739294
0.108066924 0.6608734 0.22654977 0.6384982 0.8161267 0.096626274 -0.74995494 0.82144433
-0.06380411 -0.26187822 -0.082943894 -0.014377226 0.122037075 -0.76197827 0.38123757 -0.12129254
-0.14804782 -0.111579016 0.07836933 -0.3180784 0.036719162 -0.2510043 0.36624917 -0.49484384
0.04400137 0.48145592 0.43906882 -0.72237545 -0.22783571 0.0022373933 -1.98498 0.26238334
-0.301432 0.20449135 0.31681976 0.111214206 0.23654549 0.23601595 -0.30109817 0.115007885
0.07900149 1.1131704 0.41539687 0.27866158 2.7942846 0.2800189 -0.55507195 -0.9637267
-0.26578572 -1.6890861 -0.65868825 -4.097322 -0.6616481 -1.8490788 3.642434 -2.0925426
0.24599841 0.22597146 -0.1328006 -0.3441027 0.07043665 0.56512386 0.2003864 0.48947108
0.055100843 0.29384804 0.12966567 0.29013073 -0.251841 -0.53477985 -0.31435856 0.42194635
0.46344984 0.15868478 -0.566569 0.33752993 0.21649313 0.9854467 -1.20123 0.20520733
0.19987214 0.83983713 -0.011818581 0.44263333 -0.37879583 -0.33744293 -0.35887077 0.4220124
0.14387977 0.29586712 -0.2356917 -0.45433176 0.1998292 -0.043969102 0.09395792 0.011830848
-0.11872723 -0.38649297 0.29826152 -0.4489809 0.03508045 0.44216588 0.04354183 -0.3386489
-0.06397361 -0.15757708 0.5258837 -2.455348 -0.66310745 0.98107886 0.3696038 -0.31245452
0.24243936 -0.2302549 0.07460906 -0.23651765 0.17799747 -0.36348167 -0.40598708 -0.5806405
-0.064461984 -0.4366415 -0.2154773 -0.34660372 0.21937601 -1.9879026 -0.12789616 -0.14744064
0.019604962 -0.33227286 0.00050734985 -0.043831952 0.14438017 -0.027427128 -0.22408909 0.11665033
-0.30177402 0.7734038 1.0802784 -0.66810167 0.7160315 0.05508355 -1.0487571 -0.27129972
-1.2914548 -0.37753555 0.554748 0.025986904 -0.8159337 -0.20301507 -0.016103107 0.011613099
0.31707394 -2.0916085 -1.6768132 -0.39504787 0.04181255 0.091277055 -1.3250092 0.15055144
0.032878798 0.112327516 -0.969288 -0.0018594599 -0.12220331 0.5912896 0.52719194 0.45184016

layers.3.weight f4 [4, 16, 16]
00000000: 7e37 433e ed1b 113e 4611 47bf 1f3c 283e
00000010: f503 09be 90b1 dd3e 8752 cabd 8f3c cabe
00000020: 4a42 b6bd fb3c 3e3f e97f c9bf 834a e73e
00000030: ad6e de3e e0f2 52be 4e93 3fba 741f c53d
00000040: e53e 413d d53f 953e 7a59 b23e 2403 81bf
00000050: 59ca 423f 142f 14be 800e d23e 7459 413e
00000060: b427 43be 5349 103e f711 a3be f4fb 78be
00000070: 206e 35be a34a e7bc 5776 2ebf 9029 403e
00000080: 6ccf 1abf be11 463f f645 dd3e c292 c93e
00000090: d1ff 423e c2e4 22bf a1ad 863e 6819 49bc
000000a0: 6936 ac3d 9d41 3fbe f014 81bf 0475 9c3e
000000b0: bfaa ecbc 6c78 983f 357b 3c3e 72d6 d93e
000000c0: ab69 c63e b419 9f3f 1d6e 3dbe fdc7 8a3e
000000d0: a883 d53e 6886 683e 17ee 0bbf 7beb 6dbf
000000e0: 5dfe f13e 1019 adbe 211d 6fbf 3230 123e
000000f0: ffa5 91bf 2e8d bf3e 2b5c 633f 2824 f0be
00000100: d74b 253e a2fd 013c 66e3 813e 5ae3 3c3e
00000110: 3f1c f8bd 95c4 033d 5a72 30be 13c5 7d3e
00000120: e446 cab8 a943 e2be 7385 ec3e ee7b 3cbd
00000130: 7635 0dbf a7dd 7cbe 6920 043e eea4 65be
00000140: 7f1c 333e f452 30bf 6dda db3e 1497 69bd
00000150: eedf 003f b653 043e 6bc9 1e3f e8b0 cebd
00000160: 09b0 2b3f e10c c93d 64ea 4abf 68e8 473e
00000170: ef40 80bd 25e1 603f 2788 f2bf fd1a c93e
00000180: 87e8 013f 85a5 0abf 6e5c fc3d fb2c d8be
00000190: 8b05 673e d625 8fbf 094f 98be bf1e 2dbe
000001a0: 5c97 143f 26d9 b8bd 17ec c8be c904 38be
000001b0: 9e4b 083f 7b76 7c3e 5546 92be 0725 1a3e
000001c0: ef6a 9bbe 4ec7 2f3d f561 9c3d 62ab f8be
000001d0: a6a5 a4be da7a 59be 10fc e33e 4250 1fbe
000001e0: 38f8 7cbb 19d2 073f c637 1ebf 4419 f43e
000001f0: 318a d0be 14d7 b5bf 3ca4 e73c 5ead 7c3d
00000200: 6d46 d93e 0252 aa3c 2f1d 71bd 1f70 8c3e
00000210: 026f 4b3d d614 5d3f 36bf 8abe c075 4b3e
00000220: b278 283d 992c 8f3e c024 32bf 6dba 09bf
00000230: d85b 8dbe 09da 8bbf b799 6b3d da8b 09bf
00000240: b53e 94be 2765 2d3e 791f 393d 2d9a 1e3e
00000250: 020a 9c3e 2a4a 543e d24e 15bf ed95 f53e
00000260: 30be d6be fbe9 59bd 362b 313f 5cae 65be
00000270: b16c b7be a8a0 4abe 4a30 61bc 6710 32bf
00000280: c47c 453e 6365 463e f7d5 0a3e bedd d93c
00000290: d2ed a23c a1ed 3fbd b74c 553e 5fe4 b23e
000002a0: 7bf1 ca3e 921c 7fbe 28f8 1f3e 68aa 58be
000002b0: f375 55be ac67 22bf ce60 373e 719c aa3e
000002c0: 5888 c73c e8eb cc3e 3c02 253f 148f 09be
000002d0: 6e09 b83e 86f3 0f3d b585 003f 6e50 363e
000002e0: 52ad 53be c320 fa3e b79b af3e 0071 8ebe
000002f0: acf9 0e3e 9cd0 9b3d 52e5 e83e f5f6 f03a
00000300: 4489 9a3d a56e ba3d b23f 3c3e 246f 923d
00000310: a9b2 c83e db90 f33d 2942 eabe c4d5 aa3e
00000320: c31e 7c3e 14f7 8c3e bc56 e1bf 5e85 8d3e
00000330: 2843 26bf fb4b 4abe c552 6bbf 06b2 17be
00000340: 64f7 1d3d c07a b4bd 041a b7bc c9c6 cdbe
00000350: 7e1d 6dbe 1cd4 07be 711a 013f 79da 5e3e
00000360: 2999 813e ec2d 28be 058d abbe df9b 9d3d
00000370: a59c 1fbf e572 d53c f05b 723c 50f7 0c3d
00000380: 7288 1bc0 80ba 1ebf d1da 27bf 19f3 b3bf
00000390: 02d8 ddbe e238 1ebf ef18 7e3b 0d30 c83d
000003a0: 4d24 a2be ef4a 963e 09cb 4a3f 1ee3 183f
000003b0: f488 12c0 d70d bebe 9936 e93e 190f 68bd
000003c0: 27b9 efbe 0092 9f3d 36e3 95be 0e06 7d3d
000003d0: ce09 a8ba 3e0f e8be c71f d93e b7a6 9ebd
000003e0: 833a b13e 2c7c 05be c38d 81c0 647f 093d
000003f0: 3307 b7be 54db 023e d639 f6be 742a adbe
0.19064137 0.14170809 -0.7776073 0.16429184 -0.13380416 0.43299532 -0.09879022 -0.39499328
-0.088993624 0.743118 -1.574216 0.45174035 0.43443814 -0.20600462 -0.0007308022 0.0962514
0.04717912 0.29150262 0.3483389 -1.0079083 0.7609001 -0.14471084 0.41026688 0.1888178
-0.19058114 0.14090471 -0.31849644 -0.24314862 -0.1771779 -0.028233832 -0.6814932 0.18765855
-0.6047275 0.7737082 0.43217438 0.3936978 0.19042899 -0.63630307 0.26304343 -0.012274124
0.084088154 -0.18677373 -1.0084515 0.30558026 -0.028890012 1.191175 0.18406375 0.4254642
0.38752493 1.2429719 -0.18499036 0.27105704 0.41702008 0.22707522 -0.5466017 -0.9293744
0.47264376 -0.33808184 -0.9340382 0.14276198 -1.1378783 0.374124 0.8881251 -0.46902585
0.16142212 0.007934006 0.25368804 0.18446103 -0.121147625 0.032169897 -0.17231122 0.24782209
-9.645315e-05 -0.44192246 0.46195564 -0.046016626 -0.551597 -0.24693929 0.12902988 -0.22426197
0.17491339 -0.68876576 0.42940083 -0.057028845 0.5034169 0.12922558 0.6202609 -0.10092336
0.67065483 0.098169096 -0.792639 0.1952225 -0.06262385 0.87843543 -1.89478 0.39278403
0.50745434 -0.5415881 0.12322317 -0.42221817 0.22560708 -1.1183422 -0.297478 -0.1690626
0.58043456 -0.09025793 -0.39242622 -0.17970575 0.5324038 0.24654572 -0.28569284 0.15053187
-0.3035502 0.04291468 0.07635871 -0.48568255 -0.3215763 -0.2123827 0.44528246 -0.1555796
-0.0038600098 0.5305496 -0.61803854 0.47675526 -0.40730432 -1.4206262 0.028276555 0.061688773
0.42436543 0.020791057 -0.058865722 0.27429292 0.049666412 0.8635992 -0.27099007 0.19869137
0.04113073 0.27963713 -0.69587326 -0.5380009 -0.27609134 -1.0925914 0.05751964 -0.5372902
-0.28954092 0.16933118 0.04519603 0.15488501 0.30476385 0.20731416 -0.58323395 0.47965947
-0.41941977 -0.053201657 0.6920656 -0.22429794 -0.35825112 -0.19787848 -0.013744423 -0.6955628
0.19285876 0.19374613 0.13558184 0.026594993 0.019888792 -0.04685748 0.20830046 0.34939858
0.3963736 -0.24913242 0.15622008 -0.21158755 -0.20845775 -0.6343944 0.17908022 0.3332248
0.024357006 0.40023732 0.64456534 -0.13433486 0.35944694 0.03514435 0.5020402 0.17804119
-0.20671585 0.4885312 0.34298488 -0.27820587 0.1396243 0.076081485 0.45487458 0.0018384146
0.075457126 0.09103135 0.18383673 0.07150105 0.39198807 0.11892863 -0.457536 0.33366215
0.2462111 0.27532256 -1.7604594 0.27640814 -0.6494622 -0.19755547 -0.9192317 -0.14814004
0.03856601 -0.08812475 -0.022351272 -0.40190724 -0.23155782 -0.13264507 0.5043097 0.21763028
0.25312164 -0.16423768 -0.33506027 0.07695746 -0.62348396 0.026055763 0.014792427 0.034415543
-2.430203 -0.62003326 -0.6556826 -1.4058563 -0.43328863 -0.61805546 0.0038772186 0.0977479
-0.3166832 0.29354045 0.7921606 0.59721553 -2.289609 -0.37119934 0.45549467 -0.056655023
-0.46820948 0.07791519 -0.2927491 0.061773352 -0.0012820305 -0.4532413 0.42407057 -0.07746642
0.34614953 -0.13035649 -4.048555 0.033568755 -0.3574768 0.1277898 -0.48091 -0.33821452

layers.4.weight f4 [4, 16, 16]
00000000: 3eac 433e 373e 37be 5534 a83d f0ad f1bf
00000010: ffa5 843e 4cd1 03c0 9d9d 2f3d 6d1d a5be
00000020: 85aa d8bf ae64 b1bd 3573 12bf 04df 7dbd
00000030: 64e2 9bbf 9901 4c3f c40c 543e 3981 b73d
00000040: 907c b8bd 9017 b6be f567 d2be 1e69 cabe
00000050: 25fd 3abd 00d2 fcbe 9958 b8bf eeac 313e
00000060: d9ed 73bf b294 283e b7a7 043f 538a 153d
00000070: ba8a e83c 27d4 1ac0 8b48 8cbe cae9 1a3f
00000080: 2847 db3e d4fd 35bf 9581 373d 1cb8 fabe
00000090: 7f40 1fbe 6625 e53e 9a53 84bf 5de6 ef3e
000000a0: a961 b83e c5bf 193f 27bc b53d 3c8e a7be
000000b0: afbe 6abe 9301 febd 74e6 f83e a60a 6bbe
000000c0: 8c63 363c 83a3 63c0 2774 1dbd c8fc 6dbf
000000d0: faf4 7cbe a59e 8c3e 36b4 1e3f 364e 00bf
000000e0: 0255 7abf d862 92be ed3f 46bc 8738 a93e
000000f0: f8dc cebf 4385 5b3f bdd5 2abe 5654 48bf
00000100: c2cf 2a3e 8800 3f3e 2ec1 0a3f ee37 813e
00000110: d76c 403d fe66 8fc0 5cf3 53bf 521c eabc
00000120: 545f 543d 4f38 533e 46a5 ab3e ac01 4f3e
00000130: 303f ba3e e279 27bf 1e43 473d 0d1c fabe
00000140: e2ec 923e 7e0b 3cbd 60ef 423e ffaa 6ac0
00000150: b1ed e23d 8ff2 933e e7b5 c7bd ac78 463e
00000160: 5c53 cdbe d37e 6cbd 1f01 563d 5ab8 fd3e
00000170: 7477 2ebe e277 12be 4576 dabe 6800 473e
00000180: 34d3 3d3e 0860 ab3e 87f7 a43e fae6 78be
00000190: f95c d3bd a988 bd3e 5277 c1be e1c4 7d3e
000001a0: 5c21 0dbf 4129 3c3e 5c4c 88bf aa70 373e
000001b0: 42e2 aa3e e311 a9be a61d d1bd 5801 693e
000001c0: a949 c53d 3d9c 22be d63e e5bd 3056 20bf
000001d0: 9751 d03d abd0 8abd 1793 84be 6af2 63be
000001e0: ae20 173f 4d1b 67be afea 2fbf 7b45 07bf
000001f0: c0eb 84bf 543d 88bf f108 f9be b6ca 553e
00000200: 682e cbbe 86a0 40bf 8a0d 0dbe e5f1 b6be
00000210: 53ee 54be c156 be3d 1c8e f5be 1595 c33e
00000220: 5eca 76bd 6155 193e 7f05 a73e bf44 93be
00000230: d3b2 12bf bd5e 463c 39b8 973c c981 ab3e
00000240: 8f36 41bc e704 283d c8ec 12bd 2ee2 bdbe
00000250: b7d7 4f3f e028 05be 157e 9fbe 6cc0 49be
00000260: 53fc 053c 794b c4bd 13fb 8c3d a29c b73e
00000270: 2a7c 97be 88bd bfbd 8664 a3bd 90cd 4d3e
00000280: cf41 e9bd 9b78 793f dffd 2140 7a87 11be
00000290: 111e a23f f48e 773e 3c83 a9bd fa22 89bf
000002a0: 3df7 24bf bfdb 1a40 c2da e1c0 187e 1cbf
000002b0: 11a6 fa3e 8008 16bf 0a88 aebe bcbb 1640
000002c0: d7b1 083e d4ea 20be f5a5 f5bd 6f8e e43d
000002d0: c1a4 dfbe 5a3d c2be 991a 74bf 089e be3d
000002e0: 31fb 1ebe 86f7 053f 4205 e5bd c5a6 7a3e
000002f0: 5a0d d03d b1ce ecbe acc0 14bd cf67 f33e
00000300: 7991 89be 8a07 d53e d9e3 c0bf 16a4 babf
00000310: 00c0 393f 0f47 16bd f6b4 10bf 27bc f1bf
00000320: a4df e2be e2b6 5dbe 2339 813f f42a f43e
00000330: 4d5d 26c0 1a1e 34be 9457 e1be f7d0 45bf
00000340: fdfc 3cbf c78a 3f3f 2679 85be 7644 b53f
00000350: 3089 303f 63b9 1f3e ea4f 023f b5a6 0c3f
00000360: 4f90 873d 6968 283e 4aae 9dbf 3d28 62be
00000370: 4914 6f3e f710 f83e 6e46 913e 865b 39be
00000380: a9b3 37bd b5c1 343d 1cda 3b3d 993e a3be
00000390: b783 973d 7042 a03d 13c5 aebf 3b4d 81be
000003a0: 179c a1bf 9ef2 acbe e0db b0be a364 20be
000003b0: cc90 18bf 6dca 8cc0 aab3 b3be ddbd 00bf
000003c0: c6d6 8ebe df01 8b3e bca0 873e c327 143f
000003d0: 31e5 063e d20a 32c0 bfdc 073f 9c51 57be
000003e0: ac55 9ebe 58e6 29bf 5caf f3bd 5164 0e3e
000003f0: 5f15 92bf 4af5 6e3e 712e 84be aac2 dabd
0.19108674 -0.17894827 0.082131065 -1.8881207 0.25907895 -2.0596495 0.04287492 -0.32249013
-1.6927038 -0.08661781 -0.5720704 -0.061980262 -1.2178464 0.7968994 0.20707995 0.08960194
-0.090081334 -0.35564852 -0.41094938 -0.39533323 -0.045651574 -0.49378967 -1.4402038 0.17351124
-0.952848 0.16462973 0.5181841 0.03650887 0.028386462 -2.4191988 -0.27399096 0.60512984
0.42827725 -0.71090436 0.044801313 -0.4896859 -0.15551947 0.44755095 -1.0338013 0.4685544
0.3601201 0.6005824 0.08873778 -0.32725704 -0.22924303 -0.12402644 0.48613322 -0.22953281
0.011132132 -3.556855 -0.03844085 -0.9296384 -0.24702826 0.27464786 0.6199373 -0.5011934
-0.9778596 -0.28591037 -0.012100202 0.3305094 -1.6161184 0.85750216 -0.16683097 -0.78253686
0.16680816 0.18652546 0.5420102 0.25237983 0.046978798 -4.4813223 -0.8279321 -0.028577957
0.051848724 0.20626949 0.3352453 0.20215482 0.36376333 -0.65420353 0.048647992 -0.48849526
0.28696352 -0.045909397 0.19036627 -3.6666868 0.11080492 0.28895995 -0.09751492 0.1938197
-0.4010266 -0.057738137 0.052247163 0.49554712 -0.17037755 -0.14303544 -0.42668357 0.19433749
0.18537599 0.33471704 0.32220098 -0.2430686 -0.103204675 0.37018326 -0.37786347 0.24782135
-0.5512903 0.18375112 -1.0648303 0.17914072 0.33375746 -0.3302146 -0.10210733 0.22754419
0.0963319 -0.15879913 -0.11193626 -0.6263151 0.10171812 -0.067780815 -0.2589347 -0.22260442
0.5903424 -0.22569008 -0.68717474 -0.52840394 -1.0384445 -1.0643716 -0.48639634 0.2087811
-0.39683843 -0.7524494 -0.13774696 -0.35731426 -0.20794038 0.09293891 -0.47959983 0.38199678
-0.060251586 0.14973976 0.3262138 -0.28763387 -0.57304114 0.012107548 0.018520461 0.33497456
-0.011792793 0.0410203 -0.035870343 -0.37086624 0.8118853 -0.13003874 -0.3115088 -0.1970231
0.008177835 -0.09584708 0.06883826 0.3586169 -0.29586917 -0.09362322 -0.07978158 0.20097947
-0.11389505 0.97449654 2.53112 -0.14211836 1.2665426 0.24175626 -0.08276984 -1.0713799
-0.64439756 2.4196622 -7.057954 -0.61129904 0.48954824 -0.5860672 -0.34088165 2.3552084
0.1334909 -0.1571458 -0.119945444 0.111599796 -0.43680385 -0.37937433 -0.95353085 0.09307486
-0.1552551 0.52330816 -0.111826435 0.2447768 0.101587966 -0.46251443 -0.03631656 0.47540137
-0.268688 0.41607314 -1.5069534 -1.4581325 0.72558594 -0.03668886 -0.56526124 -1.8885545
-0.4431125 -0.21651796 1.0095562 0.4768902 -2.5994446 -0.17589608 -0.4401213 -0.7727198
-0.7382353 0.7482113 -0.2606899 1.4161518 0.6895933 0.15598063 0.5090319 0.54941875
0.066193216 0.1644608 -1.2318814 -0.22085662 0.23347582 0.48450443 0.28374046 -0.1810132
-0.04484907 0.044130046 0.045862302 -0.31883696 0.073981695 0.07825172 -1.3653892 -0.25254235
-1.262576 -0.33778852 -0.3454275 -0.1566339 -0.5959594 -4.39971 -0.3509801 -0.5028971
-0.27898234 0.27149865 0.26489818 0.5787317 0.13173367 -2.7819104 0.53071207 -0.21027225
-0.30924737 -0.663671 -0.118986815 0.13905455 -1.1412772 0.23335758 -0.25816682 -0.106816605

layers.5.weight f4 [4, 16, 4]
00000000: 51f8 743d 1be4 793e f75b adbe 82b1 a0bd
00000010: bae1 213f 6a81 fabe 2c16 bebe 6ac4 d4be
00000020: be79 81be 18b0 3fbe 9f7a d23d 246d 343e
00000030: 1374 813f 464a f3bf ce9b aebf 5994 29bf
00000040: 049d e7be d486 72bc aae5 0f3d f60a f23e
00000050: 0586 d93e 79ed 0b3f 7375 81bf f43f 99bf
00000060: f510 113f 6a6b c33f c8bd 51bf 6a22 e6be
00000070: 0274 3b3e e536 cc3d 0360 5fbd c887 ce3e
00000080: c324 11bf 268c 47bf 4c77 0e3f fdad fa3f
00000090: bf3d adbe 6e43 5c3d 4522 bcbd 7470 653e
000000a0: 9be2 023e 1ea8 c4bd 53a2 32be 1a5d 91be
000000b0: 4db6 a03e e08b 2a3e 08f9 71bd baf3 a8be
000000c0: 0c1e 6b3e 44c4 5cbd 74ff c33e 508b 983f
000000d0: 55d6 103f fea8 6dbf 2066 70bf e9f0 53bf
000000e0: 2911 2c3f ffc7 8cbe a2ed 45bf 222b 01bf
000000f0: 9fac 2d3e 4a9e d43d ac0b 8f3e 4860 12be
00000100: 4dbe c4bc d18b 1d3f 0434 d83e a86e 933e
00000110: 69ec 96bf a732 f9be dce1 603f edec 23be
00000120: 73d2 ca3d 554e 3d3f 46e7 823e 7abc 59be
00000130: 5c5f 7abe c7eb 933d c9d6 663e d8b6 f4be
00000140: d410 303f aaec b7be 11bc 88bf d009 4bbf
00000150: 4e4d 18c0 13aa 113f 3675 4040 05ee 843f
00000160: 9360 b4bd 0920 aebd 0bd1 c1bc 1f29 ce3e
00000170: 5bef 74be ff79 803f 6b9b 733f 26a1 b83e
00000180: 5df0 ac3e dd7a 3c3f 7dd6 013f e6c4 5f3f
00000190: 5f30 1dbf 8e63 e43e 6c02 3f3f 9699 183f
000001a0: 7200 9c3e 726b 32bf e2ca 70bf 205c 31bf
000001b0: 74e3 86bf e701 96bd 2b8b 793f 6d71 553f
000001c0: 9fe9 a9bd 3073 553e 29ae ebbe b843 45be
000001d0: c5ac 3b3f 1cf1 debe 211b c9be c768 d8be
000001e0: f031 a63f 7442 97bc 0dcd acbf a908 87bf
000001f0: 4de6 703f 35b4 07bf b482 f7bf 148d 2ebf
00000200: 3790 343f 6cee babf cd6b b3bf 7895 bebf
00000210: 076b bd3e 46be 863f 2550 45bf e0a5 2bbe
00000220: 946d b93d c79a 493f 407b 21bf 8aa1 f4be
00000230: 8bd8 c13d ff06 d93e abf1 ca3d e31d 26be
00000240: 18a7 033f 1dad 353f ed3b 45be 5bfd e63e
00000250: f804 00bf 5af7 97bf 7ad0 2c3f a665 e63e
00000260: 3c34 bebf 5941 523e c396 d13f ecd8 b33f
00000270: 826e e83e 8b76 203e 86fa 54bf bc43 a5bf
00000280: 926b 5fbf 8744 4a3e e71a 283f b9f1 37be
00000290: c87c 063f 458d bc3e 775e 1b3f ecc0 463f
000002a0: 1759 c6be fe8c 2a3e 4df1 893f 5b77 183f
000002b0: 2b23 7fbe 3362 1dbf eabd b03e c8d1 07bf
000002c0: af92 923f c654 21be 6d15 f4be fcbf 56bf
000002d0: 8ed3 463e b4ff c93e fdff 423d ab06 78be
000002e0: b816 6cbe a2c1 b93e cdd8 b6bd 33dc e23c
000002f0: f72f 8bbf 57b1 233f 3b9e 523f d771 813f
00000300: 4e7d 63bd 761b acbe 467c 09bd 02d5 04bf
00000310: ef83 923f 18ce febe 71b1 8abf 6c0d 45bf
00000320: e748 af3e b97b 7bbd 8e38 04bf 234d a0be
00000330: 7f0c c9be 7507 b13f 7a03 273f 16e5 c73f
00000340: 79ac f93e efee 2f3f a501 9dbe 327d 22be
00000350: ce8e 803f 717b fe3e d774 9bbf e352 b9bd
00000360: c8e6 3cbf f403 543e 9b25 5a3f 9b94 263f
00000370: d7f8 8f3f da90 71bd 8699 8bbf 8ec7 813e
00000380: 960c 3fbf c06d f2bd 5390 663f cc4b 783e
00000390: a597 cbbe fe37 273e 178e a93e 343a 9f3e
000003a0: f302 b5be b1e8 f2bd 312b 493e a658 1a3e
000003b0: 4085 0fbe 4a32 7b3e a408 4a3f 06f3 c03e
000003c0: 4e6a 1f3f 9c58 0a3e a8bc 29bf f8b0 acbe
000003d0: 2715 b13f 86e7 b03f 23ed a3bf d2bf 20bf
000003e0: c5fe c03d 0828 02be a937 b93e ad2c 2d3d
000003f0: 9b9c afbc 7ab5 31bf 7cf0 6abe 14d7 00bf
0.059807125 0.24403422 -0.33859226 -0.07846357 0.63235056 -0.4892686 -0.3712629 -0.41556102
-0.25288194 -0.18719518 0.10277294 0.17619759 1.0113548 -1.9007041 -1.3641298 -0.66241986
-0.4523698 -0.014802653 0.035131134 0.47273988 0.4248506 0.5465923 -1.0113968 -1.1972642
0.566665 1.5267155 -0.8193021 -0.4494813 0.18305972 0.09971408 -0.054534923 0.40337968
-0.5669672 -0.77948225 0.5565078 1.9584347 -0.3383617 0.053775243 -0.09186224 0.22406179
0.12781756 -0.09602378 -0.17444734 -0.28391343 0.31389084 0.1665492 -0.059075385 -0.3299845
0.2296068 -0.05389811 0.38280833 1.1917515 0.56577045 -0.92835987 -0.9390583 -0.82789475
0.67213684 -0.27496335 -0.77315724 -0.5045644 0.16960381 0.10381754 0.27938592 -0.14294541
-0.024016524 0.6154147 0.42227185 0.28795362 -1.1790897 -0.48671457 0.87844634 -0.16008349
0.09903421 0.7394765 0.25567073 -0.21263304 -0.24450439 0.07222705 0.22542872 -0.4779575
0.6877568 -0.35922748 -1.0682393 -0.7931185 -2.3797183 0.5690014 3.007154 1.0385138
-0.088074826 -0.08502204 -0.02365925 0.40265748 -0.23919432 1.003723 0.95159024 0.36060447
0.33777133 0.73624974 0.5071791 0.8740982 -0.61401933 0.44607204 0.7461307 0.59609354
0.3046909 -0.696952 -0.94059575 -0.69281197 -1.0538163 -0.073245816 0.9747798 0.833762
-0.08296513 0.20844722 -0.4603131 -0.19264114 0.733105 -0.43543327 -0.3927851 -0.4226744
1.298399 -0.018464305 -1.3500077 -1.0549518 0.9410141 -0.5300935 -1.9336762 -0.6818402
0.70532554 -1.460401 -1.4017273 -1.4889364 0.36995718 1.0526817 -0.77075416 -0.16762495
0.090541035 0.78751796 -0.6307869 -0.47779495 0.094651304 0.4238815 0.09909376 -0.16222338
0.5142684 0.70967275 -0.19261141 0.4511517 -0.5000758 -1.1872361 0.6750561 0.44999427
-1.4859691 0.2053274 1.6374134 1.4050574 0.4539681 0.1567022 -0.8319477 -1.2911296
-0.87273514 0.19752704 0.6566605 -0.17963304 0.5253415 0.3682653 0.60691017 0.77638125
-0.38739845 0.16655347 1.0776764 0.5955712 -0.2491576 -0.61477965 0.34519893 -0.53054476
1.1451014 -0.15754995 -0.47672597 -0.83886695 0.19416639 0.39452899 0.04760741 -0.24221294
-0.23055542 0.36280543 -0.0892807 0.02769289 -1.0874013 0.63942474 0.8227269 1.0112866
-0.05553942 -0.336147 -0.033565782 -0.51887524 1.1446513 -0.49766612 -1.0835401 -0.76973605
0.34235308 -0.061397288 -0.51648796 -0.3130885 -0.39267346 1.3830401 0.6523968 1.5616786
0.487644 0.6872396 -0.30665317 -0.1586807 1.004358 0.49703553 -1.2145032 -0.090490125
-0.73789644 0.20704633 0.8521363 0.65070504 1.1247815 -0.05897603 -1.0906227 0.2534756
-0.7462858 -0.118373394 0.9006397 0.24247664 -0.39764133 0.16329953 0.33116218 0.31099093
-0.35353813 -0.118607886 0.19645382 0.15072879 -0.14015675 0.24530903 0.78919435 0.37685412
0.62271583 0.13510364 -0.6630349 -0.33728766 1.383458 1.3820655 -1.2806743 -0.62792695
0.094235934 -0.12710583 0.36175278 0.042278934 -0.02143698 -0.69417536 -0.229433 -0.50328183

attn.fc.weight f4 [4, 4]
00000000: 5e4a a5bc d953 d0be 50f6 373d 30f3 c1bc
00000010: f7f3 283f 4b68 02bc a84b 033d 610f 673f
00000020: 7070 d539 2c1e 21ba 6bc5 acb9 6642 6e3a
00000030: 53cb 5dbe 9d97 11bd 9b0e 953e 1cb2 e63d
-0.020177063 -0.4068897 0.044912636 -0.023675531 0.6599726 -0.007959436 0.032054573 0.9025784
0.00040710298 -0.00061461586 -0.00032953484 0.00090888736 -0.21659593 -0.03554498 0.29112706 0.112644404

attn.attn_fc.weight f4 [1, 8]
00000000: f856 893e 030a 11c0 5262 313b 2958 2bbe
00000010: 2ce6 2840 9c0f 0240 e354 c93c 1586 3d40
0.26824164 -2.266236 0.002706666 -0.16732849 2.6390486 2.0322027 0.02457661 2.9613087

dense.weight f4 [1, 4]
00000000: b24d 30bc a30d c33b 1eb6 9cb9 a24a 003e
-0.0107607115 0.0059525534 -0.00029890327 0.1252847
