saved_model_w/logp.pth (torch_old, 21140 bytes, 7 tensors)

layers.0.weight f4 [4, 40, 16]
000000 c8 41 90 bc aa ee 84 3d 9a d4 9a bd 21 79 83 bd
       -0.017609492 0.06490834 -0.07560082 -0.06419588
000010 ac cb cb bd 50 01 dd bc 29 58 84 bc da 58 98 bd
       -0.09950957 -0.026978165 -0.01615532 -0.07438822
000020 02 f8 8d 3d 18 77 f6 3c cf f3 b7 3d 87 b9 42 3e
       0.06932069 0.030086085 0.0898205 0.19016086
000030 62 df 0b 3d 34 91 8a 3d 7a 37 03 bd fe b0 80 3d
       0.03414858 0.067659765 -0.03203533 0.062837586
000040 84 7d f0 3d 80 f5 eb 3a 85 0d 05 3e c0 d5 15 bb
       0.1174269 0.0018002242 0.12993439 -0.0022863
000050 c8 26 a3 bd 0c c2 5b bd d0 04 80 3d 00 60 a0 ba
       -0.07966381 -0.053651854 0.06250918 -0.0012235641
000060 ba c9 f7 3d 20 32 9d 3b 88 ea e1 3d ec 8f 94 bd
       0.12099023 0.004797235 0.110310614 -0.072540134
000070 04 91 c2 bc a4 68 0e bd 32 8f 03 be 06 08 8e 3d
       -0.02375079 -0.03476776 -0.12847593 0.06935124
000080 10 ca 93 bd 5a 38 04 bd a8 ba 99 bd 00 71 bd bd
       -0.07216275 -0.032280304 -0.07506305 -0.09250069
000090 58 3e dc 3d 84 33 e7 3d 60 ed f1 bd 74 5b 5a bd
       0.107540786 0.11289123 -0.11812854 -0.053309873
0000a0 97 9e e4 bd e4 c9 e4 bc 90 6b c7 3c 85 2e 03 3e
       -0.11163061 -0.0279283 0.024343282 0.12810715
0000b0 57 e4 9c bd a4 44 ac 3d 00 cb 24 3c 80 a4 bf ba
       -0.0766074 0.0841153 0.010058165 -0.0014621168
0000c0 03 27 87 bd 33 b1 fa bd f8 b6 e3 3d 60 74 a2 3d
       -0.06599238 -0.12240829 0.11118883 0.07932353
0000d0 b4 ed 87 bd be cf ed 3d c4 32 d9 bc 00 e8 5e ba
       -0.06637135 0.11611889 -0.026513465 -0.00085031986
0000e0 68 20 db 3d d8 e0 d8 bd 04 0d 6e 3d aa 51 fe 3d
       0.106995404 -0.105897605 0.05811788 0.1241792
0000f0 f0 7c 67 bd 78 08 a9 bd a0 3f a4 bd 4f 10 f4 bd
       -0.056515634 -0.082535684 -0.08019948 -0.11917173
000100 94 20 03 be 84 8c 28 bd bc c4 8f 3d 20 ed f8 3c
       -0.12805396 -0.04114963 0.07019946 0.030386508
000110 34 69 09 bd 06 3d 68 bd 70 2c d9 bd 28 30 08 bc
       -0.033547595 -0.05669882 -0.10604179 -0.008312263
000120 ee 64 70 bd d0 d4 a3 bd 42 a0 93 bd d8 ea 04 be
       -0.058690004 -0.07999575 -0.07208301 -0.12980211
000130 dc 64 94 bc 50 88 da bd df 62 85 bd 18 fc ce 3c
       -0.0181145 -0.10670531 -0.06512999 0.025266692
000140 a2 38 c6 bd 40 26 62 3b 92 38 f5 bd 80 7b 33 3b
       -0.096787706 0.0034507662 -0.119736806 0.0027386844
000150 d6 7d 13 bd 48 15 1f bc 4f e7 d9 bd 14 03 a1 3d
       -0.03600868 -0.009709664 -0.10639822 0.07861915
000160 34 05 06 bd 0c 4c 02 3d e8 07 30 bd a0 6e 2c 3c
       -0.032719806 0.031810805 -0.04297629 0.010524422
000170 f8 46 5c 3d 78 f6 88 3d e6 92 ed bd 2c b0 94 bd
       0.05377862 0.06687635 -0.11600284 -0.072601646
000180 a0 88 c6 3b 10 8c a8 bd fc 78 91 3d b8 15 4e bd
       0.0060587674 -0.0822984 0.07103154 -0.05031368
000190 b6 68 be 3d 14 ba 54 bd 04 d5 d1 3d 5c ef 06 3d
       0.09297316 -0.05193527 0.10245708 0.032943115
0001a0 66 b6 ff 3d 64 ec 40 3d 78 35 5d 3d 10 0c 55 bc
       0.124859616 0.04710044 0.05400607 -0.013003364
0001b0 be 62 fa bd b7 51 c2 bd d8 3b 01 3d 60 93 b5 bd
       -0.12225865 -0.09488242 0.031551212 -0.08866
0001c0 70 a1 ca bd 36 20 ac bd 72 f6 9d bd ce 4c a4 3d
       -0.09894073 -0.08404581 -0.07713021 0.08022462
0001d0 d6 b8 8a bd 80 8a d5 3c 58 4a b3 3c a4 12 17 3d
       -0.06773536 0.026067019 0.021886036 0.03688301
0001e0 4c 76 ec bd 00 9a 28 3d 9c cb ce 3d 62 49 e7 3d
       -0.11546001 0.04116249 0.10097429 0.112932935
0001f0 9c 5e 01 bd bc bd 77 3d b6 db e5 3d fe d6 a7 3d
       -0.031584367 0.06048368 0.11223547 0.081953034
000200 f1 91 a6 3d 4b c1 ef 3c 3f e5 8d bd e2 ca af bd
       0.08133305 0.029266974 -0.06928491 -0.08583619
000210 2c 94 ff bd 7b 83 99 bd fe 40 e9 bd ac 61 01 3e
       -0.124794334 -0.07495781 -0.113893494 0.12634915
000220 f1 a9 cf bc 43 48 c4 3b 9e af 99 3d 43 d9 21 3e
       -0.025349589 0.0059900596 0.075041994 0.15805535
000230 57 8e d8 3c ff b7 89 3c d2 94 2a 3d fb 43 0b be
       0.02643506 0.016811369 0.041645832 -0.13600151
000240 14 01 2c 3d e0 04 60 3d 00 13 c0 3d 51 a8 e7 bd
       0.041993216 0.05469215 0.09378624 -0.11311401
000250 a1 d8 df bd 1e 47 dd 3d e0 07 eb 3c 06 dc 8f bd
       -0.109299906 0.1080458 0.028690279 -0.07024388
000260 8e a4 f6 3d d8 0a 65 bd c8 4f 0d 3d 98 10 e2 3d
       0.12043105 -0.055918545 0.034499913 0.11038321
000270 86 48 f3 bd b8 77 e7 bd 5a a7 72 bd e0 88 9f 3c
       -0.11879067 -0.113021314 -0.05924163 0.019474447
000280 50 36 b4 3d 76 55 f4 3d f8 90 45 bd 1e f7 95 3d
       0.08799422 0.11930363 -0.048233956 0.073225245
000290 e0 91 e3 3b 64 2e 00 bd d2 0b ef 3d c2 5e 38 bd
       0.00694488 -0.03129424 0.116721764 -0.045012243
0002a0 d4 66 f2 bd e0 5c c9 3c 09 8d b5 bd bb 91 9c bd
       -0.11836019 0.024580419 -0.08864791 -0.076449834
0002b0 a2 bb 76 bd 28 9c 9c 3d 10 48 fe 3c 2a 9a 0f bd
       -0.060237534 0.07646972 0.031040221 -0.03505913
0002c0 80 73 f5 bc 6c 97 28 3d 00 7a 32 3a 40 15 b4 3b
       -0.029962301 0.041160032 0.00068083405 0.0054956973
0002d0 70 dc 29 bc 00 40 dc 3a 62 12 b1 bd 1c 62 97 3d
       -0.010367498 0.0016803741 -0.08646084 0.0739176
0002e0 2c 24 a1 3d f8 17 48 bd 34 6d 8e bd 00 0a 91 bb
       0.07868227 -0.048850983 -0.069544226 -0.004426241
0002f0 b8 c5 e4 bc 4c 18 61 bd e8 32 94 3d 7c d5 78 3d
       -0.02792631 -0.054954812 0.07236272 0.06075047
000300 4d cf 6e 3c 3a bf 09 3d 27 5c 2b bc 04 4c 36 3e
       0.014575792 0.033629633 -0.010458983 0.17802435
000310 cb 42 fa bc 73 ff 14 3d 8f 4e f9 3b 91 4e c9 3c
       -0.030549427 0.036376428 0.007608242 0.024573596
000320 82 54 14 3d 5b 55 73 ba e4 20 be bd 41 a3 a8 3d
       0.036213405 -0.00092824333 -0.09283617 0.08234263
000330 1d 30 d7 3d 91 0b de 3d 69 25 14 3e df 06 c3 bd
       0.10507224 0.1084205 0.14467396 -0.09522795
000340 90 67 f8 bd dc 75 d9 bd 94 70 cb bd e8 37 fb bc
       -0.12129128 -0.10618183 -0.09933582 -0.030666307
000350 ad 57 04 3e 96 ef c6 bd d8 b9 80 bd fc eb 7a 3d
       0.1292407 -0.09713666 -0.06285447 0.06126021
000360 0a 5b fd 3d 24 b9 d1 3d 20 d4 a3 3b 8f 25 d7 bd
       0.1237088 0.10240391 0.0049996525 -0.105052106
000370 4c ef 8f 3d dc dc 9b bd 40 6a b9 bb ca cf 59 bd
       0.07028064 -0.07610485 -0.005658418 -0.05317668
000380 94 a3 a8 bd 90 e0 43 3c 32 fb 86 3d ed 38 e3 bd
       -0.08234325 0.011955395 0.065908805 -0.11094842
000390 3c 12 1c bd 84 5a a7 bc e6 7d f5 3d b8 d5 4f 3d
       -0.038103327 -0.020428903 0.11986904 0.050740927
0003a0 d6 0d 75 bd fc 4c be 3d fe 3e 79 bd 4b f7 d4 bd
       -0.059827648 0.09292027 -0.06085109 -0.1039873
0003b0 5c 6e ec 3d 08 12 c9 3c 7a 24 98 3d 7a d7 d0 3d
       0.11544487 0.02454473 0.07428832 0.10197349
0003c0 e8 bd e1 bc a6 92 91 bd 49 93 02 3e 9a 45 25 bd
       -0.027556375 -0.07108049 0.12751497 -0.04034958
0003d0 8b 47 a6 bd c0 71 1b 3b 5c b0 0a 3d 56 86 3a bd
       -0.081191145 0.0023718923 0.033859596 -0.04553827
0003e0 2a c9 d0 bd 64 36 8d bd 60 7d 46 3c 24 0e 03 bd
       -0.10194619 -0.0689514 0.012114853 -0.031995907
0003f0 b8 83 b5 3c 84 fc 3b bd 08 bb ff bc a4 8c ee 3d
       0.022157535 -0.045895115 -0.031217113 0.11647919

layers.1.weight f4 [4, 16, 16]
000000 94 cd 04 3e e4 05 e6 3d 97 09 25 3c d1 8f 2b 3e
       0.12969047 0.11231592 0.010073087 0.1675408
000010 a2 95 28 3e 21 d3 f3 3d 94 07 0a 3e af ef aa 3c
       0.1646333 0.11905504 0.13479453 0.020866243
000020 dc 88 b5 bd 52 49 01 bd b0 79 8a bd d8 59 a0 3d
       -0.088639945 -0.031564064 -0.06761491 0.07829636
000030 a4 c1 95 3d 14 84 0f 3e c8 5c 85 bd b3 4e d6 3d
       0.07312325 0.14015228 -0.06511837 0.104642294
000040 4d e7 5b bd 4c 16 37 be 59 88 8f 3c 5d 92 41 3e
       -0.053687382 -0.178796 0.01752107 0.1890349
000050 29 d2 2b 3e 56 c8 45 be 98 3a db 3c d7 e2 1a 3e
       0.16779388 -0.19314703 0.026761338 0.15125595
000060 91 cd 33 be d8 34 d4 bd 10 53 c8 3b 00 08 6e 3d
       -0.17558886 -0.10361642 0.0061134174 0.0581131
000070 5f 08 95 bc b3 53 15 3e f5 12 25 be ef ee 0c be
       -0.018192468 0.1458271 -0.16120513 -0.13763021
000080 bd 6a 35 be 0a 62 a5 3d c7 db ab 3c f7 07 17 3e
       -0.17716499 0.0807534 0.020978821 0.14749132
000090 02 0a 62 3d d3 31 c8 bd 6b a2 1d be 4d d0 24 bd
       0.055185325 -0.09775128 -0.15393989 -0.040237714
0000a0 66 2a 1b 3d 48 c6 0e 3e 5c 89 a0 3c ca 8d 0a be
       0.03788223 0.13942826 0.019596748 -0.1353065
0000b0 dc ff 19 be cf 1e 93 3b 7c 12 2e 3e 95 c0 02 be
       -0.15039009 0.0044897567 0.16999239 -0.12768777
0000c0 d0 bb f5 bd 0f 18 55 3c 02 d6 a1 bc d9 7f d8 bb
       -0.11998713 0.013006224 -0.019755367 -0.0066070375
0000d0 78 49 35 3e a5 3a 04 be fd 81 cf 3c 0c a1 d0 bd
       0.17703807 -0.12912996 0.025330538 -0.10186967
0000e0 cd c7 a4 bd e6 88 cf 3d 9a 0a f7 bc 55 1e 3f bd
       -0.080459215 0.10133533 -0.030156422 -0.046659786
0000f0 76 80 5e bd a8 cc a7 3d b2 7c 47 bd fa 32 3b be
       -0.05432173 0.08193332 -0.048702903 -0.18281165
000100 74 34 d7 3d 1a e5 39 be 82 52 27 be 6a 2b 6a 3e
       0.105080515 -0.18153802 -0.16340068 0.22868124
000110 61 ee 4f 3e ad 46 d1 3d 11 64 91 bd 37 45 2f bd
       0.20305778 0.102185585 -0.07099164 -0.042790618
000120 0a c1 aa 3d d7 8b 2a 3e de 94 23 3d 59 cd 3d 3e
       0.083376005 0.16654907 0.039936893 0.18535365
000130 dc 35 76 3d 4e 7d a5 3b 2f 79 63 3c d3 73 b2 bd
       0.060109958 0.005050338 0.013883873 -0.08713498
000140 63 d5 d9 3d fd 5d 10 bd 40 64 10 3e c0 ea 85 bd
       0.106364034 -0.035245884 0.14100742 -0.06538916
000150 b9 a0 31 be f7 c8 76 bc 7d 55 ea 3d 73 73 1d bb
       -0.17346467 -0.015062562 0.11442087 -0.0024025112
000160 dc 8c ee 3d 4a e7 a5 3d 5f 4c 0f be c5 31 49 3d
       0.116479605 0.081007555 -0.13993977 0.04911973
000170 98 d1 bf 3d eb 9f 16 bd 15 9a 13 3c ac 68 e1 3d
       0.09366149 -0.036773603 0.009008904 0.11006293
000180 8a 8e 84 3d e5 f1 26 3d 97 45 05 3e 16 01 0f be
       0.064725 0.040758032 0.13014828 -0.13965258
000190 b1 8b 4c 3c 7b fc e9 3d 3e 2b 6e 3d ae b4 11 be
       0.012484477 0.1142511 0.058146708 -0.1422908
0001a0 53 ec 97 bd 96 f7 85 bd 3b 50 4e be 0a 36 b3 3d
       -0.07418122 -0.06541364 -0.20147793 0.087505415
0001b0 eb 77 8d 3d e2 8f 9a bd 8b 13 db bc d3 8f e2 3d
       0.06907638 -0.07546975 -0.026742717 0.110625885
0001c0 42 c0 fa 3d 04 57 ce 3d cc 99 95 ba 59 04 0b bc
       0.122437015 0.10075191 -0.0011413633 -0.008484923
0001d0 03 eb 34 3e 31 a3 e1 3c 7d 52 17 bd 8d 86 07 3e
       0.17667775 0.027543636 -0.0369439 0.13234921
0001e0 0f 10 e1 3d 2e 86 f7 bd 19 0f 04 3e 84 2f fa bb
       0.10989391 -0.120861396 0.12896384 -0.007635059
0001f0 43 77 17 3e 68 25 b1 3d 2c 7d 58 3e 2b a7 eb bd
       0.14791588 0.08649713 0.211415 -0.11506494
000200 06 7c 80 bd 30 0c 06 bd 6e e3 5a be 51 c8 72 bd
       -0.062736556 -0.032726467 -0.2137582 -0.059273068
000210 ac 4b 1f be b6 eb 1b be ac d8 66 3d d1 8b a8 bc
       -0.1555621 -0.15226635 0.05635898 -0.020574482
000220 bb f1 3e be d6 0e ae bd 86 a6 82 bb 22 63 1b 3d
       -0.186469 -0.084989235 -0.0039871363 0.037936337
000230 22 9e cb bd 6d f6 ae 3d 94 dd 09 3b 2a 7f 36 3e
       -0.09942271 0.08543096 0.0021036612 0.17821947
000240 69 fa 2b 3d 5c 75 b8 bc cc ea 4b be 90 35 8d bd
       0.041986857 -0.022516899 -0.19913787 -0.06894982
000250 76 0b ae 3d 74 76 18 be bb 0e 05 3d 85 dd 18 3e
       0.0849828 -0.14888936 0.03248475 0.14928253
000260 d2 9d 33 3e 38 4e 08 3e 25 3c 05 3e 28 ae c9 3d
       0.17540672 0.13311088 0.13011225 0.09847671
000270 09 d6 bf bc f6 be f0 bd 9f fe 02 be 83 55 81 3d
       -0.02341749 -0.11755173 -0.12792443 0.06315138
000280 09 6e ff bd 9f 5b 1f be 52 88 d1 3d f8 f3 81 3c
       -0.124721594 -0.15562294 0.10231079 0.015863404
000290 37 e0 67 3c ed 49 bc 3d 61 d6 54 3e 01 13 1d be
       0.014152578 0.09193788 0.20784904 -0.1533928
0002a0 3e 1b 40 3e 03 dc 18 3e d3 a8 c5 3d ab e4 06 be
       0.18760392 0.14927678 0.09651341 -0.13173167
0002b0 15 00 40 bd 38 f7 5f bd 13 fb b3 bd 87 c1 04 3d
       -0.04687508 -0.054679126 -0.08788123 0.032411125
0002c0 2c 24 29 3d 6c 8b 46 be 18 5c b2 bc 9e 4b 30 bd
       0.04129426 -0.19389123 -0.02177243 -0.043040864
0002d0 9b 05 3e 3e 5b e1 a2 bb 77 50 4f 3e 59 24 3e 3e
       0.18556826 -0.004970712 0.20245539 0.18568553
0002e0 0c 40 93 3c df eb db 3b ac d5 03 bd 75 5b 05 bc
       0.017974876 0.0067114676 -0.032186195 -0.008139481
0002f0 e2 b7 01 3e 99 63 30 be 1c b9 5f 3e fa db e1 3d
       0.12667802 -0.17225493 0.21847957 0.11028285
000300 f0 68 2e be 12 be 82 3d e7 40 2b be 5d bb 38 3d
       -0.17032218 0.06383909 -0.16723977 0.04510056
000310 f2 69 02 3e 11 c9 6a bd a6 f8 46 3e fb 99 06 be
       0.12735727 -0.057320658 0.1943079 -0.13144676
000320 c7 ba 48 3e f0 f7 3e 3e 13 bf 24 3e 36 67 0d 3e
       0.196025 0.18649268 0.16088514 0.13808903
000330 bb 73 04 bb 82 2f 19 3e d0 b7 62 3d f5 81 1d be
       -0.0020210582 0.14959529 0.05535108 -0.15381606
000340 3e b3 57 bd d8 74 09 3e ab a8 33 be 60 1a 95 bd
       -0.052661173 0.13423479 -0.1754481 -0.07280421
000350 ed 74 40 3e d6 ce 2e be 44 2e 55 3e 59 20 26 3e
       0.18794604 -0.17071089 0.2081843 0.16223277
000360 f3 7a b0 bc 9b fc 34 3e 93 2f 16 3e 23 c0 44 3d
       -0.021543002 0.17674486 0.14666586 0.0480348
000370 b3 6a 48 bd bb e1 89 3d d6 09 2f 3e 71 d0 59 be
       -0.04892988 0.06732508 0.17093596 -0.2127092
000380 19 e5 1f 3d 2e 13 03 be 00 e9 00 be 07 fc 35 3e
       0.039036844 -0.12800285 -0.12588882 0.17771922
000390 00 a7 65 bc 7a ae 8f bd ad 75 22 be f7 e3 05 be
       -0.014016867 -0.07015701 -0.15865202 -0.13075243
0003a0 19 c4 90 3b 74 00 5f 3e 7c b4 34 3d bd 62 fa 3b
       0.004417908 0.21777517 0.044117436 0.007641165
0003b0 56 08 ed 3c 95 54 87 3d 10 94 27 3e 07 aa 1b 3e
       0.028934639 0.066079296 0.16365075 0.15201579
0003c0 d3 1e ee bd 58 4b af 39 7e 59 49 bc ac 04 9a 3d
       -0.11626973 0.00033434737 -0.012289403 0.07520422
0003d0 fb 9b 88 bd 6c d8 76 3d 2e 0a bc 3d 5d ec f6 bd
       -0.06670376 0.06026499 0.09181629 -0.120568015
0003e0 0e b5 2e ba cb 83 23 bd 92 2b 30 bd cd 64 17 be
       -0.00066645525 -0.03992061 -0.043010302 -0.14784546
0003f0 1d 14 92 bd bd 8f da bd a8 a5 98 bd 36 03 2e 3e
       -0.071327426 -0.10671947 -0.074534714 0.16993412

layers.2.weight f4 [4, 16, 16]
000000 d9 3a 98 3c b7 b4 58 bd 2b 57 1d be be 1e c3 bd
       0.018582748 -0.052906718 -0.15365283 -0.09527348
000010 cc d7 3d be 58 d6 82 3d db b9 27 bd 84 1e 89 bd
       -0.18539351 0.06388539 -0.04094873 -0.066952735
000020 2b e2 2a be e7 62 11 be ac 97 c7 3d f2 82 b1 bc
       -0.16687839 -0.14197885 0.09745726 -0.021668885
000030 d5 30 81 bc 6c be db 3d 37 c8 03 3e 32 13 1d bd
       -0.015770355 0.107296795 0.12869345 -0.038348384
000040 7a ab 19 be 0f 70 0f be 27 49 dc bd c2 e7 23 be
       -0.1500682 -0.1400759 -0.1075614 -0.16006377
000050 30 3d a6 bd 4b d6 a3 3d 36 f1 f8 bd 30 bb 54 be
       -0.08117139 0.079998575 -0.12155382 -0.20774531
000060 0c ab 85 bc 62 2b 41 be 6f ed cc 3d 78 5f ec 3d
       -0.016316913 -0.18864205 0.10006224 0.11541647
000070 e0 b1 a5 bd a5 2c 3c 3d 5a 66 93 bd d1 6f 94 3d
       -0.080905676 0.045941014 -0.071972564 0.0724789
000080 20 dd 2c 3e c8 f8 8c bd c7 c2 6d 3d b3 3f 50 bc
       0.16881227 -0.06883389 0.058047082 -0.0127105
000090 ad 3d b7 bd c9 46 18 be 02 96 c6 3c ca 1f a0 3d
       -0.089473106 -0.14870752 0.024241451 0.07818563
0000a0 ef 24 7b bd 42 1b 11 bb 95 f0 23 bc 09 e9 2b be
       -0.06131452 -0.002214149 -0.01000609 -0.16788115
0000b0 88 b4 38 3e 3e 02 dc 3d cc b4 e6 3d 01 e8 1f 3e
       0.18037617 0.10742615 0.11264953 0.15615846
0000c0 58 82 8a 3b 27 b9 06 3e 4f 8b 14 be f8 78 b9 bc
       0.004226964 0.13156568 -0.14506267 -0.02264069
0000d0 9d cb aa bc 6a 2a c0 bd 2a a1 55 3e 6f 1b 11 3d
       -0.020849044 -0.0938309 0.2086226 0.035426553
0000e0 db be ff bd 29 6f 12 be dd ce 80 3b 5d 11 54 bc
       -0.12487575 -0.14300217 0.00393091 -0.012943593
0000f0 dc e9 7a 3d 64 66 4a be 4e ab 39 3e 1c 83 50 3e
       0.061258182 -0.19765621 0.18131754 0.20362514
000100 30 1a cd bd 05 e3 4b bd 5f 88 15 be 74 f2 2c 3c
       -0.100147605 -0.04977705 -0.14602803 0.010555852
000110 ec bb ef 3d 6b 5e b3 3d 76 3a 60 3e 9f bd 03 bd
       0.11705765 0.08758243 0.21897301 -0.03216326
000120 8c 21 d2 bd e6 d5 dd 3c 77 49 e4 bc 90 2e 12 be
       -0.10260305 0.027079534 -0.027867062 -0.14275575
000130 4c d4 90 bd 4a 88 23 3e 1f 59 89 3d 4c 9d 0d 3e
       -0.070717424 0.15969959 0.067064516 0.13829535
000140 91 1c 42 be 41 e0 2f be 30 65 0f be 02 5d 32 3e
       -0.1895621 -0.1717539 -0.14003444 0.17418292
000150 11 66 87 bd fb 68 e4 bc e3 71 ae 3d d8 91 a6 bd
       -0.066112645 -0.02788209 0.08517816 -0.08133286
000160 52 77 63 bd d3 84 18 3e 6a 2c c4 bd 88 93 d5 3d
       -0.055533715 0.14894418 -0.09578784 0.1042853
000170 40 dd b4 3d e6 27 1e 3e 0c 3c 2a 3e 26 a7 18 be
       0.088312626 0.15444908 0.16624469 -0.14907512
000180 cc 08 30 3d 59 a2 47 3d 77 4b f3 3d f8 af 04 3e
       0.04297714 0.04873881 0.11879628 0.12957752
000190 97 81 f9 3b dd fb 7e 3d d8 6a 17 be 2b d7 c9 bd
       0.0076143253 0.062251914 -0.14786851 -0.09855493
0001a0 b4 15 0c be c1 64 40 bd a5 2a 1f 3d 3e 81 17 be
       -0.13680154 -0.046971086 0.03885903 -0.14795396
0001b0 74 81 cf 3d 20 55 1c be ab ea cc bd f7 27 2e 3e
       0.10132113 -0.15266848 -0.10005697 0.17007433
0001c0 fb 13 2b 3e af 8f 47 bd 16 84 e8 3d 05 55 91 bd
       0.1670684 -0.04872101 0.113533184 -0.07096294
0001d0 8d 25 21 3e 3a 36 a1 3d 01 a2 59 3e 44 03 67 be
       0.1573698 0.07871671 0.21253206 -0.2255984
0001e0 2f 09 85 3d 1a a0 70 be 77 ee 02 be 98 be 12 be
       0.06495892 -0.23498574 -0.1278628 -0.14330518
0001f0 80 0b 04 3e 46 a9 20 3d c5 cb 12 be f6 54 87 bd
       0.12895012 0.03922393 -0.14335544 -0.06608002
000200 3b 47 33 be 0a 50 63 3d 13 e4 0c 3e 11 f8 73 bc
       -0.17507641 0.055496253 0.13758878 -0.014890687
000210 0f 72 23 be b7 6a 47 3d 7c 61 ec 3d a2 81 de bd
       -0.15961479 0.048685756 0.11542031 -0.10864569
000220 37 fa d6 3c 9a 9d c5 bd c9 15 15 3e e6 f7 3a 3d
       0.026242359 -0.09649201 0.14559092 0.04564657
000230 2d eb de bd f4 2d 66 bc e9 b1 d5 bd 0e d4 02 bd
       -0.108847 -0.014049042 -0.10434324 -0.031940512
000240 bd 37 38 3e 22 ab 2c be 8a cc 0b be 9b db 8e bd
       0.17990012 -0.16862157 -0.13652244 -0.0697548
000250 24 08 a2 3d 79 f3 56 3e a1 c1 3b bd c8 7e 32 bd
       0.07911709 0.20991315 -0.045838956 -0.04357794
000260 c4 33 8d 3d cc de a4 bd 46 e0 e9 bd 89 ae 10 be
       0.06894639 -0.08050308 -0.1141973 -0.1412908
000270 56 ef 71 bd eb 6c 0c be 59 f0 95 bd a4 69 4d 3e
       -0.05906614 -0.13713424 -0.07321233 0.2005983
000280 a3 7b 42 3e fb 55 21 be a8 91 e7 3c d5 ee cc bd
       0.18992476 -0.15755455 0.028267696 -0.10006491
000290 dd 47 14 be 16 57 b2 bc 15 31 8b 3c 3a 60 05 3d
       -0.14480539 -0.021770041 0.016991178 0.032562472
0002a0 40 ee 05 3d 6c 9b 68 3d c5 ea 64 3d 5e e3 3c be
       0.032697916 0.056788847 0.055887956 -0.18446109
0002b0 50 19 1a be 6e d7 26 be 04 07 44 3d ff 8b b4 3d
       -0.15048718 -0.16293117 0.047858253 0.08815765
0002c0 71 27 22 3e 96 c6 3f be c0 b3 48 be 2a 19 32 bd
       0.15835358 -0.18728098 -0.19599819 -0.04348103
0002d0 40 eb 4a 3c e3 da d2 bd 3f 51 5c 3e 24 5a 11 3e
       0.0123851895 -0.102956556 0.21515368 0.14194542
0002e0 f5 7f 7f bd ec 91 38 be 7a a7 71 3d fa 39 d9 bd
       -0.06237789 -0.18024415 0.05899761 -0.10606761
0002f0 ab 3a 50 3d 95 e0 32 be 96 68 03 3e ba 62 5e bd
       0.0508372 -0.17468484 0.12832865 -0.05429337
000300 f1 c7 04 3e 99 ce 4b be fd 69 39 3c f6 35 17 be
       0.12966897 -0.1990303 0.0113167735 -0.14766678
000310 17 52 26 3c a6 c2 e3 3c a6 43 7a bd 7f 1d da 3c
       0.010151408 0.027802777 -0.06109967 0.026625393
000320 f0 c9 48 3b 81 9f 29 be 67 1d ac bd d2 5e af bd
       0.0030637942 -0.16564752 -0.084040456 -0.085630074
000330 3c 95 16 3e aa a8 e1 bd 83 86 bb 3d 0a 07 a5 3d
       0.14705366 -0.11018498 0.091565154 0.08057983
000340 98 dd a6 3d 8c 60 08 be 49 90 bc bd 30 1e 4a bd
       0.081477344 -0.1331808 -0.09207208 -0.049345195
000350 50 e3 19 3e ef 69 70 bd 99 1d 3d 3e 44 4d 8e bd
       0.15028119 -0.058694776 0.18468322 -0.06948331
000360 a9 09 b9 3c 45 61 3d be d1 56 34 be ff 83 f6 3d
       0.022587614 -0.18494137 -0.17611243 0.12036895
000370 f1 93 ab 3d 06 34 91 bd 18 a2 12 be e4 30 d4 bc
       0.08377827 -0.07090001 -0.14319646 -0.02590222
000380 3e 7d 52 3e ba a7 15 be 60 c7 96 3d 3b 95 41 3e
       0.20555589 -0.14614764 0.073622465 0.18904583
000390 70 1c 9f 3c b1 e2 32 3d 4e 42 de 3d 0f 5c d0 bd
       0.01942274 0.04367322 0.1085249 -0.10173809
0003a0 2c 54 20 be 45 74 b0 bd 53 42 28 be e1 ee 6f 3d
       -0.15657109 -0.08615927 -0.1643155 0.058577422
0003b0 b5 35 36 bd 39 cb b7 bc f8 4a 21 bd 49 e3 20 bc
       -0.044484813 -0.022435771 -0.039378136 -0.009819814
0003c0 7d 4e 25 be 44 df 01 bd 3e 3a 3a bd 14 fc 9d 3c
       -0.16143222 -0.031707063 -0.0454657 0.01928524
0003d0 f1 46 0b 3e fa ef 43 3e 70 81 1b bd 42 4d 64 bd
       0.13601281 0.19134513 -0.037965238 -0.05573774
0003e0 b4 29 83 bd cf c6 37 be 9b ee 51 be 48 54 56 3e
       -0.064044386 -0.17946933 -0.20501177 0.20930588
0003f0 28 4f ba 3c 03 8a 09 3e ef 4f 00 3e ba 77 0f be
       0.022742823 0.13431554 0.12530492 -0.14010516

layers.3.weight f4 [4, 16, 4]
000000 53 72 2a bd 04 d7 63 3e 8a 70 05 be eb a4 65 3d
       -0.041612934 0.2224999 -0.13031211 0.05606548
000010 4f 49 f7 3c fe 8e ac be 29 00 68 3d c5 7f 0f 3d
       0.030186323 -0.33702844 0.056640778 0.03503396
000020 13 fa 9c 3b 44 ea 27 be b5 80 84 3e ed d1 3b 3e
       0.0047905534 -0.16397959 0.25879446 0.18341799
000030 3b cc 08 bc 45 92 09 be 93 e0 c6 bd 8f af c3 be
       -0.008349474 -0.13434704 -0.09710803 -0.38219878
000040 40 38 80 3d 55 df ae be 9b 77 bb bd 13 2b 33 3e
       0.06260729 -0.34154764 -0.09153672 0.174969
000050 7e 1e d4 3e 99 0c cb 3e 6a 45 7b be 61 fd 2f bc
       0.41429514 0.3965805 -0.24538198 -0.010741563
000060 6c 77 bb 3e ed e7 20 3d f7 99 4c 3e 3d e6 e0 bc
       0.3661455 0.03928368 0.19980608 -0.027453536
000070 8c af 27 be 56 a8 7c 3e f3 21 3a be 8c 70 17 3e
       -0.1637556 0.2467359 -0.18177013 0.14789027
000080 52 55 54 3e 3f 9a 54 bd 66 94 60 be 57 6e 71 3e
       0.20735672 -0.051904913 -0.2193161 0.23577248
000090 ed 7f 54 be c0 67 6e be 8f 14 0b 3e 1a 37 81 bd
       -0.20751925 -0.23281765 0.13582061 -0.06309338
0000a0 c7 6e b2 be 00 ee b3 bd 9f e9 12 3e ec b2 97 3e
       -0.3485014 -0.08785629 0.14346932 0.29628694
0000b0 ba b3 97 3e 1c 0e bf 3e 97 34 23 be e6 8c 98 3e
       0.29629308 0.37315452 -0.1593803 0.29794997
0000c0 09 91 b7 3e f6 ee 7c 3e 00 e3 6d 3e 5c 0a 9f be
       0.3585284 0.24700531 0.23231125 -0.3106259
0000d0 ac 4a 6e be 59 b4 47 bc 65 d0 aa bd 0c f4 77 3e
       -0.23270673 -0.012188994 -0.08340529 0.2421419
0000e0 67 f1 56 3e 94 53 a4 be 2d d9 3e be 7b 04 84 bd
       0.20990525 -0.32095015 -0.18637533 -0.06446167
0000f0 51 fd d4 bd 0d 1c 8f bc 73 3e e5 3c 35 b4 59 be
       -0.10399879 -0.01746943 0.02798388 -0.2126015
000100 e2 a2 b1 3e 9f 66 d8 3d 52 cf aa 3e df 71 bc be
       0.34694582 0.105664484 0.33361298 -0.36805627
000110 0d d6 58 be 47 3f 37 3d ef df 06 3d 16 19 6d be
       -0.21175404 0.04473808 0.032928403 -0.23154101
000120 0b 59 a0 3e 05 8a 61 be e9 8b 91 bd 71 50 9b 3e
       0.31317934 -0.22025307 -0.07106764 0.3033481
000130 a4 91 fe 3c 6e 79 ae bd d0 fb c5 3e 5b 8a f8 bd
       0.031075306 -0.085192546 0.3866868 -0.12135764
000140 11 22 1c be 3f ad b5 3e e7 9f 72 3e 14 66 08 be
       -0.1524737 0.3548374 0.2369381 -0.1332019
000150 58 31 71 3e 6b b4 40 be 9f fd 63 bd 84 93 37 3d
       0.2355398 -0.18818824 -0.055661794 0.044818416
000160 3b 7e 8c 3e 2e c4 7f be ae a2 82 3d 84 e5 1f 3e
       0.27440056 -0.2497718 0.06378685 0.15614897
000170 06 2f 35 be a5 d4 20 be 61 98 82 3e 2c d8 9b be
       -0.1769372 -0.15706117 0.2550688 -0.30438364
000180 97 f3 9e be dd 24 aa bd bc cc 9b 3e a7 8d 68 3e
       -0.3104522 -0.08307812 0.30429637 0.22710286
000190 0b 37 6b be f8 87 d4 bd 41 38 09 3e 77 a3 b9 be
       -0.22970216 -0.103774965 0.13400365 -0.36257526
0001a0 15 81 2f 3e a2 c5 8a 3e 83 b8 2f be 9e e1 96 be
       0.17139085 0.27103907 -0.1716023 -0.29469007
0001b0 70 56 85 3e c7 12 8b be 13 5b 92 3e 5d 7f 3a 3e
       0.2604251 -0.27162763 0.2858511 0.18212648
0001c0 86 d0 b8 3e f0 3a ab be 6d c2 d5 bc 25 e3 66 be
       0.3609659 -0.33443403 -0.026093686 -0.22547586
0001d0 f5 a3 f7 bd 16 94 c7 3e c3 5d ee 3d d7 9b ba 3d
       -0.12091819 0.38980168 0.116389774 0.09111755
0001e0 b5 da c3 3e 1d 08 94 3e 1e f9 09 bd be 3e b0 be
       0.38252798 0.2891244 -0.033684842 -0.34422868
0001f0 b8 3d 5d 3e 11 13 f6 3d 00 25 79 bd 96 dd 3d 3e
       0.21605575 0.120153554 -0.0608263 0.1854156
000200 36 09 35 be 7e c4 eb bd cd 72 2e be 56 c8 ad bd
       -0.17679295 -0.11512087 -0.1703598 -0.08485477
000210 e9 aa 21 3d b1 31 ba 3e 32 dc 85 3e 2c d2 9c 3d
       0.039469633 0.36366037 0.26144558 0.076572746
000220 ec 63 86 be 5c cf 85 be 95 de ab 3e e7 83 cd bd
       -0.2624811 -0.26134765 0.33568254 -0.10034924
000230 63 bf cc 3e cf ab 0c be 42 0b 89 be f4 14 92 be
       0.39989766 -0.13737415 -0.26766402 -0.2853161
000240 02 20 28 3d 71 68 1d 3e 4b e5 02 bc cf 2f c4 be
       0.04104615 0.15371872 -0.007989238 -0.38317725
000250 5a 52 58 3d 97 6c 27 3e 55 94 55 bd e0 6a 31 3e
       0.05281291 0.16350017 -0.052143414 0.17325926
000260 69 2a c1 3c 54 9e c1 3d 15 91 9d 3e f3 ba 5e 3d
       0.023579793 0.09454027 0.3077475 0.054377507
000270 c7 54 c5 bd 5d 56 9d be 50 24 8e 3d bf e5 5a be
       -0.096353106 -0.30729952 0.0694052 -0.21376704
000280 0f cc 35 be 10 10 78 bd 58 03 91 3e 40 0f ed 3b
       -0.17753623 -0.060562193 0.28322864 0.007234484
000290 09 24 98 be 85 11 34 be 34 e7 d6 3d 50 f7 76 3d
       -0.29714993 -0.17584808 0.10493317 0.06029445
0002a0 b6 f5 d1 3e 89 08 a7 3e 25 f6 80 3d 5e d8 a3 3d
       0.41007775 0.326237 0.06296948 0.08000253
0002b0 a3 17 70 3e 6d 45 64 be 7b a8 e8 3b e3 51 ac 3e
       0.23446517 -0.22292109 0.0071001626 0.33656225
0002c0 8b c2 81 3e be c9 3d be 29 78 84 be 04 9c 80 bd
       0.25343737 -0.1853399 -0.25872925 -0.062797576
0002d0 41 a3 4d bd d6 f7 08 3e b6 d6 e7 bc 28 ca 14 be
       -0.05020452 0.13375792 -0.028300624 -0.14530241
0002e0 ac ca 8e 3e dc 9c aa bd 8f fb 2f 3e e2 db a3 be
       0.27889 -0.083307 0.17185806 -0.32003695
0002f0 ed 33 ce 3e 0a ed f8 3c 3a bc ad be 05 2c 5a be
       0.4027399 0.030386467 -0.33932668 -0.21305855
000300 9e 12 b0 bd e0 57 a1 3e 94 6d 89 3e ef ce bf 3c
       -0.08597301 0.31512356 0.26841414 0.023414103
000310 1a 8e 0d 3e 18 be ee 3d 2a 51 6d 3e e8 fa 87 be
       0.13823739 0.11657351 0.23175493 -0.26558614
000320 33 7c 94 be 02 8a 1e be 1c b1 b1 be 07 1f 33 be
       -0.29001006 -0.15482333 -0.34705436 -0.17492305
000330 ba 02 e7 bd 2f 2c 41 be 28 ae b9 3e 38 57 7f 3d
       -0.11279817 -0.18864511 0.36265683 0.062339038
000340 9c 1f a7 3e 58 01 b2 bd 5e ad bf 3e 8f f1 07 be
       0.32641304 -0.086916625 0.37436956 -0.13275741
000350 cc 0b 77 bd 4b aa 85 be ac a7 6b be 35 50 12 be
       -0.060313985 -0.26106486 -0.2301318 -0.14288409
000360 95 90 30 3e 22 30 8d 3d 64 ff d3 3d 63 ab 80 be
       0.17242654 0.06893946 0.10351446 -0.25130758
000370 2b 35 55 be 74 d2 19 3e 44 82 58 be f6 51 b8 be
       -0.20821063 0.15021688 -0.21143442 -0.3600003
000380 63 da af 3e 67 97 43 be ea 70 3f 3e da 33 a9 3e
       0.34346303 -0.19100724 0.18695417 0.33047372
000390 69 de 41 be ae 9f ee 3d 2b 5c 9f 3e 30 c4 b5 be
       -0.18932499 0.1165155 0.31125006 -0.35501242
0003a0 81 59 a9 be e3 40 8d 3e 2f 1c 03 be 32 6c 0e 3d
       -0.330761 0.27588567 -0.1280372 0.03477115
0003b0 4e 2e 76 3e 4e 3f 80 bd 4e 37 02 be f5 2c 3a be
       0.24041101 -0.062620744 -0.1271641 -0.18181212
0003c0 96 e5 ab 3e d2 fb fd bd 18 fc 39 3e 08 f7 8b 3d
       0.33573598 -0.124015465 0.18162572 0.06834227
0003d0 d6 18 3f be 9a c9 80 3e d0 4d 9c be 53 41 20 3e
       -0.18661818 0.2515381 -0.30528116 0.15649919
0003e0 a4 83 be 3e db fe 85 3e 32 6b 18 3e 55 c9 65 bb
       0.3720981 0.26171002 0.14884642 -0.003506263
0003f0 68 ee cf 3e 06 5d b4 3e 7c 04 68 3c b8 9e 21 3e
       0.40611577 0.3522722 0.014161225 0.15783203

attn.fc.weight f4 [4, 4]
000000 68 a9 ca 3e 68 98 d9 3d dc 71 fd 3d c9 8b a6 3e
       0.39582372 0.10624772 0.123752326 0.32528523
000010 e1 a7 06 3e a9 46 ee 3d 42 be f5 3c c3 13 cf 3e
       0.13149978 0.11634571 0.029997949 0.40444764
000020 06 f5 ab be 26 c6 e6 bd 25 50 52 be 5a a9 97 3e
       -0.33585376 -0.112682626 -0.20538385 0.29621392
000030 83 dc 9a bd 90 6f de 3e da ab b6 be c9 6f 98 bd
       -0.075615905 0.4344449 -0.35677987 -0.07443196

attn.attn_fc.weight f4 [1, 8]
000000 e1 d5 82 3e 66 92 01 bd 78 15 4f bd af 6b 8a be
       0.25553802 -0.031633757 -0.050557584 -0.2703528
000010 89 6c 89 3d d4 21 8f 3e 8e d1 d9 bc bb 0d fc bb
       0.067101546 0.27955496 -0.026589181 -0.0076920665

dense.weight f4 [1, 4]
000000 b7 de b6 3e ae 9c 95 be 61 ac 89 be b6 7a 9d 3d
       0.35716793 -0.292211 -0.26889327 0.07689421
